mnist_model.pth (torch, 56176 bytes, 8 tensors)

0.weight f4 [4, 1, 3, 3]
0	0x3e1fe63e	0.15615174
1	0x3f16f7c7	0.5897183
2	0x3ec5c54e	0.38627094
3	0xbe040e39	-0.1289605
4	0x3d92b8a0	0.07164121
5	0x3bdd320e	0.0067503517
6	0xbea08b74	-0.31356394
7	0xbf0d31b8	-0.5515399
8	0xbf333196	-0.6999754
9	0x3ee255b5	0.44206014
10	0xbe056a10	-0.13028741
11	0xbe9708bd	-0.29498854
12	0x3ef74a63	0.4829894
13	0x3d31f92a	0.043450512
14	0x3efe5169	0.49671486
15	0x3e9a3fa2	0.30126673
16	0x3f022b6b	0.508475
17	0x3eed2703	0.46318826
18	0xbea850d4	-0.32874167
19	0xbef1fe8f	-0.47264525
20	0xbeb28f5e	-0.34875005
21	0xbe440b09	-0.19144835
22	0xbeabc064	-0.3354522
23	0xbecd4712	-0.40093285
24	0x3d8c1580	0.06840038
25	0xbed4fbac	-0.4159826
26	0xbe86d128	-0.2633145
27	0x3ee82b9b	0.45345768
28	0x3e0c5064	0.13702542
29	0xbe91f527	-0.2850735
30	0x3e88a4aa	0.2668813
31	0x3e50f15e	0.20404574
32	0xbeee5b37	-0.46553966
33	0x3e46c6c9	0.19411768
34	0x3cc3890a	0.023869056
35	0xbeb156dd	-0.34636584

0.bias f4 [4]
0	0x3e8ddab9	0.27705935
1	0x3e4762f4	0.19471341
2	0x3eec06dd	0.46098986
3	0x3d32b235	0.043626983

3.weight f4 [8, 4, 3, 3]
0	0xbdd8af04	-0.105802566
1	0x3db1a33e	0.08673714
2	0xbe0751a5	-0.13214739
3	0x3e4a8b0f	0.19779609
4	0x3e8331b3	0.25623855
5	0x3ebb9de8	0.3664391
6	0xbd0602a1	-0.03271735
7	0x3e6209a8	0.22073996
8	0x3db76f91	0.089568265
9	0x3e901d70	0.2814746
10	0x3e4f8b02	0.20267871
11	0x3e946f2a	0.2899106
12	0xbde76b9d	-0.112998225
13	0x3dcd4c33	0.100242995
14	0xbd565bfb	-0.052333813
15	0xbe990a9a	-0.298909
16	0xbe1c6c0a	-0.15275589
17	0xbea4cb97	-0.32186577
18	0xbe3065bb	-0.17226307
19	0xbe21cb12	-0.15800121
20	0xbaa8404e	-0.0012836547
21	0x3ce4e161	0.0279395
22	0xbe6421ba	-0.2227849
23	0xbe6a0bf1	-0.22856118
24	0x3e7e0f6b	0.24810569
25	0x3e27fc73	0.16404895
26	0x3e038e04	0.12847143
27	0xbaf8300b	-0.0018935216
28	0xbdebf20b	-0.115207754
29	0xbea04211	-0.31300405
30	0xbd44a0a0	-0.048004746
31	0xbdc18d3e	-0.09450768
32	0xbe6321f7	-0.22180925
33	0xbe809f4d	-0.25121537
34	0xbd1781a0	-0.036988854
35	0xbe63869b	-0.22219317
36	0xbe5f3413	-0.21797208
37	0xbbce20ae	-0.006290517
38	0xbda03531	-0.078226455
39	0xbe89cc52	-0.26913697
40	0xbe9c33fe	-0.30508417
41	0x3d5a83ad	0.053348232
42	0x3e287bfa	0.16453543
43	0x3d43ec35	0.047832686
44	0x3b9d4486	0.0047994284
45	0x3e74179b	0.2383713
46	0xbe89bcd8	-0.2690189
47	0xbeb29017	-0.34875557
48	0x3e951991	0.29121068
49	0xbd1c179f	-0.038108464
50	0xbe9d579b	-0.307309
51	0x3e30ae11	0.17253901
52	0x3e2ba886	0.16763505
53	0x3eac7de0	0.33689785
54	0xbdb9f2ab	-0.09079488
55	0xbbc426e8	-0.0059860833
56	0xbcb77508	-0.022394672
57	0xbd73152c	-0.059346363
58	0xbb8abb8c	-0.004233783
59	0x3dc63025	0.096771516
60	0xbde3a0f6	-0.11114685
61	0xbe43e9c7	-0.19132148
62	0xbd454e40	-0.04817033
63	0x3ea74e1c	0.3267678
64	0xbe18d61c	-0.14925426
65	0xbe3777e3	-0.17916827
66	0x3e00d787	0.12582217
67	0xbe051577	-0.1299647
68	0xbdcfe5ca	-0.10151251
69	0x3e1b7a81	0.1518345
70	0xbe1b6322	-0.15174535
71	0x3d5c2d77	0.053754296
72	0xbeaf7c3d	-0.34274474
73	0xbe7e92ec	-0.24860734
74	0xbc8c372c	-0.017116152
75	0x3d4977ea	0.049186625
76	0xbd833554	-0.06406656
77	0xbea0264f	-0.31279227
78	0x3dd8fcd9	0.10595102
79	0xbc64a1f3	-0.013954627
80	0x3e28aaea	0.16471449
81	0x3e6ea843	0.23306374
82	0x3e18b4f4	0.14912778
83	0xbe3ecb99	-0.18632354
84	0xbd80ca92	-0.06288637
85	0x3e42f98c	0.19040507
86	0x3e3f9b77	0.18711649
87	0xbe04aa52	-0.12955597
88	0x3dbb34ad	0.091409065
89	0x3d8cfa12	0.068836346
90	0xbd9e170d	-0.0771924
91	0xbe822dfa	-0.25425702
92	0xbdf48814	-0.11940017
93	0xbe8645eb	-0.26225218
94	0xbe906c5b	-0.2820767
95	0xbe00e439	-0.1258706
96	0x3dbaa8a1	0.09114195
97	0xbd356f27	-0.044295456
98	0xbdd0bceb	-0.10192283
99	0xbd0b4214	-0.033998564
100	0x3e89cdd6	0.26914853
101	0x3e635e1f	0.22203873
102	0xbe89ab82	-0.26888663
103	0xbe07f802	-0.13278201
104	0x3d576f26	0.052596234
105	0xbe5aa3c5	-0.21351536
106	0xbebf21e9	-0.3733056
107	0xbd292ad0	-0.041300595
108	0xbe87e2e7	-0.265403
109	0xbd63546e	-0.05550044
110	0xbdc28cf6	-0.094995424
111	0xbe37d693	-0.17952947
112	0xbe42ac9a	-0.19011155
113	0xbd43e606	-0.04782679
114	0xbdfa0ceb	-0.12209495
115	0xbdaef818	-0.08543414
116	0xbdc9d4d7	-0.09855049
117	0xbc87a3d4	-0.016557612
118	0x3e4a14d8	0.19734514
119	0xbe33010e	-0.17480871
120	0x3c1f43f5	0.009720792
121	0x3d5d903c	0.05409263
122	0xbe988960	-0.2979231
123	0x3e3dcfe2	0.18536332
124	0x3d203407	0.039112117
125	0xbe313d4a	-0.17308536
126	0xbc89e5a4	-0.016833134
127	0x3c851690	0.01624611
128	0xbd14f3dc	-0.036365375
129	0xbe833b3b	-0.25631127
130	0xbe443f92	-0.19164875
131	0x3e0773eb	0.13227813
132	0xbceb1263	-0.02869529
133	0xbd56712f	-0.052354034
134	0x3e0e7b00	0.13914108
135	0xbd3bb7ca	-0.04582957
136	0x3ee42af9	0.44564036
137	0x3eac0599	0.3359802
138	0x3e130aaa	0.14359537
139	0x3ed35ddf	0.41282555
140	0x3de448b6	0.11146681
141	0x3ec9257b	0.39286408
142	0x3eac861c	0.33696067
143	0x3d954604	0.07288745
144	0x3da729df	0.08162283
145	0xbcd56957	-0.026051207
146	0xbd8eaa15	-0.06966034
147	0x3dd4ed26	0.10396795
148	0xbcb65817	-0.022258801
149	0x3c21fdf7	0.00988721
150	0x3f06c019	0.5263687
151	0x3ec6c79d	0.38824168
152	0x3effdf49	0.4997504
153	0xbe73bd52	-0.23802689
154	0xbe576f21	-0.21038486
155	0xbd21636a	-0.03940145
156	0x3e4e47ad	0.2014453
157	0x3e6a4305	0.22877128
158	0x3e6480e6	0.22314796
159	0xbdc3787c	-0.09544465
160	0xbde9cbf8	-0.11415857
161	0xbe82cc88	-0.2554667
162	0xbd64635f	-0.05575883
163	0x3dbe9681	0.0930605
164	0xbd3e3fb8	-0.046447486
165	0x3d8b69ba	0.06807275
166	0xbe6c34d2	-0.23067024
167	0xbcebc223	-0.028779095
168	0xbe29ef62	-0.16595224
169	0xbdb9e6d4	-0.0907723
170	0x3c30122d	0.010746521
171	0x3e4c3a92	0.19944218
172	0xbc6772cb	-0.01412649
173	0xbdbc6788	-0.091994345
174	0xbe3e6c43	-0.18595986
175	0xbdc844b4	-0.09778729
176	0xbb5abff2	-0.0033378568
177	0x3d9226ed	0.07136331
178	0x3cea8b33	0.028630828
179	0xbca1596d	-0.019695962
180	0x3e005cbf	0.1253538
181	0xbdcb91bb	-0.09939905
182	0x3cb353c4	0.021890529
183	0xbdcb1ece	-0.09917985
184	0x3b0b6e85	0.0021275592
185	0x3c8e29e7	0.017353965
186	0xbe243de0	-0.16039228
187	0xbe220e16	-0.15825686
188	0x3e787f9e	0.24267432
189	0xbeab2947	-0.3342993
190	0xbe8882a1	-0.26662162
191	0xbeaea8d3	-0.34113178
192	0x3e8a7560	0.27042675
193	0x3ca49001	0.020088198
194	0x3e3d0a39	0.18460931
195	0x3e5f14cb	0.21785276
196	0x3e8171a3	0.2528201
197	0x3e0a922c	0.13532323
198	0x3e3e9098	0.18609846
199	0x3daa5409	0.0831681
200	0x3d5b9993	0.053613257
201	0x3e2d414a	0.16919437
202	0x3c855fd7	0.016281052
203	0x3b454ec4	0.0030106762
204	0xbe7854f0	-0.24251151
205	0xbdfd59bc	-0.12370631
206	0xbdc6859b	-0.09693452
207	0xbe9c1e4d	-0.30491868
208	0xbeab966b	-0.33513197
209	0xbda57ccb	-0.08080443
210	0xbd11b851	-0.03557617
211	0xbdf9a3d1	-0.121894486
212	0xbed4301f	-0.41442963
213	0x3df65520	0.12027955
214	0xbe292714	-0.16518813
215	0x3cbf8311	0.023377927
216	0x3e079e04	0.13243872
217	0x3ca59e61	0.020217123
218	0x3d8d0de3	0.06887414
219	0x3e2f2909	0.17105497
220	0xbc831ea9	-0.01600583
221	0xbe8a582b	-0.27020392
222	0x3b2af4c0	0.0026085824
223	0xbe3a3b5d	-0.18186708
224	0xbe990433	-0.29886016
225	0x3e8e4438	0.27786422
226	0x3e284ae3	0.16434817
227	0xbcf0b2e2	-0.029382173
228	0xbe80748c	-0.25088918
229	0xbd66b5fc	-0.056325898
230	0x3e707daf	0.23485444
231	0xbea96987	-0.33088323
232	0x3dd99c22	0.10625483
233	0x3e415158	0.18878686
234	0xbe6a3c06	-0.2287446
235	0xbe909988	-0.28242135
236	0xbe479799	-0.19491424
237	0x3e006dec	0.12541932
238	0xbcbcf73b	-0.023067107
239	0xbe616401	-0.22010805
240	0x3e412039	0.18859948
241	0xbe23eeb6	-0.1600903
242	0xbd6670ff	-0.056260105
243	0xbdda6265	-0.106632985
244	0xbc2bbd25	-0.010482107
245	0x3d9b21cd	0.07574806
246	0xbe639371	-0.22224213
247	0x3dd125aa	0.10212262
248	0x3e849767	0.2589676
249	0xbef0d93c	-0.47040737
250	0xbe978c8a	-0.2959941
251	0x38ded8b0	0.00010626146
252	0x3d3e31ad	0.046434093
253	0x3de52b22	0.111898676
254	0x3ea19af5	0.31563535
255	0xbe07e1f3	-0.13269787

3.bias f4 [8]
0	0xbe0ec22c	-0.13941258
1	0xbd282b9c	-0.041057214
2	0x3d8f881f	0.07008385
3	0xbdaa3b62	-0.083121076
4	0xbe03c287	-0.12867175
5	0xbde9d494	-0.11417499
6	0x3c30f2cb	0.010800074
7	0x3e4aebca	0.19816509

8.weight f4 [32, 392]
0	0x3cf9d0d1	0.03049508
1	0xbc635f19	-0.0138776535
2	0xbccd2935	-0.025044063
3	0xbd8877d5	-0.06663481
4	0x3d8436a3	0.064557336
5	0x3ac4a0da	0.0015001551
6	0xba96d8ea	-0.0011508737
7	0x3c5f47da	0.013627971
8	0xbcd05080	-0.02542901
9	0x3d420a23	0.04737295
10	0x3ce7f8e5	0.028316924
11	0x3bf2d9ec	0.007411232
12	0xbe06fbf2	-0.13182047
13	0xbdb73d70	-0.08947265
14	0x3da0276c	0.07820019
15	0x3e0b0161	0.13574745
16	0x3e181551	0.14851882
17	0x3df2328a	0.11826046
18	0x3d4453db	0.047931533
19	0xbcfea957	-0.031086607
20	0xbd29d2b5	-0.04146071
21	0x3e00e0c1	0.12585737
22	0x3dbc8d0b	0.09206589
23	0xbdec3fe6	-0.11535625
24	0xbd8722ac	-0.0659841
25	0x3c8009d9	0.015629696
26	0x3b9f5488	0.004862372
27	0x3c8f96db	0.017527988
28	0xbcd311a5	-0.02576525
29	0xbd03bc9a	-0.032162286
30	0xbd326357	-0.04355177
31	0x3cb9a90d	0.022663618
32	0xbd45936d	-0.0482363
33	0xbcc20762	-0.023685161
34	0x3c5f02b1	0.0136114815
35	0x3ba56bdd	0.0050482587
36	0xbd1e2c91	-0.03861672
37	0xbc97a911	-0.018513234
38	0xbce089bd	-0.027409429
39	0xbd1d7495	-0.03844126
40	0xbcdd4471	-0.027010174
41	0x3d321352	0.043475457
42	0x3ca331ad	0.019921148
43	0x3c6e8ce5	0.014559959
44	0x3d355c98	0.044277757
45	0xbc4ccb31	-0.0124996165
46	0x3d2d8a70	0.042368352
47	0x3da38b48	0.0798555
48	0x3dbfa110	0.09356892
49	0x3d45d4c1	0.0482986
50	0xbc8deed2	-0.017325792
51	0x3d60afa0	0.05485499
52	0x3c019ef7	0.007911435
53	0xbd447b1f	-0.04796898
54	0xbd93dccc	-0.07219848
55	0xbced8255	-0.028992811
56	0x3d0f55bc	0.034993872
57	0x3d2a0c25	0.04151549
58	0xbd062691	-0.032751624
59	0x3df49e5d	0.11944268
60	0x3e01f6ca	0.12691799
61	0x3cf12c52	0.029440079
62	0xbc1bfbdf	-0.0095205
63	0x3d21b214	0.03947647
64	0xbd7cd03f	-0.061722036
65	0xbd1611ef	-0.036638197
66	0xbc322749	-0.010873624
67	0x3d7af9f2	0.061273523
68	0xbcc8377b	-0.024440518
69	0xbced3534	-0.028956033
70	0x3c9bf0e9	0.019035773
71	0x3dc93a4b	0.098255716
72	0x3da06c9e	0.07833217
73	0xbe2bb104	-0.16766745
74	0x3bcd98e4	0.0062743295
75	0xbd9dfc1f	-0.07714104
76	0xbd057c1a	-0.032589056
77	0x3cd25964	0.02567739
78	0xbd37187a	-0.044701077
79	0xbe5cdcce	-0.21568605
80	0xbdb7bb67	-0.08971291
81	0x3dd4b3ea	0.103858784
82	0xbc98079d	-0.018558318
83	0xbcf6f9c5	-0.030148396
84	0x3d43f948	0.047845155
85	0xbde4c37b	-0.111700974
86	0xbe206a9d	-0.1566567
87	0x3d8ee9b8	0.06978172
88	0x3dc57960	0.09642291
89	0xbc9c35e0	-0.019068658
90	0x3d42a19f	0.047517415
91	0x3d3a3835	0.04546376
92	0xbce254db	-0.027628353
93	0x3d82ab7d	0.06380365
94	0x3e3a7b97	0.18211208
95	0x3e131175	0.14362128
96	0x3dfc56f4	0.123212725
97	0x3d142d03	0.03617574
98	0x3a836487	0.0010024466
99	0x3d0ea668	0.034826666
100	0x3d636f2e	0.05552595
101	0xbc05e576	-0.0081723835
102	0xbcb49457	-0.02204339
103	0xbd4ab099	-0.049484823
104	0xbca0ca4b	-0.01962771
105	0x3c7937de	0.015211074
106	0x3c9fb488	0.019495264
107	0x3d23bc1e	0.039974324
108	0x3d824201	0.063602455
109	0x3d58cc33	0.052929115
110	0x3c2d8566	0.010590887
111	0xbc224125	-0.009903227
112	0x3c80f74e	0.015742924
113	0x3d806171	0.062685855
114	0xbd399864	-0.045311347
115	0x3df87a27	0.12132674
116	0x3df0ccaa	0.117577866
117	0xbbb948b5	-0.0056544193
118	0xbd355f8a	-0.044280566
119	0xbca5b234	-0.020226575
120	0xbda7caa4	-0.081929475
121	0xbe052a8a	-0.13004509
122	0xbd28cf52	-0.04121334
123	0xbd37fbf6	-0.044918023
124	0xbddf07c3	-0.10890152
125	0xbd6dba8d	-0.058039237
126	0xbd8c1cd1	-0.06841434
127	0xbc38d1f7	-0.011280528
128	0xbd46827c	-0.048464283
129	0x3ced845d	0.02899378
130	0x3d1beb08	0.03806594
131	0xbca9bf53	-0.020721113
132	0x3b8ff8b9	0.0043936637
133	0xbc0383f7	-0.008027068
134	0xbcc1ada4	-0.023642369
135	0xbd58bb43	-0.05291296
136	0x3c49e097	0.012321613
137	0xbca32fbd	-0.019920224
138	0x3b397c2a	0.0028302767
139	0x3c97d975	0.018536309
140	0x3d49ca1c	0.049265012
141	0x3d7c39b3	0.061578464
142	0x3c39facc	0.011351299
143	0x3cf6191b	0.030041268
144	0x3dce83ab	0.100837074
145	0x3c5afdc3	0.013366166
146	0xbc34455d	-0.011002866
147	0x3c8bae4b	0.017050883
148	0x3b3c0187	0.0028687434
149	0xbd95da33	-0.07317009
150	0x3d8b65d2	0.0680653
151	0xbd04ec1b	-0.03245173
152	0xbd0147a7	-0.031562474
153	0x3d2ba2da	0.041903354
154	0x3cccdeb0	0.02500853
155	0xbd2dd5a0	-0.042440057
156	0xbe17bfe2	-0.14819291
157	0xbc8d3489	-0.017236965
158	0x3d27129b	0.040789228
159	0x3ad58ebb	0.0016293147
160	0xbb1c2b69	-0.0023829585
161	0x3d1cfb51	0.03832561
162	0xbdccdf71	-0.100035556
163	0xbd36dda6	-0.044644974
164	0xbe08ca8b	-0.13358514
165	0x3c19a568	0.009377815
166	0x3c8b69fa	0.017018307
167	0xbcb652ee	-0.02225634
168	0x3d3f2541	0.046666387
169	0xbdc4ae4e	-0.096035585
170	0xbded6ad9	-0.11592645
171	0x3b85e783	0.0040864362
172	0x3dc5ce5e	0.09658502
173	0xbd03f81b	-0.032219034
174	0xbdb56663	-0.08857419
175	0x3ca360a1	0.019943537
176	0xbdda550c	-0.10660753
177	0xbd49cb08	-0.04926589
178	0x3d990a51	0.07472671
179	0x3d09a280	0.033602238
180	0xbd23f821	-0.040031556
181	0xbb3438fa	-0.002749978
182	0x3d7f46ac	0.062323257
183	0xbd04b613	-0.032400202
184	0x3e07bb20	0.13254976
185	0x3d9dc689	0.07703883
186	0xbd2b4e38	-0.041822642
187	0xbc08c781	-0.008348347
188	0xbbc01188	-0.005861465
189	0x3c359914	0.01108386
190	0xbb79055c	-0.003799758
191	0x3dc20de2	0.09475304
192	0x3d6a5ec6	0.05721929
193	0x3dcb7dbd	0.09936092
194	0x3da930d3	0.082612656
195	0xbc85efcd	-0.016349697
196	0x3d305648	0.043051034
197	0x3d30aed6	0.043135487
198	0x3d2b15f9	0.041769
199	0xb929ec1a	-0.0001620505
200	0xbd75c319	-0.060000513
201	0xbd9ea06a	-0.0774544
202	0xbd17982d	-0.03701036
203	0xbda6e775	-0.08149616
204	0xbbdb789a	-0.0066977264
205	0x3d288b0e	0.041148238
206	0x3e090543	0.13380913
207	0x3dbd3e0c	0.0924035
208	0x3bd76fd0	0.0065746084
209	0xbdab04c1	-0.08350516
210	0x3dca7b89	0.09886844
211	0x3e2d970b	0.1695215
212	0x3ddf870b	0.10914429
213	0x3d8b2b1a	0.0679533
214	0xbc4a8edb	-0.012363161
215	0xbd5a4a18	-0.053293318
216	0x3d071a25	0.032983918
217	0x3d1a0bea	0.03760902
218	0xbc41dc09	-0.011832246
219	0xbddd7a47	-0.10814338
220	0xbd03231a	-0.032015897
221	0xbd87f34a	-0.066382006
222	0xbd5d52d7	-0.05403408
223	0x3c25604f	0.010093763
224	0xbda70fa2	-0.081572786
225	0xbcc142f7	-0.023591502
226	0x3d6058a5	0.054772038
227	0x3ba02bd1	0.004888036
228	0xbd4390be	-0.04774546
229	0x3cb710ab	0.022346815
230	0x3dc6a854	0.09700075
231	0xbc4c25e4	-0.012460206
232	0x3cbe8535	0.023256877
233	0xbd9b2b47	-0.07576614
234	0xbdc1ae87	-0.094571166
235	0xbdb17caf	-0.0866636
236	0x3d3dd66c	0.046347067
237	0x3da5215e	0.08063005
238	0xbcafff0a	-0.021483917
239	0x3c90ea8e	0.01768997
240	0x3d685538	0.056721896
241	0x3df06ae4	0.11739138
242	0x3d5fd683	0.054647934
243	0x3d8242f3	0.06360426
244	0x3d909e8f	0.07061493
245	0x3c7e9d6c	0.015540462
246	0xbd85d66b	-0.065350376
247	0x3d4180da	0.047242023
248	0xbb0b00e0	-0.0021210238
249	0xbc12077c	-0.008912917
250	0xbdd8274b	-0.105543695
251	0xbd7420af	-0.059601482
252	0x3b49a0b5	0.0030765955
253	0x3d43ffc3	0.047851335
254	0x3d0fd6ba	0.03511689
255	0x3d8ed5d0	0.06974375

8.bias f4 [32]
0	0xbcc2dd7e	-0.023787256
1	0x3b1aba4e	0.0023609581
2	0xbceed7d3	-0.029155647
3	0x3d5c3b31	0.053767387
4	0x3c894f89	0.016761558
5	0x3d956a2e	0.07295643
6	0x3d51dc15	0.051235277
7	0x3c194aa8	0.009356178
8	0x3d1e57f9	0.038658116
9	0xbd364180	-0.04449606
10	0x3d19b236	0.03752347
11	0xbd45db98	-0.048305124
12	0xbb0e64da	-0.0021727593
13	0xbc9c96de	-0.019114908
14	0xbd252209	-0.04031566
15	0x3c0867d8	0.0083255395
16	0xbc4e2340	-0.012581646
17	0xbd22ba9c	-0.039728746
18	0x3a4e416e	0.0007868026
19	0x3c65670e	0.014001621
20	0x3d1eec76	0.038799725
21	0x3a9b6d76	0.0011858183
22	0xbd3a59c3	-0.04549576
23	0xbcd77c38	-0.02630435
24	0xbc832b33	-0.01601181
25	0x3d391c6e	0.04519313
26	0x3d2d46ef	0.042303976
27	0xbc5c0f21	-0.013431341
28	0xbbc5f877	-0.006041582
29	0x3bc30eb5	0.005952681
30	0xbd5052fa	-0.050860383
31	0xbd08c173	-0.033387613

11.weight f4 [10, 32]
0	0xbe0c797b	-0.13718216
1	0x3d426012	0.0474549
2	0xbe02040e	-0.12696859
3	0xbe3a69f4	-0.1820448
4	0xbe82740d	-0.25479165
5	0x3e319755	0.17342885
6	0xbe413587	-0.18868075
7	0x3e110deb	0.14165466
8	0x3e0b1e97	0.13585888
9	0xbdeb0521	-0.11475588
10	0xbe8a4954	-0.2700907
11	0xbe487533	-0.19575958
12	0x3dd5e511	0.104440816
13	0x3e524d81	0.20537378
14	0xbdb1a7e2	-0.08674599
15	0x3dd9d91d	0.10637114
16	0xbce8a9ec	-0.028401338
17	0x3dbc2961	0.0918758
18	0x3c49f3ff	0.01232624
19	0xbdc6b616	-0.09702699
20	0x3e80b08b	0.25134692
21	0xbeb4cacd	-0.35310975
22	0x3dfc4674	0.12318125
23	0xbe33ccd0	-0.17558599
24	0xbab0f3eb	-0.0013500428
25	0xbe888b7e	-0.26668924
26	0xbe99cf4d	-0.3004097
27	0x3e568f21	0.20953037
28	0x3e22bae7	0.1589161
29	0xbdbb70bb	-0.09152361
30	0x3de4c2b7	0.111699514
31	0xbd8dc2c7	-0.069219165
32	0x3e0c50fa	0.13702765
33	0xbeaf8503	-0.34281167
34	0xbd6e4c52	-0.058178253
35	0x3e92c62d	0.2866682
36	0x3d3cf46c	0.046131536
37	0x3e2ab373	0.16670017
38	0x3e2e8fe1	0.17047073
39	0xbe514a30	-0.20438457
40	0x3cca4d78	0.024695143
41	0x3e32d31d	0.17463346
42	0x3d265af2	0.040614076
43	0xbe700828	-0.23440611
44	0x3daaff66	0.08349495
45	0xbd97fff2	-0.074218646
46	0xbca6915b	-0.020332983
47	0xbe28d7ae	-0.16488525
48	0x3e4390d0	0.1909821
49	0xbed3cece	-0.41368717
50	0xbe9fef1a	-0.31237108
51	0xbe827ce1	-0.254859
52	0x3e3d7d79	0.18504895
53	0xbe9f6446	-0.3113119
54	0xbce9d4b1	-0.028543802
55	0xbe2c0ef7	-0.16802584
56	0xbde34a99	-0.11098213
57	0x3e0fd68e	0.1404669
58	0x3e0af4a4	0.13569885
59	0x3dd82e6c	0.10555729
60	0x3da5fbea	0.081046894
61	0x3d0321b0	0.03201455
62	0xbe657804	-0.22409064
63	0xbdc39278	-0.09549421
64	0x3df3b730	0.119001746
65	0x3d87caea	0.066305
66	0xbe3c8fb9	-0.18414201
67	0xbe0af904	-0.13571554
68	0x3ce60df6	0.028082829
69	0x3de12d20	0.10994935
70	0xbe307f24	-0.17236
71	0x3e0e8c0e	0.13920614
72	0xbdf82647	-0.12116676
73	0xbc95b45e	-0.018274482
74	0xbe91b799	-0.28460386
75	0x3d8f6a0a	0.07002647
76	0xbe7a5d96	-0.24449763
77	0xbd0d7c37	-0.03454229
78	0xbe23ecbc	-0.16008276
79	0xbd8da4f8	-0.06916231
80	0x3e31c8bb	0.17361729
81	0xbc145081	-0.009052397
82	0xbdc45775	-0.095869936
83	0x3e20eadf	0.15714596
84	0xbe285242	-0.16437629
85	0xbe6b101c	-0.22955364
86	0xbdb59e5a	-0.08868094
87	0x3e3ac50c	0.1823923
88	0x3deb6ae7	0.114949994
89	0x3e355719	0.17709006
90	0xbe45c237	-0.19312368
91	0xbe5c730a	-0.21528259
92	0xbddd9639	-0.10819668
93	0xbcfcb3a9	-0.030847387
94	0x3e08a254	0.13343173
95	0xbddc9050	-0.10769713
96	0x3da7a294	0.08185306
97	0x3dc621c1	0.09674407
98	0xbe62fcf9	-0.22166814
99	0x3e4ca7da	0.19985905
100	0xbd0e1cc0	-0.034695387
101	0xbe97b4b4	-0.29630053
102	0xbdb8f3d8	-0.090308845
103	0x3e2cedf2	0.16887644
104	0xbde16d47	-0.11007171
105	0xbde7631e	-0.11298202
106	0xbd730e97	-0.059340086
107	0x3e0245aa	0.12721887
108	0xbe8bfef2	-0.27342945
109	0xbe2f353b	-0.1711015
110	0xbca3901c	-0.019966178
111	0x3b94f766	0.0045460938
112	0xbdf6774f	-0.12034475
113	0x3e293c2a	0.16526857
114	0x3e25a932	0.16177824
115	0xbe48c676	-0.19606957
116	0x3dcdd635	0.100506224
117	0xbe17c0c4	-0.14819628
118	0x3d91290f	0.070879094
119	0xbcb6c0a9	-0.022308664
120	0xbd313068	-0.043259054
121	0x3e36a5c4	0.17836672
122	0x3e30820a	0.17237106
123	0xbe14b851	-0.14523436
124	0xbe9c388e	-0.30511898
125	0x3dddfb17	0.10838907
126	0xbdd08128	-0.101808846
127	0x3e0d2583	0.13783841
128	0xbda3ab43	-0.0799165
129	0xbe90521f	-0.28187653
130	0x3e71d237	0.23615347
131	0xbe943d78	-0.28953147
132	0x3ceea8cb	0.029133221
133	0xbdd5ecf4	-0.10445586
134	0x3e423963	0.18967204
135	0xbe82bd9e	-0.2553529
136	0x3d45ebce	0.048320584
137	0x3e4ea4b6	0.2018002
138	0x3e395017	0.18096958
139	0xbe9667ab	-0.29375967
140	0xbe4bec35	-0.19914325
141	0xbe461f4e	-0.1934788
142	0x3d5166c0	0.05112338
143	0xbe8227eb	-0.2542108
144	0xbe4dfc0a	-0.20115677
145	0x3df08e7a	0.11745925
146	0xbe3f10b5	-0.18658717
147	0xbc19e6da	-0.009393418
148	0x3d0953b1	0.03352708
149	0x3db974d2	0.09055485
150	0xbdff9798	-0.12480086
151	0x3e2cf7d7	0.16891418
152	0x3ab2525c	0.0013604867
153	0xbddb9650	-0.10722029
154	0x3e12e80a	0.14346328
155	0x3e3cb746	0.18429288
156	0x3e2ca4cd	0.16859742
157	0x3d120392	0.035647936
158	0x3dc430e9	0.09579641
159	0xbe314a01	-0.17313386
160	0xbbdbc8ad	-0.006707272
161	0x3e079aa0	0.13242579
162	0xbe31c2d9	-0.17359485
163	0x3da7af67	0.08187752
164	0x3d0f81e2	0.035035975
165	0xbe899e52	-0.268786
166	0xbe15ffca	-0.14648357
167	0x3e0a140d	0.13484211
168	0xbdda6e2e	-0.10665546
169	0x3e535501	0.20637895
170	0x3ce7f298	0.02831392
171	0xbdc0b153	-0.09408822
172	0x3e0f2947	0.1398059
173	0x3e4734bf	0.19453715
174	0xbcbd1327	-0.023080422
175	0x3e076ac3	0.1322432
176	0xbe9fc6c1	-0.31206325
177	0x3cbc692d	0.02299937
178	0x3d00f128	0.031479985
179	0xbd6ea724	-0.058264866
180	0x3d135ef6	0.035979234
181	0x3df17702	0.11790277
182	0x3cc259ae	0.023724403
183	0x3deecb43	0.11659863
184	0xbdca7e73	-0.098873995
185	0xbe465ea4	-0.1937204
186	0x3e2f0ca4	0.17094666
187	0xbd9ed861	-0.07756115
188	0xbe9084a9	-0.28226212
189	0x3d95ee94	0.07320896
190	0xbe4fd983	-0.20297818
191	0xbd59bb9c	-0.053157434
192	0xbec25750	-0.3795724
193	0x3b1c7bd8	0.0023877528
194	0x3e97356e	0.2953295
195	0xbde4f7b6	-0.111800596
196	0x3d995b1e	0.07488082
197	0x3dc2e022	0.09515406
198	0xbd8128dc	-0.063066214
199	0xbd2db2e4	-0.04240693
200	0x3c601530	0.0136769265
201	0xbe112e47	-0.1417781
202	0xbe1a4bc6	-0.15067968
203	0xbed486c1	-0.4150906
204	0x3e342b2c	0.17594594
205	0x3c9c79e7	0.019101096
206	0x3bd45781	0.006480158
207	0xbe17ee1a	-0.14836922
208	0x3dd55dee	0.10418306
209	0x3bf7fddd	0.0075681047
210	0x3d3a8d57	0.04554495
211	0x3e0ebb93	0.13938741
212	0x3e92aa8a	0.28645736
213	0x3d5c4223	0.05377401
214	0xbdec81d3	-0.115481995
215	0x3e3ea16a	0.18616262
216	0xbd42960e	-0.047506385
217	0xbe90a473	-0.28250465
218	0xbd56a188	-0.052400142
219	0xbe5e02c7	-0.21680747
220	0xbe0b840c	-0.1362459
221	0xbdae25aa	-0.085032776
222	0x3db9147a	0.09037109
223	0xbd4371d1	-0.047715966
224	0x3e213611	0.15743281
225	0xbe9b13cd	-0.30288544
226	0xbe368f4d	-0.17828102
227	0xbe62cd58	-0.22148645
228	0xbeb20b65	-0.34774318
229	0xbe7f21ba	-0.2491521
230	0x3ddfb620	0.109234095
231	0xbe26c3ff	-0.16285704
232	0x3d403466	0.04692497
233	0xbe545f56	-0.20739493
234	0xbd0a16f7	-0.033713307
235	0x3df61684	0.12016013
236	0xbec0d5a0	-0.37662983
237	0x3c4ea439	0.012612396
238	0x3de2d334	0.1107544
239	0x3e1175ef	0.14205144
240	0x3ddb55aa	0.107096985
241	0xbe271707	-0.16317378
242	0x3e310eba	0.17290774
243	0x3db46425	0.088081636
244	0x3e2ae416	0.1668857
245	0x3d9e4be8	0.07729322
246	0xbd4ff66b	-0.050772112
247	0x3cfc9fab	0.030837854
248	0x3d1fa157	0.038972225
249	0x3e227c23	0.15867667
250	0xbe7d755c	-0.247518
251	0x3e5a9028	0.21344054
252	0x3e314aa9	0.17313637
253	0xbe26f60e	-0.163048
254	0xbe846420	-0.2585764
255	0x3de39089	0.11111552

11.bias f4 [10]
0	0x3db1f056	0.086884186
1	0xbd144434	-0.036197856
2	0x3de84e95	0.11343113
3	0x3e15ae66	0.14617309
4	0xbe5642d5	-0.20923932
5	0xbe595db8	-0.21227157
6	0x3dace3e8	0.08441907
7	0x3c56cb28	0.01310996
8	0xbde9ed0f	-0.114221685
9	0xbd57bc5f	-0.05266988
