mnist_model.pth (torch, 56176 bytes, 8 tensors)

0.weight f4 [4, 1, 3, 3]
0	0xbf30c1c6	-0.69045675
1	0xbef47aa6	-0.47749823
2	0x3ef24fdb	0.4732655
3	0xbe41f231	-0.18940045
4	0x3f0ccc56	0.5499929
5	0xbd6e162b	-0.05812661
6	0x3f1709a6	0.589991
7	0x3ebb8979	0.3662832
8	0x3d2cf51c	0.042225942
9	0x3d47ea1c	0.04880725
10	0xbe310325	-0.17286356
11	0xbec7a20c	-0.3899082
12	0x3ea46515	0.3210837
13	0xbe8beda6	-0.2732975
14	0xbe15081e	-0.14553878
15	0x3f2fcd55	0.68672687
16	0x3cfcff76	0.030883532
17	0xbe54dc79	-0.20787229
18	0x3f1b8985	0.60756713
19	0x3ebdf598	0.37101436
20	0x3ede8461	0.43460372
21	0x3eb94ec0	0.36192894
22	0x3de7ba59	0.1131484
23	0xbdca6601	-0.09882737
24	0x3dce8d52	0.100855485
25	0x3d790214	0.060792997
26	0xbe9325c3	-0.28739747
27	0x3e2dc027	0.16967832
28	0x3e744882	0.23855785
29	0x3ebd2c71	0.3694797
30	0x3f18cec2	0.5969049
31	0x3f0091e6	0.50222623
32	0x3ec36d09	0.38169125
33	0x3e436352	0.19080856
34	0x3d8ffa2c	0.070301384
35	0x3e95bc0b	0.29245028

0.bias f4 [4]
0	0x3e39f79e	0.18160865
1	0x3e3d257a	0.18471327
2	0x3f0f48b9	0.5597034
3	0x3ee74bce	0.45175022

3.weight f4 [8, 4, 3, 3]
0	0x3d178d1e	0.036999814
1	0xbe7b700c	-0.24554461
2	0xbd2b2dfb	-0.041791897
3	0xbe967492	-0.2938581
4	0xbede6996	-0.4343993
5	0x3e4b8233	0.19873886
6	0xbefe623c	-0.49684322
7	0x3d0982d3	0.03357203
8	0x3eb660a8	0.35620618
9	0x3e852cc1	0.26010707
10	0xbd451f35	-0.048125464
11	0xbe4a9378	-0.19782817
12	0x3e868b7d	0.26278296
13	0x3d494da6	0.049146317
14	0xbea92978	-0.3303945
15	0x3e704c5c	0.23466629
16	0xbe4b413f	-0.19849108
17	0xbe196d0e	-0.14983007
18	0x3e8d4c20	0.2759714
19	0xbe778ef6	-0.24175629
20	0xbe906904	-0.2820512
21	0x3e837e91	0.256825
22	0xbe5c9d5f	-0.21544407
23	0xbdfd2d14	-0.123621136
24	0x3e4612d2	0.19343117
25	0xbebb4db1	-0.3658271
26	0x3de19588	0.11014849
27	0xbc9f7173	-0.019463276
28	0xbea6a0cf	-0.32544562
29	0xbe08d599	-0.13362731
30	0x3e274fcb	0.16339032
31	0xbe8977e4	-0.26849282
32	0x3e5ad767	0.21371232
33	0xbe09a136	-0.13440403
34	0xbd5ac9cb	-0.0534151
35	0x3e3a13c6	0.18171605
36	0x3e7dfdac	0.248038
37	0x3e3c5de4	0.18395191
38	0x3e6863a8	0.22694266
39	0x3d8085d2	0.06275524
40	0x3d8e7e19	0.06957645
41	0xbe04c894	-0.1296714
42	0xbe798c6e	-0.24369976
43	0xbd9d816e	-0.076907024
44	0x3c10536f	0.008808955
45	0x3d82f53b	0.0639443
46	0x3dc51093	0.09622302
47	0xbddf3006	-0.108978316
48	0xbdbeaba7	-0.09310084
49	0xbe043318	-0.12910116
50	0xbeae8199	-0.3408325
51	0x3cb85dcd	0.022505665
52	0x3e000ceb	0.12504928
53	0xbe2fb16f	-0.1715753
54	0xbcf6e49f	-0.030138312
55	0xbdc5b123	-0.09652927
56	0x3c16ed6a	0.009211877
57	0x3e1ef4f9	0.15523137
58	0x3eb446ea	0.35210353
59	0x3d258548	0.04041031
60	0xbe6a848c	-0.22902125
61	0xbe82ae15	-0.2552344
62	0xbe0fafa6	-0.14031848
63	0xbd770246	-0.060304902
64	0x3dfcb84d	0.1233984
65	0x3e362028	0.17785704
66	0x3d8488a8	0.064713776
67	0x3ce7175f	0.028209386
68	0x3e178e7a	0.14800444
69	0xbed67419	-0.4188545
70	0xbea3e635	-0.32011572
71	0xbde50357	-0.11182278
72	0x3e315030	0.17315745
73	0x3e40719e	0.18793342
74	0xbc133f6d	-0.00898729
75	0x3d0cd08d	0.034378577
76	0x3dc32939	0.09529347
77	0x3d303382	0.04301787
78	0xbe4cefda	-0.20013371
79	0x3c4962f0	0.012291655
80	0xbe45a00d	-0.19299336
81	0x3e8720f7	0.26392338
82	0x3e5cc87f	0.21560858
83	0x3e5a291e	0.21304747
84	0xbe3e2469	-0.18568577
85	0x3cd45842	0.02592099
86	0x3e5bd579	0.21468152
87	0xbe94260b	-0.28935274
88	0xbe5ed7bc	-0.21761984
89	0xbe6528d2	-0.22378853
90	0xbdfc0e04	-0.12307361
91	0xbeb201b5	-0.34766927
92	0xbecce5ff	-0.40019223
93	0x3e0a6d77	0.1351832
94	0x3d6d336c	0.057910368
95	0xbe01fbc3	-0.12693696
96	0x3e48587b	0.19565003
97	0x3e83d987	0.25751898
98	0x3db94f00	0.09048271
99	0xbe345f6b	-0.17614524
100	0xbed0cfc1	-0.40783504
101	0xbe80a164	-0.2512313
102	0x3e774d78	0.24150646
103	0x3e56a77d	0.20962329
104	0x3c7ba76a	0.015359739
105	0xbdb6c2fe	-0.089239106
106	0x3d885d1e	0.06658386
107	0x3e3e3286	0.1857396
108	0x3df7374a	0.120710924
109	0xbd25584c	-0.04036741
110	0x3df34668	0.11878663
111	0xbe4777d7	-0.19479309
112	0x3e0d282f	0.1378486
113	0xbd445915	-0.047936518
114	0xbe825e38	-0.25462508
115	0x3db3dbc2	0.0878215
116	0xbdb1892a	-0.0866874
117	0xbd7cc73d	-0.061713446
118	0xbe1e08c7	-0.15433036
119	0xbdf8a2ea	-0.121404484
120	0xbe3f7810	-0.18698144
121	0xbd9d482d	-0.07679782
122	0xbe175a21	-0.14780475
123	0xbda8ff1b	-0.082517825
124	0x3d200c1e	0.039074056
125	0x3e42c7e6	0.19021568
126	0xbd789f3c	-0.060698733
127	0xbd038943	-0.032113325
128	0xbc4f7962	-0.012663217
129	0x3de51e20	0.111873865
130	0x3e0f77fd	0.14010616
131	0xbdf9a9a7	-0.12190562
132	0xbe151710	-0.14559579
133	0xbdab8a7a	-0.08376022
134	0x3e745f34	0.23864442
135	0x3c0e2874	0.008676637
136	0xbc70d19e	-0.014698414
137	0x3e33fd4f	0.17577098
138	0x3daeb72e	0.085310325
139	0x3b570b1e	0.0032813023
140	0x3ddb3b73	0.107046984
141	0xbe8c70d7	-0.2742984
142	0x3d44caa5	0.04804482
143	0x3e3ee3ae	0.1864154
144	0x3e612e7e	0.21990392
145	0x3e68f439	0.22749414
146	0x3db3fa88	0.087880194
147	0x3b0a9934	0.0021148445
148	0xbdae2f97	-0.08505171
149	0xbeabf1f1	-0.33583024
150	0xbdaac72b	-0.083387695
151	0xbcd7e000	-0.026351929
152	0xbe65a476	-0.22426018
153	0x3d14a42d	0.036289383
154	0xbe57d35d	-0.21076722
155	0xbea5ace5	-0.3235847
156	0xbe47233e	-0.19447038
157	0xbd965a67	-0.07341462
158	0x3d34b3c4	0.04411675
159	0x3d836976	0.064165995
160	0xbe24846c	-0.1606614
161	0x3dd4ea1d	0.10396216
162	0x3ccadd78	0.024763808
163	0x3e72b738	0.23702705
164	0x3e4c4011	0.19946314
165	0x3dd71b62	0.1050327
166	0x3e44569d	0.19173665
167	0xbce9b6db	-0.028529575
168	0xbdef5010	-0.116851926
169	0xbea9cbca	-0.3316329
170	0xbeabb558	-0.33536792
171	0x3e339f03	0.17541127
172	0x3e3420f5	0.17590697
173	0x3e5e3954	0.21701556
174	0x3de43d5b	0.11144515
175	0xbe4867f8	-0.19570911
176	0xbe70d1e1	-0.23517562
177	0xbea8289e	-0.32843488
178	0xbec1d877	-0.37860462
179	0xbd9d4894	-0.07679859
180	0xbe0d77ae	-0.13815185
181	0xbe01c5c3	-0.12673096
182	0xbe3d3767	-0.18478166
183	0xbe90ebb3	-0.28304824
184	0xbe16e075	-0.14734061
185	0xbde74472	-0.11292352
186	0x3dffd8f2	0.12492551
187	0xbe525bc9	-0.20542826
188	0x3d25a87f	0.040443894
189	0xbe6f02c3	-0.23340897
190	0x3d9201b6	0.071292326
191	0x3d99995b	0.07499953
192	0x3d459973	0.048242044
193	0xbd95857c	-0.07300851
194	0xbc84922a	-0.016182978
195	0x3e890680	0.26762772
196	0x3dc5df65	0.0966175
197	0x3dd2ff4b	0.103025995
198	0xbd982f31	-0.07430876
199	0x3e1d3ac0	0.15354443
200	0x3e353389	0.1769544
201	0x3c760a82	0.015017154
202	0xbd831727	-0.064009
203	0x3e69fedc	0.22851127
204	0xbeacd038	-0.33752608
205	0xbea7752a	-0.32706577
206	0xbe545291	-0.20734622
207	0x3de94f12	0.113920346
208	0x3e71273a	0.2355012
209	0x3eab394b	0.3344215
210	0xbeae0c46	-0.3399374
211	0xbdb002d1	-0.08594287
212	0x3e50fb82	0.20408443
213	0xbe4e2f11	-0.20135142
214	0xbbc1c20e	-0.0059130257
215	0xbe7a9ac3	-0.244731
216	0xbdc93bab	-0.09825834
217	0xbe497ef4	-0.19677335
218	0xbc751764	-0.01495919
219	0x3d5216d0	0.051291287
220	0x3d7948f0	0.060860574
221	0x3e39bf26	0.18139324
222	0x3e99c504	0.30033123
223	0x3e332ab8	0.17496765
224	0x3d29f0ce	0.041489415
225	0xbe611045	-0.21978863
226	0x3d1c1eac	0.03811519
227	0xbdec3e19	-0.11535282
228	0xbe2bd558	-0.16780603
229	0xbe8517dd	-0.2599477
230	0xbe9252c6	-0.28578776
231	0xbd821b49	-0.063528605
232	0xbe780b69	-0.24223103
233	0xbe6b1147	-0.2295581
234	0xbcf4f33f	-0.029901145
235	0x3bad2c51	0.005284824
236	0xbe629812	-0.22128323
237	0xbeb47ee3	-0.35253057
238	0xbe981788	-0.29705453
239	0x3dca8d37	0.09890216
240	0xbd2e8ffb	-0.04261778
241	0x3dd76f76	0.10519306
242	0x3dd5856f	0.10425841
243	0x3ce88c42	0.028387193
244	0xbe699405	-0.22810371
245	0x3d11fda3	0.035642277
246	0xbec47469	-0.38370064
247	0xbca77044	-0.020439275
248	0x3e5069dc	0.20352882
249	0x3e668fb1	0.22515751
250	0x3e0a985b	0.13534681
251	0xbae204d0	-0.0017243866
252	0xbe5346fd	-0.20632549
253	0xbe614911	-0.22000529
254	0xbe595d15	-0.21226914
255	0xbda7d7b8	-0.08195442

3.bias f4 [8]
0	0xba97ca60	-0.0011580698
1	0x3dbf8b03	0.09352686
2	0xbde46c09	-0.111534186
3	0xbe03cf0a	-0.12871948
4	0x3e1cc4a7	0.15309392
5	0xbc3008b7	-0.010744265
6	0xbe01d0b2	-0.12677267
7	0xbe5d88aa	-0.21634164

8.weight f4 [32, 392]
0	0xbd49c735	-0.049262244
1	0x3cfa2c0b	0.03053858
2	0x3d3f0b72	0.046641774
3	0x3dbf69a7	0.093463235
4	0x3df766d2	0.12080158
5	0x3dfadf4f	0.12249624
6	0x3d68e25c	0.056856498
7	0xbd44bbfc	-0.04803084
8	0x3c3e0633	0.011598158
9	0x3d91ba5e	0.07115625
10	0x3debb0bd	0.115083195
11	0x3db89a36	0.090137884
12	0x3cb981f0	0.022644967
13	0x3a8ba930	0.001065528
14	0xbc7debe5	-0.015498136
15	0x3d899446	0.06717734
16	0x3e01bf4a	0.12670627
17	0x3e075c13	0.13218717
18	0x3d66391d	0.05620681
19	0x3d1520f3	0.036408376
20	0x3d8dc29f	0.06921887
21	0x3c54f56a	0.012997964
22	0x3c04ba6d	0.008101088
23	0x3d4bd57c	0.04976414
24	0xbbd3f097	-0.0064678895
25	0xbde27f61	-0.11059452
26	0x3dad07dd	0.084487654
27	0x3d874674	0.06605235
28	0xbdce54f1	-0.10074795
29	0x3cc1a56c	0.02363845
30	0x3ba1ebb3	0.0049414276
31	0xbd32e5ec	-0.0436763
32	0x3c9983eb	0.018739661
33	0x3c65d3e3	0.0140275685
34	0xbd0d3e65	-0.034483332
35	0x3d7bbf46	0.06146171
36	0xbd0b2219	-0.033968065
37	0xbd41d49b	-0.047321897
38	0x3cb3645d	0.021898443
39	0x3d454284	0.048159137
40	0x3d00b260	0.03142011
41	0xbd9a6557	-0.0753886
42	0x3ca545c4	0.020174868
43	0xbc8d5f68	-0.017257407
44	0xbdfcaa20	-0.12337136
45	0xbd157108	-0.036484748
46	0x3d4b3378	0.04960963
47	0xbc3ea1eb	-0.011635284
48	0xbd165502	-0.036702164
49	0x3c0a7acd	0.00845213
50	0xbc80d584	-0.015726812
51	0x3d87089d	0.0659344
52	0x3cb694da	0.022287775
53	0x3bf733be	0.00754401
54	0x3d81a93b	0.06331106
55	0x3d494f94	0.049148157
56	0x3b514348	0.0031930972
57	0xbc40366f	-0.011731728
58	0xbe1bf1f0	-0.1522901
59	0xbd678776	-0.05652567
60	0xbc4177ac	-0.011808317
61	0x3acfbf00	0.0015849769
62	0x3c108bfb	0.008822436
63	0xbc12fe5d	-0.008971778
64	0xbc8b607a	-0.017013777
65	0xbdd219d7	-0.10258835
66	0xbda06a58	-0.078327835
67	0xbcca5b92	-0.024701867
68	0xbbddedf8	-0.006772753
69	0xbb80ad81	-0.0039269333
70	0xbd1bfa06	-0.038080238
71	0xbb6c8d66	-0.0036095022
72	0xbcc037bd	-0.023464078
73	0xbd54382b	-0.05181138
74	0x3d823701	0.063581474
75	0x3da1b720	0.078962564
76	0xbb8f0949	-0.0043651205
77	0xbcaa86ff	-0.020816324
78	0x3c1437ca	0.009046504
79	0xbd3ff5bf	-0.04686522
80	0x3d72af0f	0.05924898
81	0xbd50cbd5	-0.05097564
82	0x3ced988f	0.02900341
83	0xbbe31e8f	-0.006931133
84	0xbd9e3f9c	-0.07726976
85	0xbcf0a81b	-0.029377034
86	0xbc0eab31	-0.008707807
87	0xbc6eefea	-0.014583567
88	0xbb55349b	-0.0032532576
89	0xbd1827d5	-0.03714736
90	0xbd8143b8	-0.063117445
91	0x3a3f27e8	0.0007292018
92	0xbcce7ad8	-0.02520506
93	0xbc50fa84	-0.01275504
94	0xbaee6b7b	-0.0018189991
95	0x396a5e34	0.00022351072
96	0xbc8bdaa9	-0.017072039
97	0xbca95bb6	-0.020673614
98	0x3bea41a1	0.007148937
99	0x3d862afb	0.065511666
100	0x3d28bcbc	0.041195616
101	0x3cb94252	0.022614632
102	0x3c806bf9	0.015676485
103	0x3d86a75c	0.0657489
104	0x3d2473cb	0.04014949
105	0xbd55f60b	-0.052236598
106	0x3ce513b0	0.02796349
107	0xbc9db3c0	-0.01925075
108	0x3a914779	0.0011083923
109	0xbb9b9a5f	-0.004748627
110	0x3ce4c66d	0.027926648
111	0x3c3c104d	0.011478496
112	0xbbf44997	-0.0074550617
113	0xbd0105b4	-0.03149958
114	0xbcd5e714	-0.026111163
115	0xbd12ce81	-0.03584147
116	0x3c48d1a1	0.012257011
117	0x3afda819	0.0019352465
118	0xbcc5aeea	-0.024131257
119	0xbd2f846d	-0.0428509
120	0xbd83c8f1	-0.06434811
121	0x3c76e724	0.015069757
122	0x3e0e9392	0.13923481
123	0x3d3cd280	0.046099186
124	0x3d17e560	0.037083983
125	0x3c147e56	0.009063324
126	0xbdc10d25	-0.09426335
127	0xbe053b9e	-0.13011023
128	0xbcb5c32a	-0.022187788
129	0x3a4cf55e	0.0007818545
130	0xbc028cee	-0.007968171
131	0xbd84fd0c	-0.06493577
132	0xbd624af9	-0.05524728
133	0x3c852fd8	0.016258165
134	0xbdf803d7	-0.121101074
135	0xbdda5dfc	-0.10662457
136	0xbd26ee35	-0.040754516
137	0xbd70f1ed	-0.05882447
138	0x3c69f49b	0.01427951
139	0xbdb6a0ea	-0.08917411
140	0xbadfc38f	-0.0017071831
141	0xbd023285	-0.03178646
142	0xbcdecf62	-0.027198497
143	0xbdc33382	-0.09531309
144	0xbd548e5c	-0.051893577
145	0x3db179a8	0.08665782
146	0x3d13a7d1	0.036048714
147	0x3b9fd722	0.0048779408
148	0x3dbb781c	0.091537684
149	0x3d7fd84d	0.06246214
150	0x3ceb81a1	0.028748335
151	0x3d77b01c	0.060470685
152	0x3d788b16	0.060679518
153	0x3d8389a1	0.06422735
154	0xbd05b3bf	-0.032642122
155	0xbc3f5e19	-0.0116801495
156	0x3d6fecc7	0.058575418
157	0xbd257dfc	-0.04040335
158	0x3d6aa4fc	0.057286248
159	0x3c8d565d	0.017253095
160	0xbd535420	-0.0515939
161	0xbc296ca9	-0.010340848
162	0x3d8055bd	0.06266353
163	0x3d35ad53	0.044354748
164	0xbd574ad1	-0.052561585
165	0x3c064347	0.008194751
166	0xbc388d38	-0.011264138
167	0xbe09f26f	-0.13471387
168	0x3ab7c21a	0.0014019639
169	0x3d9ae594	0.0756332
170	0x3cc080a9	0.02349885
171	0x3b932814	0.0044908617
172	0x3d3bd803	0.0458603
173	0x3d61983c	0.055076823
174	0x3ca1604d	0.01969924
175	0xbd9107c2	-0.07081558
176	0x3d9baa45	0.07600836
177	0x3de2df64	0.11077765
178	0x3c8310ea	0.015999276
179	0x3d2e5426	0.04256072
180	0xbce7053c	-0.028200738
181	0xbdc78f75	-0.09744159
182	0xbdd72330	-0.10504758
183	0xbcc10e56	-0.023566406
184	0xbc4bfa50	-0.012449816
185	0x3cc99e9e	0.024611767
186	0xbcbc5ece	-0.022994425
187	0x3cc868b0	0.024463981
188	0xbdabf877	-0.08397
189	0xbcd08705	-0.025455007
190	0x3c0be0c3	0.008537474
191	0x3cbd0ced	0.023077453
192	0xbb9b789c	-0.0047446024
193	0xbd5e01b7	-0.054200854
194	0x3c66e19a	0.014091874
195	0x3cff062a	0.031130869
196	0xbbb91d43	-0.00564924
197	0xbc28c659	-0.010301196
198	0x3d4c0312	0.049807616
199	0xbbc5cbea	-0.0060362713
200	0xbbf4a109	-0.007465486
201	0xbc8eec84	-0.017446764
202	0xbbe9474b	-0.0071190945
203	0x3c913ab2	0.017728183
204	0xbc63d87e	-0.013906596
205	0xbd0b5b21	-0.034022454
206	0x3d407f1c	0.04699622
207	0xbd26b96e	-0.040704183
208	0x3b82c17a	0.0039903494
209	0x3d9abd59	0.075556464
210	0xbd15fb42	-0.03661657
211	0xbe132ba9	-0.14372124
212	0xbd41b43e	-0.047291033
213	0xbcc0decf	-0.023543743
214	0xbd6b3218	-0.05742082
215	0xbcb52177	-0.022110684
216	0x3c94b867	0.018154336
217	0xbdb797b6	-0.089644834
218	0xbdbff6af	-0.09373223
219	0xbdc5950b	-0.09647568
220	0xbde99104	-0.11404613
221	0x3dbcfe98	0.092282474
222	0x3dcec133	0.100954436
223	0x3ba36f06	0.0049876003
224	0xbc23870e	-0.00998093
225	0x3c2c317e	0.010509847
226	0xbd5dac25	-0.054119248
227	0xbc8396e4	-0.016063161
228	0x3c170b63	0.009219023
229	0xbba67595	-0.005079935
230	0x3b403196	0.002932643
231	0xbdd37b41	-0.10326243
232	0xbd4d7131	-0.050156776
233	0xbd27ed79	-0.040997956
234	0x3cda5170	0.02665016
235	0x3c714b63	0.014727446
236	0xbd74e0cf	-0.059784707
237	0xbd182a36	-0.03714963
238	0xbd466424	-0.048435345
239	0xbd1af236	-0.037828647
240	0x3b029732	0.0019926545
241	0x3c1ba294	0.009499211
242	0xbc08f9b5	-0.008360316
243	0xbd094c4a	-0.03352002
244	0xbd47d90b	-0.048790973
245	0xbc179051	-0.009250716
246	0xbce02a40	-0.027363896
247	0xbc64b217	-0.013958476
248	0x3a309386	0.000673585
249	0xbd97ba5a	-0.074085906
250	0xbc9106fa	-0.017703522
251	0x3d048be9	0.03235999
252	0x3d64e8ba	0.055886008
253	0x3d0f13a7	0.03493085
254	0xbe0e7aa0	-0.13913965
255	0xbe422b3f	-0.1896181

8.bias f4 [32]
0	0x3c4f798f	0.012663259
1	0x3d02114d	0.03175478
2	0x3d65d651	0.05611259
3	0x3d48b0db	0.048996788
4	0x3cf76487	0.030199302
5	0xbc1d5cf6	-0.009604683
6	0x3d5d0da2	0.05396808
7	0xbd5a6b9c	-0.05332528
8	0xbbedb09f	-0.007253721
9	0x3b594dcc	0.0033157943
10	0x3db69291	0.08914674
11	0x3cc7b785	0.024379501
12	0xbd0bc252	-0.034120865
13	0x3bf74123	0.0075456067
14	0x3d766143	0.06015135
15	0x3d4a7502	0.049427994
16	0x3d362a3f	0.044473883
17	0x3da17828	0.07884246
18	0x3d22d67f	0.03975534
19	0xbcb4ce10	-0.022070915
20	0xbb8cfd97	-0.004302691
21	0xbad1474c	-0.0015966683
22	0x397ed230	0.00024301629
23	0x3cd2c25d	0.025727445
24	0xbd829140	-0.063753605
25	0x3d4b4221	0.049623612
26	0xbd97a2ea	-0.0740412
27	0x3da37266	0.07980804
28	0x3c6aeb0d	0.014338267
29	0xbd441c0b	-0.047878306
30	0xbce53074	-0.027977206
31	0xbcc2cdee	-0.023779836

11.weight f4 [10, 32]
0	0xbd449f52	-0.048003502
1	0xbcfa2d3f	-0.030539153
2	0x3d793f17	0.060851183
3	0x3e273b40	0.16331196
4	0xbe921899	-0.28534392
5	0xbe37cd36	-0.17949376
6	0x3e5acc2a	0.21366945
7	0xbe2c826d	-0.16846628
8	0x3c6a904a	0.014316628
9	0x3dc98aa8	0.098409
10	0xbeae5632	-0.34050137
11	0x3de37460	0.11106181
12	0x3d86257a	0.06550117
13	0xbeafdd35	-0.34348455
14	0xbe993fb4	-0.29931414
15	0xbe1497b0	-0.14510989
16	0xbe53148e	-0.2061331
17	0xbdcf602a	-0.10125764
18	0xbe3239ba	-0.17404833
19	0x3d9789ab	0.07399305
20	0x3df42e4e	0.119228944
21	0xbdfa97fb	-0.12236019
22	0xbe672b4f	-0.22575115
23	0xbd945098	-0.072419345
24	0x3e5a1acf	0.21299289
25	0xbe43cb97	-0.19120632
26	0xbd9ddd9d	-0.07708285
27	0xbe8a00b3	-0.26953658
28	0xbdf7ca2d	-0.12099109
29	0x3e3714c5	0.17879017
30	0xbe108ebb	-0.14116947
31	0x3e9535fe	0.29142755
32	0xbd9b76a4	-0.07590988
33	0xbe0c4422	-0.13697866
34	0xbe004bec	-0.12528962
35	0xbeb6fef4	-0.3574139
36	0x3dbb97ae	0.0915979
37	0xbe41aa58	-0.18912637
38	0x3e0f2936	0.13980564
39	0x3e276a3c	0.16349119
40	0x3d31d16d	0.043412615
41	0xbd9b48d6	-0.07582252
42	0x3df392fd	0.1189327
43	0x3e4ce424	0.20008904
44	0xbe99e893	-0.30060253
45	0xbdc3935c	-0.09549591
46	0x3df08bbd	0.11745403
47	0x3e1d27ac	0.15347165
48	0x3d97017c	0.0737333
49	0x3e7275f9	0.23677815
50	0x3e727754	0.23678333
51	0x3d3e7188	0.04649499
52	0xbe92ea0a	-0.28694183
53	0x3cfa7ad6	0.03057615
54	0x3e152988	0.14566624
55	0xbe1e189c	-0.15439075
56	0xbe20a4c0	-0.15687847
57	0x3e0b2399	0.13587798
58	0x3d9e9875	0.077439226
59	0x3e694cac	0.22783154
60	0xbe646cd4	-0.2230714
61	0xbe855c2f	-0.26046893
62	0xbd6ca646	-0.05777576
63	0x3b2e3f6a	0.002658809
64	0xbe0b7978	-0.13620555
65	0x3dfd002d	0.12353549
66	0xbdd1a76f	-0.102370135
67	0x3db5c2f8	0.08875078
68	0x3e041a4c	0.12900656
69	0xbd8761fb	-0.06610485
70	0xbda16719	-0.078809924
71	0xbd1b4627	-0.0379087
72	0xbde8502a	-0.11343415
73	0x3d292e8b	0.041304152
74	0xbe897ce3	-0.26853094
75	0x3e64ff3f	0.22362994
76	0xbe09d8a3	-0.13461547
77	0xbe8b28bd	-0.27179518
78	0x3e3dd1ce	0.18537065
79	0xbe967fe6	-0.29394454
80	0xbe1285a8	-0.14308798
81	0xbe16ff42	-0.1474581
82	0xbdb661aa	-0.08905347
83	0x3de5382b	0.11192354
84	0xbdded6a6	-0.10880785
85	0xbcdc542f	-0.02689561
86	0xbe34f0ca	-0.17669979
87	0x3e679af2	0.226177
88	0x3e53c450	0.20680356
89	0xbe511c39	-0.20420922
90	0x3da18314	0.07886329
91	0x3e1e956a	0.15486684
92	0x3d8f9606	0.070110366
93	0x3dee251d	0.116281725
94	0xbc00811d	-0.007843283
95	0xbd9a6f8e	-0.075408086
96	0xbe93a91d	-0.2883996
97	0xbc785ddc	-0.015159097
98	0xbe584477	-0.21119867
99	0x3d4b2ffd	0.049606312
100	0x3da6817e	0.081301674
101	0x3e19a84f	0.15005611
102	0xbdd8d220	-0.10586953
103	0xbd5dc1d6	-0.054139934
104	0xbe296f3c	-0.16546339
105	0xbd8dbf24	-0.06921223
106	0xbe291d60	-0.16515112
107	0x3e12787e	0.14303777
108	0xbcedacbf	-0.029013036
109	0x3ddab80d	0.10679636
110	0x3e2827c7	0.16421424
111	0xbdc798a6	-0.09745912
112	0xbe31a40f	-0.1734774
113	0xbd4d1e6d	-0.050077844
114	0xbe42af2c	-0.19012135
115	0x3d8d5490	0.06900895
116	0xbcb279e6	-0.021786641
117	0xbdc289d2	-0.094989434
118	0x3e3e473c	0.18581861
119	0xbe368f28	-0.17828047
120	0x3e37b5cc	0.17940444
121	0x3e3a5f0e	0.18200323
122	0xbb1d4211	-0.0023995677
123	0xbe4003a3	-0.18751387
124	0x3df9350e	0.121683225
125	0xbe822410	-0.25418139
126	0x3d9a56a1	0.075360544
127	0x3e1a6f58	0.15081537
128	0x3e2df0f9	0.16986455
129	0x3e4e4bcf	0.20146106
130	0x3e36c587	0.17848788
131	0xbdfb5bbd	-0.12273357
132	0xbe32c379	-0.1745738
133	0xbea95139	-0.3306978
134	0xbe3045fa	-0.17214194
135	0x3dd77d71	0.10521973
136	0x3df8bbf6	0.12145226
137	0x3da2de0d	0.07952509
138	0x3e1d6f46	0.15374479
139	0xbe33585b	-0.17514174
140	0x3e4d3acd	0.20041962
141	0xbd89ed33	-0.06734695
142	0xbe266710	-0.16250253
143	0xbdc635c7	-0.09678226
144	0x3df7ac39	0.12093396
145	0xbdbc4940	-0.09193659
146	0x3e55a82f	0.20864938
147	0xbda64f80	-0.08120632
148	0xbe6b9fab	-0.23010127
149	0xbd97326a	-0.073826626
150	0x3c138a3e	0.0090051275
151	0xbca92eed	-0.020652259
152	0xbe850708	-0.25981927
153	0x3c4ec360	0.012619823
154	0xbde076f4	-0.109601885
155	0xbddf9b92	-0.109183446
156	0x3dfbab40	0.12288523
157	0xbe49dadb	-0.19712393
158	0xbd81bb00	-0.063344955
159	0xbdfc6a86	-0.12325005
160	0xbe45e555	-0.19325764
161	0xbe6657da	-0.2249445
162	0x3e32e888	0.17471516
163	0x3d9bb637	0.07603114
164	0xbe599844	-0.21249491
165	0x3d0ced48	0.034405977
166	0x3e1659f0	0.14682746
167	0x3bab8aa3	0.0052350326
168	0xbe1b8661	-0.1518798
169	0x3da95789	0.08268649
170	0xbe0e83db	-0.13917486
171	0xbe4dd2a9	-0.20099892
172	0x3dcbb5e8	0.09946805
173	0x3e204a5b	0.15653364
174	0x3e1589ce	0.1460335
175	0xbd0488c1	-0.03235698
176	0xbe95158e	-0.29118007
177	0x3e64f0ff	0.22357558
178	0xbe362932	-0.17789152
179	0xbea21547	-0.31656858
180	0x3dddaf94	0.108245045
181	0x3c2a509d	0.010395196
182	0x3e552b9a	0.20817414
183	0xbdf73907	-0.12071424
184	0xbd863f13	-0.06554999
185	0x3e3ce554	0.18446857
186	0x3cc724eb	0.024309596
187	0xbe0f0fa7	-0.13970815
188	0x3de08dec	0.109645694
189	0xbc5f9630	-0.013646647
190	0x3e2bd96f	0.16782163
191	0xbdea59b5	-0.114428915
192	0x3e3cde78	0.1844424
193	0x3d8cbdf7	0.068721704
194	0xbc9272cf	-0.01787701
195	0xbe5eb87c	-0.21750063
196	0xbea77148	-0.32703614
197	0x3bcae31a	0.0061916234
198	0x3e4084cf	0.18800662
199	0x3d8e9c8c	0.06963453
200	0xbe3bca72	-0.18338946
201	0x3de2025d	0.11035607
202	0xbe0d4d9c	-0.13799137
203	0x3e3a862e	0.18215248
204	0x3e647a26	0.22312221
205	0xbe7465cd	-0.23866959
206	0xbe8326b0	-0.25615454
207	0x3dfc16c1	0.123090275
208	0xbea54561	-0.32279494
209	0xbd386429	-0.045017395
210	0xbdf80c83	-0.121117614
211	0xbed2c467	-0.41165468
212	0xbe3c910b	-0.18414705
213	0xbb646fd6	-0.0034856698
214	0xbdd2e069	-0.10296709
215	0x3ddd210c	0.10797319
216	0xbe7c1f1e	-0.24621245
217	0x3e59f4e9	0.21284832
218	0x3df32170	0.11871612
219	0x3dee5b91	0.11638559
220	0x3d068594	0.032842234
221	0x3e245ca7	0.16050969
222	0xbd5812cc	-0.0527523
223	0xbdcc9bcc	-0.099906534
224	0xbe9b4744	-0.3032781
225	0x3e0f1237	0.13971792
226	0xbe4f7a39	-0.20261468
227	0x3e34a1f5	0.17639907
228	0x3da7f4a3	0.082009576
229	0x3de85c10	0.113456845
230	0xbe83c15b	-0.25733456
231	0x3d46774e	0.04845362
232	0xbdb8e0bd	-0.090272404
233	0xbeb85dfd	-0.36009207
234	0x3e1b1ac9	0.15146936
235	0x3e27c46d	0.16383524
236	0x3dd05a1f	0.10173439
237	0x3d5c9769	0.053855333
238	0x3d8d4e49	0.06899697
239	0xbe39bcc2	-0.18138412
240	0x3e01e250	0.12683988
241	0xbe510f87	-0.2041608
242	0xbe282dcb	-0.16423719
243	0x3e0f3dfd	0.1398849
244	0x3def2c53	0.11678376
245	0xbbb87a26	-0.0056297956
246	0xbe5c52b5	-0.21515925
247	0xbdace04e	-0.0844122
248	0xbdbf22a6	-0.093327805
249	0xbe447eea	-0.19189039
250	0xbe152db4	-0.14568216
251	0xbda7ebdd	-0.08199284
252	0xbe9a345e	-0.30118078
253	0x3da8d0b1	0.0824293
254	0x3d883191	0.06650079
255	0xbe7c3632	-0.24630049

11.bias f4 [10]
0	0xbde1edb0	-0.110316634
1	0x3d804e3e	0.062649235
2	0xbd9aeac1	-0.07564307
3	0xbcc937a2	-0.02456266
4	0xbcbcdf52	-0.023055706
5	0x3e1fa03a	0.15588465
6	0x3d29b221	0.041429643
7	0x3e4472a4	0.19184357
8	0xbd7f246c	-0.062290594
9	0x3e6fa9d5	0.2340463
