mnist_model.pth (torch, 56176 bytes, 8 tensors)

0.weight f4 [4, 1, 3, 3]
000000 30 70 18 bf 66 41 62 3e fb 79 2f 3d a1 2c ba be
       -0.59546185 0.2209526 0.04284094 -0.36362174
000010 c9 31 4d 3e a8 ea 3f bd 4d 2f 9a bd ec fd da 3e
       0.20038523 -0.046854645 -0.07528553 0.42771852
000020 fc 10 11 3e 77 85 ea 3e ef d0 21 3e 74 ca 3b 3e
       0.14166635 0.4580495 0.15802358 0.18338948
000030 10 9b b3 bd 81 f5 81 3e 25 99 bb 3d f4 30 b1 3d
       -0.0876981 0.25382617 0.091600694 0.08651915
000040 15 3d 94 3e 7f 05 c8 3e 7e 31 27 3e e0 a1 22 3e
       0.28952852 0.39066693 0.16327474 0.15882063
000050 75 05 aa be 20 38 21 3f 19 e8 b1 3d f5 db 81 3d
       -0.33207288 0.62976265 0.08686847 0.063407816
000060 78 2a 60 3d 73 41 60 3e 4f d3 cf 3e 03 7c be 3d
       0.054728 0.21899967 0.40590903 0.09300997
000070 16 f5 04 3f 57 ce d1 3e 3c 03 d7 3e d3 81 01 3f
       0.5193647 0.40977737 0.41994655 0.5058872
000080 9a 8b b3 3e ec dc 74 3d 42 04 ee 3d 95 8b 00 be
       0.35067445 0.059781 0.11621906 -0.12553246

0.bias f4 [4]
000000 ba 59 42 3e bb 22 c5 3e 04 34 68 3d 58 a4 e0 3d
       0.1897954 0.3850306 0.05669023 0.10968846

3.weight f4 [8, 4, 3, 3]
000000 15 db 85 bd b2 9c 36 3c 52 a0 28 3e 30 92 68 3b
       -0.06535927 0.0111457575 0.16467407 0.0035487525
000010 ff 26 14 3e 9c 5c f6 bb 49 a8 07 be 18 66 0a bd
       0.14468001 -0.007518364 -0.1324779 -0.03378877
000020 05 fc 94 be 94 d2 4c be 0f 95 24 be 87 79 15 3e
       -0.29098526 -0.20002204 -0.16072486 0.1459714
000030 90 2d 2e 3d a4 23 4a 3e cd 9e 88 3d 88 d2 de 3d
       0.04252392 0.19740158 0.06670914 0.108799994
000040 f4 81 2a be 50 75 ac be cc 31 80 be db 3f 09 be
       -0.16651136 -0.33683252 -0.25037992 -0.13403265
000050 d9 36 bb 3d 1d 6d 40 be 6d 98 ca 3d 50 e7 74 3e
       0.09141321 -0.18791623 0.09892354 0.23916364
000060 69 44 3f 3e 14 cf d0 bd d1 21 1d bd 87 2f a5 be
       0.1867844 -0.10195747 -0.038362328 -0.32262823
000070 af cb 26 be d9 75 5d 3d 0e 10 98 bd 9e 9a 5b 3d
       -0.16288637 0.054067466 -0.07424937 0.05361425
000080 20 a9 48 3e 45 45 7d 3e 29 ba 93 3e 48 8e 71 be
       0.19595766 0.24733455 0.28852966 -0.23589432
000090 aa a4 c6 bd 1d 6f 0e 3e fd 75 d5 3c 88 e5 50 be
       -0.09699376 0.13909574 0.026057238 -0.20400059
0000a0 90 aa 79 bd 45 29 1c be 7f 7a a3 3e e4 5e 22 ba
       -0.060953677 -0.15250118 0.31929395 -0.00061939494
0000b0 2f df 5e 3e 2f 7d 4b 3e 11 94 eb ba ab b9 76 3d
       0.21764825 0.19871973 -0.0017973204 0.06023566
0000c0 7e a5 29 bd a6 01 92 3c ec 09 35 3c 4b ec d3 be
       -0.04141759 0.017823052 0.011049729 -0.41391215
0000d0 6c 67 43 be fe 26 88 be 6a 31 94 3e 93 e3 92 3e
       -0.19082421 -0.2659225 0.2894395 0.2868925
0000e0 8c a7 58 3e 19 c3 56 be 98 6c 37 3d cc e1 05 be
       0.21157664 -0.20972861 0.044781297 -0.13074416
0000f0 c5 02 b9 be d5 88 51 be bb 71 55 be f4 68 0a 3e
       -0.36134925 -0.20462354 -0.20844166 0.13516599
000100 8b bf ac 3e 83 9b 04 3e bf 5b 9f bd e2 7b 19 3d
       0.33739886 0.12949948 -0.07781171 0.03747166
000110 28 1b 06 3e 63 db ca be 8e 0d d8 be f2 ca 7a be
       0.13096297 -0.39620504 -0.4219784 -0.2449148
000120 f8 cf a2 bc 97 99 2c bd c2 f7 0b 3d 2b 7c c6 bd
       -0.019874558 -0.042138662 0.034171827 -0.09691652
000130 06 4c 54 be b0 f6 0c be dd 1c 9e 3c 94 71 2f be
       -0.20732126 -0.13765979 0.019300872 -0.1713317
000140 62 17 8d be ba f2 be 3d e2 b6 5c 3a 03 cb 90 be
       -0.27556902 0.0932364 0.00084195856 -0.28279886
000150 93 50 67 3e ca b7 1a 3e 6a 18 4f 3e 39 65 af 3a
       0.2258933 0.15109172 0.20224157 0.0013381607
000160 a0 2a ed bc 7e 1b 0c 3e 84 ca 8e 3e dc fb 1f 3d
       -0.02895099 0.13682362 0.27888882 0.03905855
000170 8f e0 6f be 84 07 ad 3d 5c 81 c7 3e b6 4d a1 3e
       -0.23425506 0.08448699 0.3896588 0.315046
000180 b9 13 94 be 1c 4a d0 bd 9a b8 8c bd c2 b9 9f bd
       -0.28921297 -0.10170385 -0.068711475 -0.07799102
000190 a3 6e bf be e1 ad 94 be 8f ee e7 3c 83 fa 46 3e
       -0.37389097 -0.2903891 0.028311996 0.194315
0001a0 cc 48 06 3e cb e9 32 be 59 47 7b 3d 89 07 d7 3b
       0.13113707 -0.17471997 0.06134734 0.0065621776
0001b0 b5 ce 92 3e 85 1f 76 be af ac fc bd a8 2c 82 3d
       0.2867333 -0.24035461 -0.12337624 0.06356174
0001c0 aa 9a 82 be 15 e9 ad 3b fb 50 72 3c eb cd ed bc
       -0.25508624 0.0053073266 0.014789815 -0.029028853
0001d0 e4 a7 0d 3e 9a 5b 7a 3e 60 2b a8 3c 3b 49 19 be
       0.13833576 0.24449006 0.020528495 -0.14969341
0001e0 0f c0 ca 3d 21 7e 64 3c 9e 11 c9 bd 73 4d 71 3e
       0.098999135 0.013946087 -0.09817813 0.23564701
0001f0 43 c3 79 bd 98 eb 14 be bd 1e ee 3d a8 49 b3 3d
       -0.06097723 -0.14542997 0.116269566 0.08754283
000200 78 ee 46 be d0 d4 9f 3e 34 7f 0c 3e 12 a5 1e be
       -0.19426906 0.3121705 0.13720399 -0.15492657
000210 5d c5 c7 3d 35 96 32 3e 2d 42 2f be eb ee 28 3d
       0.09754441 0.17440112 -0.17115088 0.041243475
000220 02 9a 8d bd 62 f8 a7 be 0b b1 38 3d ee 96 01 be
       -0.0691414 -0.3280669 0.045090716 -0.12655231
000230 d1 15 4c be c8 d1 52 3e ae 1c 55 be e5 ab 84 3d
       -0.19930197 0.20587838 -0.20811722 0.06478099
000240 8f 0c 6e 3d 06 3d 59 bc eb c8 95 bd cc e3 13 be
       0.058117446 -0.013259178 -0.07313713 -0.14442366
000250 4a 6a 53 3e e4 82 a8 be a9 2a a6 bd 38 04 d6 bd
       0.20646015 -0.32912362 -0.081136055 -0.104500234
000260 3f d8 6b be f7 3e 42 bd e0 14 45 bd 42 c4 a6 bd
       -0.2303171 -0.04742333 -0.04811561 -0.08142902
000270 20 66 83 3d cb 1d 1a bc b6 3d 42 3e f7 78 81 bd
       0.06415963 -0.009406517 0.18968853 -0.063219
000280 82 ce 02 3e 1c a4 80 3d 2c 7d 98 bd 4d d9 a3 bc
       0.12774089 0.062813014 -0.0744575 -0.020001078
000290 15 ea ba 3c 6b 3f df bc 87 14 22 3e 7a 8b f2 bc
       0.022816697 -0.02725192 0.15828143 -0.029607523
0002a0 52 f9 6d 3d 50 77 ae 3d 3d 28 2e 3b eb e5 9b be
       0.0580991 0.08518851 0.0026574277 -0.3044885
0002b0 0c d8 2c 3e 2d 0f 20 3e d4 32 1e be a3 e7 73 3e
       0.1687929 0.15630789 -0.15449077 0.23818831
0002c0 97 90 dd bd e8 a8 f8 bb 43 28 fb 3d 2e a5 97 3d
       -0.10818594 -0.0075884946 0.12263539 0.074045524
0002d0 73 b5 ec 3d 7d d7 16 3e 98 9d 66 3d 32 9a 0f 3d
       0.11558046 0.1473064 0.056302637 0.03505916
0002e0 d0 96 b7 3c 7b 94 68 3e ce 97 a6 bd 85 4e 8e 3d
       0.02241078 0.22712891 -0.08134423 0.0694857
0002f0 3b d6 c6 3d 3d f0 a6 be a5 fe 23 be 5d 2b ab 3e
       0.0970883 -0.32605162 -0.16015108 0.3343152
000300 57 30 89 be c8 28 bb bc 81 28 83 3e 32 45 c4 bd
       -0.26794693 -0.022846594 0.2561684 -0.095835105
000310 83 f2 d3 3d 68 79 1d 3c 98 2f 3e be 69 43 92 be
       0.1034899 0.009611465 -0.18572843 -0.28567055
000320 56 90 9a bd 99 6c d7 bd a6 58 41 be 53 6d c0 3d
       -0.07547061 -0.1051876 -0.18881473 0.09395852
000330 8d f7 32 be b6 ca 07 be 90 de d6 3c 94 ff 2f be
       -0.17477246 -0.13260922 0.026229173 -0.17187339
000340 b1 ab 56 be e3 f3 2e 3e 84 4c 76 be 15 e9 7b be
       -0.20963933 0.17085223 -0.24052626 -0.24600632
000350 fb 51 9d 3e 40 a3 98 be 4d c6 0a be a6 c2 e3 3d
       0.3072661 -0.2981205 -0.13552208 0.111211106
000360 21 8a 6b be c6 45 61 be a6 d7 02 be 64 e6 6d 3d
       -0.23001911 -0.21999273 -0.12777576 0.058081046
000370 0f 1b 10 be 9c c4 9a be 81 c9 28 3d 67 a9 09 3d
       -0.14072822 -0.30228126 0.041207794 0.03360882
000380 69 13 92 3d 85 8e ce 3d b5 9e 12 3e 63 c8 64 3d
       0.071326084 0.10085777 0.14318354 0.055855166
000390 9b 7b 80 be 54 b3 24 3c 2d 28 44 3d 67 63 b4 be
       -0.25094303 0.010052521 0.047889877 -0.35232088
0003a0 cb ed 57 bd 61 01 38 3e 47 6d 49 3e 43 09 ba 3e
       -0.05271701 0.17969276 0.19670592 0.3633519
0003b0 99 63 98 3e 14 00 0d be 81 dd 3e bd e8 f6 bd 3c
       0.29763487 -0.13769561 -0.04659796 0.023189023
0003c0 f7 8f 02 be f2 7b 7e bd 93 a7 cc bd 07 ad 1b 3e
       -0.1275023 -0.062129922 -0.099929 0.15202723
0003d0 98 05 a3 3d f2 f1 3c 3d cc 0a 39 bd e0 78 aa 3d
       0.07960051 0.046129175 -0.045176312 0.08323836
0003e0 81 36 3f bc e3 a1 c4 be 29 f5 2f 3c e1 cf e0 3d
       -0.01167071 -0.3840476 0.010739603 0.1097715
0003f0 23 00 0f be 2a c2 2b bd 52 72 ed 3b 48 c7 0d bd
       -0.13964896 -0.041933216 0.007246294 -0.034613878

3.bias f4 [8]
000000 87 f0 c3 bc 31 25 29 bd a5 4c eb 3b 39 ed 49 be
       -0.023918403 -0.041295234 0.0071807676 -0.197194
000010 53 89 0b bd 87 41 33 3e 49 ae ea bb ea 8d 07 be
       -0.03406651 0.17505465 -0.0071618897 -0.1323773

8.weight f4 [32, 392]
000000 a3 5c 70 bc c4 44 73 3d 69 84 19 3d e7 3d bf 3d
       -0.014670524 0.059391752 0.03747979 0.09337979
000010 c3 ea 93 3d 51 6d e9 3d ca 1b 98 bd de b8 41 3d
       0.072225116 0.113978036 -0.07427175 0.047295444
000020 4e a0 de 3d 4e f2 23 3d a2 90 b2 bc d2 87 d1 3c
       0.108704194 0.040026 -0.021797482 0.02557746
000030 d5 81 b4 3b ba b5 22 bc 4d 0c 0f 3e 03 6c b7 3c
       0.0055086412 -0.009931022 0.13969536 0.022390371
000040 11 31 ce bd 41 16 a5 3c e6 12 d2 3d 10 c6 03 bc
       -0.100679524 0.020152213 0.10257511 -0.008042827
000050 40 25 5e bd 92 30 89 3c f8 56 73 bd 92 ca 22 3d
       -0.054234743 0.016746793 -0.05940911 0.039743967
000060 e2 40 84 3d ce e5 c5 bd d2 4e 2b bc 14 10 02 3e
       0.06457688 -0.096629724 -0.010455804 0.12701446
000070 b9 a1 a4 bc 32 48 e2 bd a2 0f 67 3d 75 3c 21 bd
       -0.020096647 -0.110489264 0.056411393 -0.039364297
000080 35 32 a4 bd 22 c2 8b 3d 5f 0f db 3d bf 72 81 3d
       -0.08017389 0.06824137 0.10696291 0.06320714
000090 41 e3 24 3d 48 0c 88 3c 2b a3 a6 3c f3 7b d8 3d
       0.04025579 0.016607419 0.020341476 0.105705164
0000a0 54 59 9b b7 55 83 f2 bd 3b 0a 56 bc 3e 3c 6e 3c
       -1.8519037e-05 -0.11841456 -0.013063963 0.01454073
0000b0 8f 32 bf 3c 69 8b df bd d7 ad 88 bd 66 c0 8f 3c
       0.023339538 -0.10915262 -0.06673782 0.017547797
0000c0 af 07 9c bc 0f bf a3 bc 96 77 71 bd c2 ad db bc
       -0.019046633 -0.019988565 -0.058951937 -0.026816253
0000d0 12 20 8e 3c 70 b2 1e bd f9 a1 2e 3d dd 35 e7 bc
       0.017349277 -0.03874439 0.042634938 -0.028223926
0000e0 37 39 49 bc 70 08 93 3d f7 d0 2b 3e 21 8f 0a 3e
       -0.0122817075 0.07179344 0.16778933 0.13531162
0000f0 7e da af 3d 03 6c 2c 3d 4e b1 de bc ce 11 85 3d
       0.08586596 0.042095196 -0.027184155 0.064975366
000100 d2 70 8a 3d 6f d5 6a 3d 08 58 db 3a b4 94 cb bc
       0.067598 0.057332452 0.0016734609 -0.02485118
000110 77 52 cf 3d 6f b7 64 3e 56 89 84 3d 38 0b 25 3e
       0.10123151 0.223356 0.06471507 0.16117561
000120 bb fd 51 3d 58 c6 48 3d 56 e2 10 3e c8 a0 56 3d
       0.051267367 0.04901728 0.1414884 0.052399427
000130 02 83 91 3d 36 02 a2 3c 63 5d bd bb 7c ea 1b bd
       0.07105066 0.019776445 -0.005778955 -0.03806542
000140 01 f1 cd 3d ac b3 15 bd 94 d9 41 be 85 58 78 bd
       0.100557335 -0.0365483 -0.18930656 -0.060631294
000150 a4 8f 29 3e c6 38 5b 3d aa 35 08 3d 6f 91 93 bb
       0.16558701 0.05352094 0.033254303 -0.004503421
000160 52 d0 b9 3b 80 b9 c7 3d 80 bf 65 3d b7 95 f4 bc
       0.0056705857 0.09752178 0.05609083 -0.029856546
000170 00 3d 64 3d 59 bd 8b 3d cc 56 2a 3d df ff 15 3d
       0.055722237 0.068232246 0.041586682 0.03662097
000180 67 ce 38 bd 03 a9 e9 3c 6e b8 e6 bc cc d9 73 3d
       -0.045118716 0.028522974 -0.028164115 0.05953388
000190 55 7d c0 3d c7 21 c8 3d 13 ca c8 3d 87 16 bb 3c
       0.09398905 0.097720675 0.098041676 0.02283789
0001a0 ca d1 1c 3c 94 33 08 3c 94 3e 70 3d 54 cd 86 3d
       0.009571502 0.008313078 0.05865343 0.06582132
0001b0 ac e4 05 3c 40 8c 63 3d 61 d0 d9 3b 75 8f 54 3d
       0.008172195 0.055553675 0.006647155 0.051894624
0001c0 33 ea 8e 3c 3b 78 ec bc 20 52 02 be 67 07 1c bd
       0.01744566 -0.028865924 -0.1272664 -0.038092997
0001d0 a4 bd 48 bd 9e 6f d1 bd 1c 8b 82 3c c4 18 d2 bc
       -0.04900898 -0.102263674 0.015935473 -0.025646575
0001e0 c3 97 11 bd fc 1b 80 3c d9 29 df 3d e8 9f b2 3d
       -0.035545122 0.015638344 0.10896654 0.08721906
0001f0 41 65 89 3b 51 ed ed bd 2b 15 58 3e b4 f8 15 3e
       0.0041929786 -0.1161753 0.21101825 0.14645654
000200 8a 26 ad bd 23 09 94 3d af 8c ec 3d fa 7d 10 bc
       -0.08454616 0.07228305 0.11550271 -0.008819098
000210 39 1a 1c bd f8 1a 50 3e 93 0b 09 3e 5f 66 9c 3d
       -0.038110945 0.20322788 0.13383321 0.07636713
000220 23 02 a0 3d 58 91 e8 3c 0d 7c bf 3c f6 23 9d bc
       0.078129075 0.028389618 0.023374582 -0.019182187
000230 5f 88 29 3d 4b 35 46 3d 1a 49 fd 3d a5 83 c3 bc
       0.04138982 0.048390668 0.12367459 -0.023866484
000240 6f dd 17 bc 7c 7d 26 3d 7f 8f 8a bd 94 cd 8c 3d
       -0.0092691025 0.040647015 -0.06765651 0.068751484
000250 5a 72 07 3d 60 27 9a 3c 46 b8 df 3d 4f 99 d7 3d
       0.03306804 0.018817604 0.10923819 0.10527288
000260 88 06 b3 3d 63 6e b6 bc fb 3e 2d 3d 5e 2a 94 3c
       0.0874148 -0.022269433 0.04229639 0.018086608
000270 5e c7 40 bd d4 74 a4 bd c6 f5 c0 bc 08 2e a7 3c
       -0.04706513 -0.08030096 -0.023554694 0.020407692
000280 29 16 41 bd 4b 6c 0e 3d 34 6a e9 bd 10 6e 3d be
       -0.047140274 0.034771245 -0.1139721 -0.18499017
000290 af c5 85 bd 51 3c 7c bc 15 47 92 bd 16 e2 da bd
       -0.06531846 -0.01539524 -0.07142464 -0.10687654
0002a0 6e d0 87 3c c6 16 61 bd 8d a3 56 be 13 55 e8 3b
       0.01657888 -0.05495336 -0.20960827 0.0070902198
0002b0 66 ca 31 3c 67 5f b5 bd e7 a9 dd bd 25 c7 f7 3c
       0.010851478 -0.08856087 -0.10823422 0.030246327
0002c0 b9 3a a4 bb 44 52 2c be ed 92 17 bd 6b aa 3e bc
       -0.005011883 -0.16828257 -0.037005354 -0.0116373105
0002d0 01 64 e7 bc a7 fc 75 3c ad 9d 14 3b 40 b1 07 3d
       -0.028245928 0.01501385 0.002267699 0.033128023
0002e0 12 fb 1a bc af e0 ca bd 73 21 8d bc 43 20 93 3d
       -0.009459274 -0.09906136 -0.017227864 0.07183888
0002f0 6d 69 d3 3b d0 c0 71 3c f7 07 c7 bd 54 a8 91 be
       0.0064517767 0.014755443 -0.09718316 -0.28448737
000300 a0 d0 26 be 5b 98 ce bb 33 8a 09 bd 7f dc 17 3c
       -0.16290522 -0.0063047833 -0.033579063 0.009268879
000310 06 ce 21 3d f7 de 09 3d 7d a9 cd 3d dd 05 a6 3d
       0.03950312 0.0336599 0.10042093 0.08106587
000320 25 7f 5c 3d ee 40 cb bb ab 91 87 bc 3e 5a 44 3d
       0.053832192 -0.0062028086 -0.016548952 0.047937624
000330 93 6d c2 3c a5 01 61 bc 81 15 85 3c e6 5b 0f bd
       0.02373389 -0.013733302 0.016245605 -0.03499975
000340 31 ff e0 bc ed 4c dc 3d 13 3a de 3a c4 8d b4 bd
       -0.027465435 0.1075686 0.0016954563 -0.08816102
000350 69 7b 8c bd 71 39 36 3d 59 08 3c bd d6 a9 82 bd
       -0.06859476 0.044488374 -0.0459064 -0.0638005
000360 f8 30 90 3b 85 85 91 bc ee 0a fe bd 06 bd 83 bd
       0.004400369 -0.017763862 -0.124044284 -0.06432538
000370 a9 7c 6d 3d 02 cb d4 bd f6 d1 a7 bd 9d c0 25 3d
       0.057980213 -0.10390283 -0.08194344 0.040466893
000380 6e 57 42 3d d1 11 12 bc 7d 02 41 3b 5f 47 5d 3b
       0.04744666 -0.008915381 0.0029450946 0.0033764464
000390 9a 94 36 bd 87 93 8b bb 81 2a 8e 3d 53 1a 67 3d
       -0.04457531 -0.00425953 0.06941701 0.05642159
0003a0 77 f1 53 3c 07 44 7b 3c 5c 44 06 bc d2 e5 be 3c
       0.012935988 0.015336043 -0.008195009 0.023302946
0003b0 28 bd be 3d 58 2a 89 3c 7f c9 93 3d 77 ee 6b bc
       0.093134224 0.016743824 0.07216167 -0.014400116
0003c0 d2 d9 ab bc 16 0c 99 bc 07 80 f3 bc d4 8d 9c bb
       -0.020977888 -0.01868252 -0.029724134 -0.0047776494
0003d0 49 0c c0 bc 43 89 4b 3d 3e a5 30 bd ec 57 c5 3c
       -0.023443358 0.04969145 -0.043126337 0.024089776
0003e0 d2 0d 3d ba d2 fe 32 3a 38 0a 06 3a f7 5d 3c 3c
       -0.0007211837 0.00068281323 0.0005113217 0.011497012
0003f0 97 6b 37 3c 47 8a 24 3c 66 3c b5 3c a1 af 41 bd
       0.011195085 0.0100427335 0.022123527 -0.047286633

8.bias f4 [32]
000000 67 9c e2 3c c4 d9 6d 39 f4 67 4f bb 47 67 89 3c
       0.02766247 0.00022683205 -0.0031647654 0.01677288
000010 15 db 41 3d 2a ee 33 bd 16 a4 f3 3c c3 32 31 bd
       0.047328074 -0.043928303 0.029741328 -0.0432613
000020 f7 ce f0 3c a1 ce 58 bc df 38 00 bc 25 e3 8f 3d
       0.029395564 -0.013232858 -0.007826059 0.07025746
000030 a5 b2 86 3c ec d4 d6 ba b4 dc ac bb cf 08 77 3c
       0.016442606 -0.001639036 -0.0052753333 0.015077784
000040 39 ba 3d bd 56 ee a1 bc b8 44 85 bc 03 b0 7e 3c
       -0.046320174 -0.019766968 -0.01626812 0.015544894
000050 06 5e 45 3d e3 fe c3 bc b0 15 35 bb 3e 68 0f bd
       0.04818537 -0.02392525 -0.0027631335 -0.035011522
000060 75 33 74 bd 83 aa 0b 3d 20 a6 e2 3c 03 1a 1f 3c
       -0.059619386 0.03409816 0.027667105 0.0097107915
000070 68 e9 3f 3c f8 ea 82 bc 61 36 48 3b ef d3 d2 ba
       0.011713363 -0.015981182 0.003054999 -0.001608489

11.weight f4 [10, 32]
000000 7d 14 62 be 30 df 33 be c5 c7 d7 3d 78 89 b3 be
       -0.22078128 -0.17565608 0.1053615 -0.35065818
000010 71 77 e7 3d 2e a5 e3 3d 77 db 53 be 1d 9c 8e be
       0.113020785 0.1111549 -0.20689188 -0.2785348
000020 c8 3f 31 be e1 a7 0d be 41 e3 11 3e a8 c9 29 be
       -0.17309487 -0.13833572 0.14246847 -0.16580832
000030 84 e1 55 3e 08 d8 32 3e f6 b2 22 be 04 d9 2d 3e
       0.20886809 0.17465222 -0.1588858 0.16977316
000040 78 6b 7a be ad 07 24 3e fc d7 38 be 4f 8e 25 3c
       -0.24455059 0.16018553 -0.18051142 0.01010473
000050 16 51 d7 bd 18 7c cc 3d e0 91 6a 3e 0a da 48 be
       -0.10513513 0.099846065 0.2290721 -0.19614425
000060 ae c1 12 be ed d4 04 3e 8b 17 f7 bd f5 3c 24 3e
       -0.14331695 0.1297185 -0.12065037 0.16038878
000070 57 f8 b9 3d a4 35 9f bd 47 d3 5c be 9f 97 5f bd
       0.0908057 -0.07773903 -0.21564971 -0.054587957
000080 bb 06 17 3d ab cf 43 3e b2 0b 5d be 0b 9c cd 3d
       0.036871653 0.19122188 -0.21586493 0.100395285
000090 bb 9c 5f be 92 4a 8e be 78 2b 4d be 72 57 1f 3e
       -0.21837132 -0.27791268 -0.20036113 0.15560701
0000a0 19 25 84 be 81 91 b5 bd ef 87 4d 3c a1 83 1e be
       -0.25809553 -0.08865643 0.012544616 -0.154799
0000b0 18 87 eb 3c b6 09 e4 3b c4 3e 15 3e 77 3e 48 3e
       0.028750941 0.0069591654 0.14574724 0.19555078
0000c0 7b 05 c9 bc 3f a4 b1 be f9 35 4e 3e 34 70 da be
       -0.024538746 -0.34695622 0.20137776 -0.4266373
0000d0 d8 99 f0 3d 15 63 0f 3e 0e 99 40 bd 5b 56 84 3e
       0.11748093 0.1400264 -0.047020964 0.25847134
0000e0 f8 90 df 3c e6 a1 5e be a6 a0 b0 3d ca 87 7c bd
       0.027290806 -0.21741447 0.08624391 -0.061652936
0000f0 ba 66 4b be 7f c3 81 3d 4c ef 52 3e 75 15 70 3e
       -0.19863406 0.06336116 0.20599097 0.23445685
000100 f3 89 3e 3d 57 31 44 3e e1 bb 30 3e c5 13 02 bd
       0.046518277 0.19159447 0.1725917 -0.031757135
000110 01 65 94 bd f4 de 68 3e 1c 8a ec bc cf 9e 7e be
       -0.072458275 0.227413 -0.02887445 -0.24865268
000120 81 12 f3 3d be 41 0b bc de 1a 1e 3e 84 07 05 be
       0.11868764 -0.008499561 0.15439937 -0.12991148
000130 89 77 4f be a0 2e b3 3d 1f f3 68 3d 49 ab df 3c
       -0.20260443 0.087491274 0.056872483 0.027303355
000140 f0 15 1b 3e 77 51 b9 3d 81 38 5e 3e 96 5b 31 be
       0.15145087 0.09048741 0.21701242 -0.17320094
000150 d4 52 fd bb 27 f6 97 bd 29 d8 9c 3d 89 43 7e bd
       -0.007730821 -0.07419997 0.07658417 -0.062076125
000160 cb 13 56 3e 6f 6a b7 3d 98 d9 6c 3d 03 62 c2 bd
       0.20905988 0.089558475 0.0578247 -0.094913505
000170 6a 2f 41 be 8b 9a 4c be 87 d1 0c be 6c c5 42 be
       -0.18865743 -0.19980828 -0.13751803 -0.19020623
000180 84 8f c3 3d 88 77 0f 3e 80 0f 76 3b 33 5a 0f 3e
       0.09548858 0.14010441 0.003754586 0.13999252
000190 a6 3f 5c 3d ca f3 31 be 96 ca f0 3d e6 c9 aa be
       0.053771637 -0.17378154 0.1175739 -0.3335716
0001a0 0e 14 18 be 96 5b 1d bd 30 3e 49 be 59 79 5d 3d
       -0.148514 -0.03841742 -0.19652629 0.054070804
0001b0 b5 6f 9b bd a5 5e fe 3d 44 e7 a1 bc 4b 0f 5e be
       -0.07589666 0.12420396 -0.019763596 -0.21685521
0001c0 be a9 2a 3e 0a c4 a4 3c 4d 97 88 bb 02 f3 3c be
       0.16666314 0.02011301 -0.004168427 -0.18452075
0001d0 4a 0d 29 bd e6 34 cb bd ad 3c 20 be 5c 74 49 be
       -0.04127244 -0.09922199 -0.15648146 -0.19673294
0001e0 94 48 2c 3d d1 e3 14 3e 03 80 63 3e 41 07 5e bd
       0.042061403 0.1454003 0.22216801 -0.054206137
0001f0 a5 7c e2 3d 25 c6 7f bd 4b bd d4 bd d1 47 4b be
       0.1105893 -0.062444825 -0.10387667 -0.19851615
000200 32 f6 97 be b3 fa 98 bd 5a be be bd f5 5c 0d 3e
       -0.2968002 -0.07469692 -0.093136504 0.13804992
000210 78 27 6b be 17 fb 27 3e e1 b2 b7 3d e4 51 1a 3e
       -0.22964275 0.16404377 0.08969665 0.15070301
000220 f1 22 3d 3e 55 2e ac bd 36 2a 3c 3e e3 3b 51 3d
       0.1847036 -0.08407275 0.18375477 0.051082503
000230 bb d2 87 be 09 a7 e0 bd 3a c2 29 be a6 08 0e 3d
       -0.26527962 -0.109693594 -0.16577998 0.034676217
000240 b9 d1 b3 be 8b 29 ab be 56 95 62 be 5e 40 25 3d
       -0.35120943 -0.33430132 -0.2212728 0.04034459
000250 01 0c b0 3d e6 75 aa bd 4f 5b 54 be 36 42 48 3e
       0.085960396 -0.083232686 -0.20737956 0.19556507
000260 7a b8 aa bb a2 28 f3 3d 91 dd 47 be 73 57 0b 3e
       -0.0052099796 0.118729845 -0.19518115 0.13607578
000270 f1 68 0c 3e f0 d1 74 3e d5 09 da 3d 80 2a 19 3e
       0.13711907 0.2390821 0.106464066 0.14957619
000280 a0 f8 79 3d 5b 76 30 3d 77 38 43 3e 48 b9 e4 3d
       0.061028123 0.043081623 0.19064508 0.11168152
000290 d4 05 d6 3d 61 34 76 be df 77 09 be a1 b6 1b be
       0.104503304 -0.24043418 -0.13424633 -0.15206386
0002a0 01 e7 fc 3d 97 71 25 be e6 32 74 be da ab 17 3e
       0.12348748 -0.16156612 -0.23847541 0.1481165
0002b0 e9 49 0d 3e ca 2c 02 3d 08 8d 29 be 11 65 7a 3d
       0.13797726 0.031780995 -0.16557705 0.06113154
0002c0 2c 37 32 be 27 a4 63 3d a5 3b 45 be 7e 0a ce 3d
       -0.17403859 0.05557647 -0.19261034 0.10060595
0002d0 a5 52 c5 3d 91 c7 83 be 84 fc d8 bc c2 03 a8 3d
       0.09634904 -0.25738195 -0.026487596 0.08203842
0002e0 e9 c9 0a be 35 75 52 be e8 06 6e 3e 0b cf 17 3d
       -0.13553585 -0.20552523 0.23244822 0.037062686
0002f0 d9 63 e2 3d e3 c0 08 bb 0b 2d 14 be b8 0d 8a be
       0.11054201 -0.0020866923 -0.14470308 -0.26963592
000300 01 9b 4d bd 91 ac 37 3e 69 a6 40 3e ed 2f e5 bd
       -0.05019665 0.17936923 0.1881348 -0.11190782
000310 df ba 0b 3c 18 44 38 3e 09 32 79 be 14 c3 0a be
       0.00852844 0.17994726 -0.24335493 -0.13550979
000320 ec 34 d3 bd 08 63 c4 3d ac e5 53 3e 2f 85 86 be
       -0.103128284 0.09589201 0.20693082 -0.26273486
000330 ba cd 17 3e a5 73 85 be b3 96 a2 be 08 27 4f be
       0.14824572 -0.26064792 -0.317556 -0.20229733
000340 da 33 93 be 0e 14 94 bd 3d ec 82 be 94 16 94 3d
       -0.28750497 -0.07230388 -0.2557086 0.07230869
000350 5a c6 31 3e f4 9f 8f 3b 77 04 35 3e 29 c4 f1 bd
       0.17360821 0.0043830816 0.17677484 -0.11804993
000360 73 7c 50 be 58 8f ec bd ed b2 0e 3d c2 fe 27 be
       -0.20359974 -0.11550778 0.034838606 -0.16405776
000370 99 90 16 3d 42 0a 79 3e 61 e8 1f bd 0c b6 56 3e
       0.036758993 0.2432032 -0.039039973 0.20967883
000380 ad 92 64 be 92 99 2c be 68 7c df bd d1 56 13 be
       -0.22321577 -0.16855457 -0.109124005 -0.14388587
000390 05 46 71 be 70 7a 00 be 97 2b 1d 3e ab c7 63 3e
       -0.23561867 -0.12546706 0.1534866 0.22244136
0003a0 6d 3d ac 3d e8 87 a2 bc ab ab ef 3b 42 ed 42 3e
       0.084101535 -0.019840196 0.0073141656 0.19035819
0003b0 0f d7 78 3e 5e af 2e 3e 93 77 37 3e d1 c6 97 bd
       0.24300788 0.17059085 0.17916708 -0.07410968
0003c0 84 82 17 3e 2d a5 6c be 9f 4c 50 3e 0b 64 6d bd
       0.14795882 -0.23109885 0.20341729 -0.057956737
0003d0 c3 ec 9b be 55 74 84 be cc 4b 78 be 7a fd d6 bc
       -0.30454072 -0.25870004 -0.24247664 -0.026243914
0003e0 1d 18 b2 bd d9 3d 06 3e 86 42 a7 be 26 cb 39 be
       -0.086960055 0.1310953 -0.3266794 -0.18143901
0003f0 11 08 16 be 3f e1 82 3d 36 cb 57 bd 81 6f 48 be
       -0.14651515 0.063906185 -0.05268403 -0.19573785

11.bias f4 [10]
000000 78 ec bd 3d a7 1e 16 3e 6d 55 14 be cf 19 47 ba
       0.092736185 0.1466013 -0.14485712 -0.00075950933
000010 bb 3c 0f be 40 03 d3 bd 12 99 7f bd a8 0d 40 3e
       -0.1398801 -0.10303354 -0.06240184 0.1875521
000020 2d 2a 9e bc a0 a7 68 3b
       -0.01930722 0.0035500303
