models/mnist_model_20241118_115916.pth (torch, 59224 bytes, 16 tensors)

conv1.weight f4 [4, 1, 3, 3]
000000 38 c3 fc 3d a0 65 a5 bd c5 06 db bd 10 55 c0 3d
       0.123419225 -0.08076024 -0.106946506 0.093912244
000010 9f 55 33 3e af 93 91 be 5f 84 7b 3d c3 09 fd 3c
       0.1751313 -0.28432986 0.061405536 0.030888444
000020 d1 a1 86 be 78 44 a0 be a8 d1 8b 3e 24 1e fb bd
       -0.2629533 -0.31302238 0.27308393 -0.12261608
000030 72 29 a4 be e8 34 1a 3e b0 dd a1 3e a9 31 16 bd
       -0.3206287 0.15059245 0.31614447 -0.036668453
000040 d7 ef 47 3e 56 ea 2c 3e eb 6b a6 bd 56 a3 53 be
       0.19525085 0.16886267 -0.081260525 -0.20667776
000050 dd 73 3c bc f5 e2 09 3e e3 b5 d9 be 8d 5e 85 3e
       -0.011502233 0.13465483 -0.4252158 0.260487
000060 85 53 93 3e 5a 0a 87 be e0 7d 1c be 54 7d 24 3e
       0.28774658 -0.26375085 -0.15282393 0.16063434
000070 58 1c 70 3e 33 d1 1b 3e 5f a6 11 bb 8e e6 2a 3e
       0.23448312 0.15216522 -0.002222441 0.16689512
000080 1b df 8e 3d 75 34 e8 be 3d fa b3 bc 08 63 0d bd
       0.06976148 -0.45352522 -0.021969909 -0.03451827

conv1.bias f4 [4]
000000 fb d4 46 be 79 87 12 3e 54 e0 75 be 78 53 e1 bd
       -0.19417183 0.14309491 -0.24011356 -0.110022485

bn1.weight f4 [4]
000000 18 59 82 3f 35 92 79 3f 02 f1 7b 3f 92 a4 80 3f
       1.0183439 0.9748872 0.98414624 1.0050223

bn1.bias f4 [4]
000000 9b 5b 7e be 55 56 61 3d a4 e1 96 bd 72 71 f3 3d
       -0.24839632 0.055013973 -0.07367256 0.11886872

bn1.running_mean f4 [4]
000000 47 19 4c be ca af 0f 3e 4c ac 73 be d3 08 e6 bd
       -0.19931518 0.14031902 -0.23796195 -0.11232152

bn1.running_var f4 [4]
000000 9c 6e 4b 3e cc d1 c8 3e 78 48 75 3e a8 8a 8d 3e
       0.19866413 0.39222562 0.23953426 0.2764485

conv2.weight f4 [8, 4, 3, 3]
000000 b9 71 73 3e a9 0d 3f 3e e7 01 7a 3c f5 48 c6 3d
       0.2377385 0.18657555 0.015259243 0.09681884
000010 d7 52 a5 3d c4 be 08 3e 55 f0 db 3c f4 d2 c4 bd
       0.08072441 0.13354021 0.026847998 -0.096105486
000020 d0 9f ba bc da dd 9d bd 60 25 17 3c 7b 22 4a 3e
       -0.022781283 -0.077083305 0.0092252195 0.19739716
000030 0b ae b8 bd b6 48 8c bd f6 69 18 3e ba 20 93 bd
       -0.09017571 -0.06849806 0.14884171 -0.071839765
000040 2d 39 a7 3c 17 da 2c 3d 1f 15 c4 3d 9c 05 b3 bc
       0.020413006 0.042200174 0.09574341 -0.02185326
000050 a7 37 d6 3d 6b aa 11 3e 57 0b 1d 3e 23 c9 3d 3e
       0.104598336 0.14225166 0.15336357 0.18533759
000060 6b 07 8e bd de 6e a1 bc 15 31 9a bd c8 ba b3 bd
       -0.069350086 -0.019706186 -0.07528893 -0.0877586
000070 c1 c5 af 3b f9 fc 2e 3d f2 0d 4e bd f3 af 09 be
       0.0053641503 0.042721722 -0.050306268 -0.13446026
000080 9f f6 a5 3d fe dd 85 bd 65 7a 48 3d 21 41 67 bd
       0.0810368 -0.06536482 0.04894485 -0.056458596
000090 c0 c2 74 bd 13 d0 dd 3c 61 26 a8 3d 54 fe 3c bd
       -0.05975604 0.027076757 0.08210445 -0.046140984
0000a0 69 a4 23 3e f4 e7 91 3c aa f7 9a 3d 23 a9 3f 3d
       0.15980686 0.0178108 0.075667694 0.04679216
0000b0 a8 52 d0 bd 62 78 fc bc dc e8 18 3d e0 23 d2 3d
       -0.101720154 -0.030819122 0.037331447 0.10260749
0000c0 2a 19 bb 3d d0 c7 24 bc 64 7a 2e 3e d9 99 19 3d
       0.09135659 -0.010057405 0.17038876 0.037500236
0000d0 f0 11 ff bd 13 c0 00 be e8 36 6e bd 6e 26 dd bd
       -0.12454593 -0.1257327 -0.05815783 -0.107983455
0000e0 72 12 74 bd 40 57 cf bd 5f 29 f3 bb 4b 35 8d 3e
       -0.059587903 -0.101240635 -0.0074207033 0.27579722
0000f0 69 c7 5b 3d e2 7e ad bc db 9b 9a bc ad 35 e4 bd
       0.05365697 -0.021178667 -0.018873146 -0.1114305
000100 8f 79 7f bd 88 66 99 3d 78 29 37 be fb 45 7e 3d
       -0.062371787 0.074902594 -0.17886913 0.062078457
000110 3f 5a 91 bd b2 69 1d bc d1 87 aa bc 7a 3e 60 3e
       -0.07097291 -0.009607719 -0.020816715 0.21898833
000120 9e c7 9b 3c ad 96 67 3c d3 6d 28 3e 85 e9 56 bb
       0.019016083 0.014135045 0.16448145 -0.0032792997
000130 4c 57 f4 bd 8a 96 6b bd e0 96 a9 38 28 7c b0 bd
       -0.11930713 -0.057516612 8.0866506e-05 -0.08617431
000140 ac 37 c4 bd 29 a5 22 3e 5f 7e 56 3c 0d 18 58 be
       -0.09580931 0.15883316 0.013091653 -0.21102925
000150 bc d6 81 bd ba f2 15 3e 49 ed dc 3d 98 e5 9e 3d
       -0.063397855 0.14643374 0.10787446 0.07758635
000160 1c b2 49 3d fe 65 9d bc 37 17 53 3d 31 b3 34 3e
       0.049242124 -0.019213673 0.05153581 0.17646481
000170 11 f5 14 3e f0 75 d3 3d 61 84 27 3e 55 19 d5 bc
       0.1454661 0.10325229 0.16359092 -0.026013056
000180 5f 76 9b bd 60 82 3c bd 29 5c de bd c1 c5 b1 bd
       -0.07590937 -0.046022773 -0.10857422 -0.08680297
000190 b0 dd be 3d de 99 9c bd 06 ab f1 3d a1 bf 2e bc
       0.09319627 -0.07646535 0.11800198 -0.010665805
0001a0 b2 f9 8d bd a7 f4 2c be f3 80 25 3e ca 94 bb 3d
       -0.06932391 -0.16890202 0.16162471 0.09159239
0001b0 60 51 18 3d c7 b1 45 bd 10 c1 82 be 7b f0 af bd
       0.03718698 -0.048265245 -0.2553792 -0.0859079
0001c0 1c e5 df bd d1 bc b7 3d c8 9b 40 3e e8 f6 7c 3e
       -0.10932371 0.08971561 0.18809426 0.24703562
0001d0 5c a6 25 3e 8c cd 41 bd ec 55 d1 3d 22 e5 0b 3e
       0.16176742 -0.047315165 0.102214664 0.13661626
0001e0 51 1e 91 3d 20 cb 9f 3c a1 ca 59 3d 6f 42 87 bd
       0.070858605 0.019506037 0.053171758 -0.06604468
0001f0 9e e3 bb 3d 66 c1 32 3b 2e e6 dc bd 3b 79 40 be
       0.09174274 0.002727592 -0.10786091 -0.18796246
000200 8e 95 92 3c 0f 6a 62 bd 92 3e 30 be 23 17 55 be
       0.017893579 -0.055276927 -0.17211369 -0.20809607
000210 df f9 8e bd 38 09 94 3d 58 5b bb 3d 40 df 9c 3d
       -0.06981253 0.07228321 0.09148282 0.07659769
000220 99 a8 f9 bd 81 47 18 bd 3b a6 4a be 14 bc 04 be
       -0.121903606 -0.037177566 -0.19789974 -0.12962371
000230 3a a5 31 3d 3c 8a 21 3e 4d ca 98 3d a9 3b fd bd
       0.043370463 0.15775388 0.07460461 -0.12364895
000240 51 64 59 3e 2a f3 56 3e 51 ad f1 3c 5e 7a 9b 3e
       0.21229674 0.20991197 0.029501589 0.30366796
000250 ff bc 00 3e 23 a6 25 3d 36 f2 2b 3e 90 a6 96 3d
       0.12572096 0.040441643 0.16791615 0.07355988
000260 82 dc fa 3d f0 d6 d2 3d 66 b0 1f 3d 17 6d 6b bd
       0.1224909 0.10294902 0.038986586 -0.057477083
000270 8a 13 a2 3d 61 a8 d5 3d 81 29 4a 3e 9a cb 8b bd
       0.07913883 0.10432506 0.19742395 -0.06825943
000280 7d 55 92 bd 7f f0 1c 3e 4d 72 a1 3d 79 ab e1 3a
       -0.07145212 0.15326117 0.07883129 0.001721724
000290 1f 9e 3f bd ae 17 86 3c 04 2c e1 3d b0 ef 0b be
       -0.046781655 0.016368713 0.109947234 -0.13665652
0002a0 17 5f dc 3d 76 26 d2 bc 0f 3c df bc c7 52 15 3c
       0.107603244 -0.025653105 -0.027250318 0.009113974
0002b0 25 0e be bd af d6 98 bc 2b fb a7 bd b0 d3 99 3c
       -0.092800416 -0.018657057 -0.08202203 0.018777698
0002c0 61 d0 20 be f2 42 b8 ba a5 fc 27 be 41 5d 27 be
       -0.1570449 -0.0014058037 -0.1640497 -0.16344167
0002d0 33 47 08 be 67 45 08 be 07 30 be bd 8c fc b0 bc
       -0.1330841 -0.13307725 -0.09286504 -0.021604799
0002e0 44 03 b6 3c e4 df d8 bd 7a d3 f5 3c 57 0b 25 3e
       0.022218354 -0.10589579 0.030008066 0.16117607
0002f0 23 1d 06 3e d3 6a ac bd 44 3b c6 bd 89 1e e4 3c
       0.13097052 -0.084188126 -0.09679273 0.027846592
000300 08 6f 69 3d 75 bc 01 3c a5 7b 52 3d 28 da 0b 3c
       0.056990653 0.007918467 0.051387448 0.008535899
000310 95 e0 25 bd 9f df cc 3d 1c de b1 3d 1b 03 43 3d
       -0.04049738 0.1000359 0.08684942 0.047610383
000320 57 f2 b5 3d 73 10 23 3e 66 ae ad 3d a6 17 0f 3d
       0.08884113 0.15924244 0.084805295 0.034934662
000330 21 52 5d 3d c7 11 1d 3e 8d 65 d5 bb eb c6 38 be
       0.054033402 0.15338813 -0.00651235 -0.18044631
000340 c6 80 33 3d f4 f2 29 be 3d 59 32 3e 5f 5e 8b bd
       0.04382398 -0.16596586 0.17416854 -0.06805109
000350 b8 07 48 3d d0 20 e4 3c 69 b1 f3 3c 78 98 b6 bc
       0.048835486 0.027847677 0.029747682 -0.0222895
000360 4e 1b ac bd 8b 5a a1 bc e3 80 e6 3c 5e 73 53 3d
       -0.084036455 -0.019696495 0.02813763 0.051623695
000370 5b f1 9d 3d 05 3c 10 3d bf c0 a5 3d 75 fc 0c 3e
       0.077120505 0.03521349 0.08093404 0.1376818
000380 dd c0 ff bc 4e 4d 77 3c 35 83 0a 3e 3f 4d 03 3e
       -0.031219894 0.0150941145 0.13526614 0.12822436
000390 bf 62 38 3e 25 b4 54 3e f2 59 10 bd 30 13 7a 3d
       0.18006419 0.20771845 -0.03524203 0.061053455
0003a0 17 a0 0d be 9c fc 31 be 50 eb b2 bd 63 8a 20 be
       -0.138306 -0.17381519 -0.087362885 -0.1567779
0003b0 3c 97 ab bc c6 2b 14 3c b5 59 a7 3a ca 9a 40 bd
       -0.020946138 0.0090436395 0.0012767824 -0.04702262
0003c0 af c3 93 bd 05 b1 40 be 17 87 b0 bb 4c 87 40 bd
       -0.07215058 -0.18817528 -0.0053871977 -0.04700403
0003d0 33 51 aa 3d 2c 10 c9 bd fd 93 cf bd 7e 75 df bd
       0.08316269 -0.09817538 -0.101356484 -0.10911082
0003e0 8b 77 51 3d 0f 37 2e be 13 67 a3 3d a6 ce dc bc
       0.051139396 -0.1701319 0.07978644 -0.026954006
0003f0 9f 1c a7 3a 5b 2b d8 bd 53 2b ce bd cf 20 2b be
       0.0012749619 -0.105551444 -0.10066857 -0.16711734

conv2.bias f4 [8]
000000 9e ad be 3d 9f 54 39 3d dd b5 d0 bd 37 95 99 bb
       0.093104586 0.045246717 -0.10190938 -0.0046869772
000010 55 05 a0 3d 67 be 15 bd f1 94 ea bd e4 70 89 3d
       0.07813517 -0.036558535 -0.114541896 0.06710985

bn2.weight f4 [8]
000000 5d fb a6 3f c3 49 a6 3f e0 5c a0 3f dd 26 a3 3f
       1.304546 1.299126 1.2528343 1.2746235
000010 e7 b0 b1 3f 9e c3 af 3f 24 ae a3 3f 50 b1 b2 3f
       1.3882111 1.3731573 1.2787519 1.3960361

bn2.bias f4 [8]
000000 aa a1 6b 3d 4c 7e ad 3d 12 44 ad 3d 96 ce 8b 3d
       0.05752722 0.08471355 0.08460249 0.068265125
000010 9b ef 11 3e 38 aa 21 3e 4b 75 10 3e 9a 68 92 3d
       0.14251558 0.1578759 0.14107244 0.071488574

bn2.running_mean f4 [8]
000000 56 bc be 3e 1e 17 b8 3d a8 c2 25 3e f9 0e 01 be
       0.37253064 0.08988784 0.16187537 -0.12603368
000010 69 0e a8 3e 06 94 11 3e 41 3f 75 be ae 92 c8 3d
       0.32823494 0.14216623 -0.2394991 0.09793602

bn2.running_var f4 [8]
000000 2b 60 5f 3e ac 76 38 3e 38 be 4d 3e 65 ba 74 3e
       0.21814029 0.1801402 0.20092094 0.23899229
000010 96 15 b7 3e e3 f8 28 3e d9 8f 88 3e e0 31 0b 3e
       0.35758656 0.16501193 0.26672247 0.13593245

fc1.weight f4 [32, 392]
000000 3b 82 f7 bc 91 ea 28 bd be 41 56 bd e3 74 c0 bd
       -0.030213466 -0.041239325 -0.05230879 -0.09397294
000010 2a bd f6 b9 e1 9b e2 bb d4 ba b6 bc 3f 0a a1 3d
       -0.00047061715 -0.006915555 -0.022305883 0.078632824
000020 ec 10 90 3d 9e 9b 07 bc cb a9 b9 3c a5 8a c2 3d
       0.070344776 -0.008276848 0.022663971 0.094991006
000030 be 89 e7 3d 47 3b 17 bc 7d 70 48 3c a3 c0 9f bd
       0.11305569 -0.009230441 0.012233851 -0.078004144
000040 4c 33 0c 3c 9f e3 49 3d ac 76 fc 3c ec f0 cf 3c
       0.008557152 0.049289342 0.030818306 0.025383435
000050 ca 59 32 bd 40 87 4c 3d a8 5c c4 3b a3 7e c4 3d
       -0.04354266 0.049933672 0.005992491 0.095944665
000060 35 7a 31 bd 6b 58 42 3d eb 31 45 3d c7 5d 72 bc
       -0.043329436 0.047447603 0.04814331 -0.014792866
000070 1f d9 bb 3c bb d3 e0 3c 46 ea fe bc 53 fe d0 bb
       0.02293068 0.027444711 -0.03111757 -0.006377974
000080 dc 22 72 3c 22 73 ca 3c e0 f1 9e 3d a6 37 15 bd
       0.014778819 0.024713103 0.07760978 -0.036430024
000090 1f 4f 9f bd c1 19 c6 bd 16 9f a5 bc 20 4b 1e bd
       -0.07778763 -0.09672881 -0.02021746 -0.038645864
0000a0 12 7d a4 bd d4 19 5c 3d 23 79 57 bd f5 c6 a1 3c
       -0.08031668 0.05373557 -0.05260576 0.01974819
0000b0 40 5f a3 3c 18 e3 88 bd da 00 f3 bc 6d ff ca bc
       0.01994288 -0.0668394 -0.029663492 -0.02478
0000c0 0d 21 34 3b 93 13 04 3d 07 3f bc bc b4 03 e4 bc
       0.002748552 0.03224523 -0.022979273 -0.027833797
0000d0 8a f4 aa bd 25 6d a8 bd ba ce 3f bc a8 57 da bc
       -0.083474234 -0.08223943 -0.011707002 -0.026653126
0000e0 c8 2d 9d 3d 77 78 2a bc 6a c5 4b 3d 05 08 2c 3d
       0.07674748 -0.010404698 0.049748816 0.041999836
0000f0 ff db 46 3d d8 69 f1 bc 2d 9c 65 3d 4d 61 ee bc
       0.04854965 -0.029469416 0.056057144 -0.029099131
000100 05 a4 a2 bd f8 04 78 bd 65 f1 d2 3d bc 6b ca bc
       -0.079414405 -0.060551614 0.102999486 -0.024709575
000110 81 48 0c bd fc b2 27 bc 27 7c 69 3d b9 0e cc 3d
       -0.034248833 -0.010235544 0.057003167 0.099637456
000120 47 b4 f5 3d ce ca b7 3c 46 9c 61 bd f2 d1 c5 3b
       0.11997276 0.022435572 -0.055080675 0.0060369903
000130 f2 a4 02 bd 09 16 5f 3d 1c 49 23 bd 66 a8 01 be
       -0.031895585 0.054464374 -0.039864644 -0.12661895
000140 5b af fc bc df 04 dd ba 43 cd 51 3d 42 92 bb bd
       -0.030845335 -0.0016862414 0.051221143 -0.09158756
000150 ba b0 f2 bc bf 3c 29 bd 37 00 6f bd d5 dd c5 3d
       -0.029625285 -0.041317698 -0.058349814 0.09661452
000160 ed 62 d2 3d 6c 9c d8 3d 6f d8 e7 3b 22 40 1c bd
       0.10272775 0.1057671 0.0070753614 -0.0381471
000170 46 2a 45 3d e0 e2 57 bd 66 a2 3d ba f6 72 05 bd
       0.04813602 -0.0527066 -0.0007233977 -0.03258034
000180 18 83 48 3d 61 b4 ab 3d 39 27 b4 3b 25 7a 02 bd
       0.048953146 0.08384014 0.00549784 -0.031854767
000190 29 2e ea bc 71 b0 e3 bc 12 12 fb bd 09 33 09 bd
       -0.028586464 -0.027794095 -0.12259306 -0.033495937
0001a0 42 83 ee 3c 99 92 8b bd ee d1 14 bd 8d 12 a2 3c
       0.029115323 -0.06815071 -0.036333017 0.019784236
0001b0 0b 24 18 3d c8 3c 23 3c c8 26 90 3c 66 c0 0d ba
       0.03714375 0.009963222 0.017596617 -0.0005407393
0001c0 19 1e be bd 7a 81 b1 3c 20 85 bb 3c 9a c0 cf bc
       -0.092830844 0.021668185 0.022890627 -0.025360394
0001d0 b7 69 4f bd f0 19 87 3b ec 54 01 3e 37 44 a6 bc
       -0.050637927 0.004122965 0.12630051 -0.0202962
0001e0 cc 72 06 bc 26 8d 33 3d 8c f6 48 bd d6 a5 1f 3d
       -0.008206081 0.04383578 -0.04906325 0.038976513
0001f0 ac 6c 1d 3c cc 94 bd 3b bd 2d 0d 3d a0 e9 0e 3e
       0.009608429 0.0057855602 0.034467448 0.13956308
000200 d0 31 37 bc 1c ab 01 bd 59 b7 0f 3d 7a fd c6 3a
       -0.01118131 -0.031657323 0.035086963 0.0015181743
000210 9d 24 cb bb 81 ef b8 3d 68 ea c1 3d e6 bd 1d 3d
       -0.006199433 0.09030057 0.094685376 0.03851118
000220 3e dc 74 bd 87 05 c5 3b f0 d5 5e bd 68 6c 1e bd
       -0.05978035 0.006012622 -0.054403245 -0.038677603
000230 ad e6 12 3d a9 6f 34 bd 42 fb 64 3d 7d 97 30 3c
       0.03586452 -0.0440518 0.05590368 0.010778305
000240 62 89 59 bd fe 48 b1 3c df b5 a0 3c fa f3 4e 3a
       -0.053109534 0.02164125 0.019617973 0.00078946317
000250 12 f6 fc bc 98 57 bf bd 23 a3 d2 bc b5 15 84 3b
       -0.030879054 -0.09342879 -0.025712555 0.004030908
000260 77 36 10 3c 52 47 46 3b 9b 5d 1f bc 54 dd f0 3b
       0.008802048 0.0030254913 -0.009726907 0.007350603
000270 6c 64 0c bd 8a b4 2b bd 22 c7 87 3c 73 ec d1 3c
       -0.034275457 -0.041920222 0.016574446 0.025625443
000280 47 5d 10 3e 7a 7b 32 bd dc c2 23 bc ae 5b 0b bc
       0.14098082 -0.043574788 -0.009995189 -0.008505745
000290 46 f7 9d 3b c1 09 b8 bc 57 e2 c7 bd 8c 8c 80 3d
       0.004820737 -0.022465589 -0.09759968 0.06276807
0002a0 a8 ae b4 bb b9 e2 bd 3c 4f f1 57 bd 1e 8f 16 bc
       -0.0055139847 0.023179399 -0.052720364 -0.009189395
0002b0 79 4f 4d bc e5 42 bc bd 6e 12 9b bd ef 42 59 3d
       -0.012531155 -0.091924466 -0.075718746 0.05304235
0002c0 1c d7 c9 bd dc a7 1b be c2 18 2c 3c ac 53 8b bc
       -0.09855482 -0.15200752 0.01050395 -0.017007671
0002d0 c2 32 01 be 4a 81 25 be d4 9f 2b 3b 46 27 79 bd
       -0.12617019 -0.16162601 0.0026187794 -0.06082847
0002e0 08 9a 14 3d 1a dc b9 3d e7 46 0d 3d 84 1b a6 bc
       0.03627971 0.09075184 0.034491446 -0.020276792
0002f0 2c e2 3c bd e4 4a 47 bd 5b 69 32 bc 2b e5 d0 bb
       -0.04611413 -0.048655406 -0.0108893765 -0.006374975
000300 83 8a c1 bc 07 a0 c4 bb 54 c4 a1 bd f0 92 94 3d
       -0.023625618 -0.006000522 -0.07898775 0.072545886
000310 40 ed 33 3d 24 eb 34 3d c7 28 61 bd 45 3a c7 bd
       0.04392743 0.04416956 -0.05497053 -0.09727911
000320 d3 94 a9 bd b8 98 2a bc 2f 5e 6f bd 34 98 8c 3c
       -0.08280339 -0.010412388 -0.05843943 0.01716242
000330 3d 42 87 bc 15 65 f2 3c f5 77 96 3d 60 c9 94 3d
       -0.016511077 0.029589215 0.07347099 0.07264972
000340 6c ae e6 3c db d5 bc 3b f0 d6 c1 3c 85 63 ec 3d
       0.028159343 0.0057627982 0.02366206 0.11542419
000350 f8 7c 69 3e e8 81 6d 3d 16 a5 a7 3b 2d 20 3f 3a
       0.22801578 0.057985216 0.0051161153 0.00072908663
000360 6f f4 a7 bd 82 bc 43 bd c6 ac 05 be bf c5 86 bd
       -0.08200919 -0.047787197 -0.13054189 -0.06580686
000370 24 26 c1 3d 83 da 56 bc 55 85 77 3d cc 64 ce 3c
       0.09431103 -0.013113621 0.06042989 0.025194548
000380 0f 0b a5 bc 57 2c 56 bd 66 f5 ab bd be 11 a6 bd
       -0.020146875 -0.05228838 -0.083964154 -0.08108853
000390 ca 02 a9 3b 59 18 b8 3c ec f6 55 3d c3 cc 3d bc
       0.005157803 0.022472547 0.052237436 -0.0115844635
0003a0 cb 0d 0e 3e b0 03 90 3c 10 f5 4e 3c 9f f8 1c bd
       0.13872449 0.017579883 0.01263167 -0.03832304
0003b0 3f d1 9c bc 0f 1e 86 3c 43 2e 8a 3d e4 51 e9 bc
       -0.019142745 0.016371755 0.06747105 -0.028481431
0003c0 14 29 8c b8 86 2d 7f 3d 9f 08 c6 bd d9 7d 64 bd
       -6.6833716e-05 0.062299274 -0.09669613 -0.05578408
0003d0 77 04 dc 3c d9 4a 4f b9 bb ad 53 bb 71 74 12 3c
       0.026857598 -0.00019768941 -0.0032299596 0.008938895
0003e0 19 d0 47 bc 55 bd d3 3b 97 5d 0d bc dc a6 60 bd
       -0.01219561 0.006461779 -0.008628271 -0.05484663
0003f0 7d 85 09 3c ab 8c ad bd 57 7b 42 3d b1 1c b2 3d
       0.0083936425 -0.08474096 0.047480907 0.08696879

fc1.bias f4 [32]
000000 7c cf 82 3d ef a5 29 3c b2 46 6b 3b 75 ea a7 bc
       0.06387231 0.010354503 0.0035900292 -0.02049754
000010 8c 3d 4c bd 87 a4 34 bc bb 47 a4 3c 09 22 46 bd
       -0.049863383 -0.0110255545 0.020053735 -0.048372302
000020 94 f1 8c bc e0 f7 40 3c 71 cf 32 3c 88 3d bd bb
       -0.017205037 0.011777848 0.010913716 -0.0057751574
000030 ec b6 36 bd 1f 88 42 3d b2 a5 80 3c f1 03 aa bc
       -0.04460804 0.047493096 0.01570401 -0.020753833
000040 51 01 c9 3c d8 0f 11 3c f7 01 00 39 1c fe 9c 3c
       0.02453676 0.008853875 0.00012207763 0.019164138
000050 17 c8 31 bc ce cf 62 3d d4 a5 57 3d 61 b4 94 bc
       -0.010850928 0.05537396 0.05264838 -0.018152418
000060 98 f4 05 bd 65 6c 98 3c a9 b6 65 3d 3e 98 5d 3d
       -0.032703966 0.018606374 0.0560824 0.054100268
000070 f1 42 0c 3d 3d ad c4 3c 4b bc a3 3c 76 d2 0c bd
       0.034243528 0.024008388 0.019987246 -0.0343804

fc2.weight f4 [10, 32]
000000 ba 61 55 3e 6a 65 6e be dc 33 10 3d d7 1e 78 3e
       0.20838061 -0.23280874 0.035205707 0.24230514
000010 3a d0 0d be 86 39 03 3e 15 4b ae be c7 4d 32 3e
       -0.13848963 0.12814912 -0.34041658 0.17412482
000020 00 f0 69 3e 45 d6 01 3e be 71 61 be 64 f8 fd 3d
       0.22845459 0.12679394 -0.22016045 0.124008924
000030 6b 94 05 be 28 3c c8 bd 77 b5 b0 be 1e 67 c4 3d
       -0.13044898 -0.09777099 -0.34513447 0.095899805
000040 a1 0c aa be 1e fc 83 be 5d 03 93 be 20 a7 05 be
       -0.3321276 -0.25778288 -0.28713503 -0.13052034
000050 00 d8 13 3e e4 ee d5 3d 58 f9 08 3e d2 1b e3 bd
       0.14437866 0.104459554 0.13376367 -0.11089291
000060 ff 0b 0c be af 01 1e be 48 a0 55 3e 6a aa 66 3e
       -0.13676451 -0.1543033 0.20861924 0.22525945
000070 d6 d1 18 be ce 8d 3e be cb 1d a4 be 3a 76 93 bd
       -0.14923796 -0.18608782 -0.3205398 -0.07200284
000080 c7 30 9a be 08 b7 75 be 95 04 85 be dd 6c 2f bd
       -0.3011534 -0.23995602 -0.25980058 -0.04282843
000090 43 19 46 3d 24 af c1 bc 00 e7 04 be 79 bf 55 be
       0.048363935 -0.023643084 -0.12978745 -0.20873822
0000a0 21 b3 1c be 51 dd 87 be ba d4 81 3e e3 47 8e be
       -0.15302707 -0.2653604 0.2535761 -0.2778922
0000b0 4f df 78 3d bb 9b 29 3e 17 c6 0a 3e 37 87 30 bd
       0.06075984 0.16563313 0.13552128 -0.0430977
0000c0 c0 de 82 3e 22 47 ea bd 72 57 fb bd 60 66 69 3e
       0.2556057 -0.11439349 -0.12272538 0.22792959
0000d0 47 df 85 be e8 af e3 bd dd e9 c7 be 2d 41 4f 3e
       -0.2614691 -0.11117536 -0.3904561 0.20239706
0000e0 43 d9 f9 3d 65 b1 93 be 7b 42 5a 3e fe ab 79 3e
       0.121996425 -0.2884628 0.21314423 0.24382016
0000f0 dc 56 8a 3e 78 8d 55 3e e2 87 bf bd dc df f0 3c
       0.27019393 0.20854747 -0.093520895 0.02940362
000100 32 33 09 be 23 05 40 3c 61 95 3a 3e 70 62 0b 3e
       -0.13398436 0.011719975 0.18221046 0.1361177
000110 26 e9 0d be 0d ca 6b 3c f4 50 13 3e b6 18 3d 3e
       -0.1385847 0.014391434 0.1438635 0.18466458
000120 5e 4a 69 bd 04 6a 7e 3e 19 ff 24 3e 90 91 82 be
       -0.056955688 0.24845129 0.16112937 -0.2550168
000130 2c 04 f9 3d dc 40 34 be 42 d5 7f be 56 ef d8 3d
       0.12158999 -0.17602867 -0.24983695 0.10592525
000140 97 ef 29 be b7 0e 4b be aa 3b 62 be 86 09 d8 3d
       -0.16595303 -0.19829832 -0.22093073 0.105486915
000150 eb bb 10 be d9 84 3d 3e 74 30 11 be 6a 99 0e be
       -0.14134185 0.18507709 -0.1417864 -0.1392571
000160 c2 9d f8 bd 6c d2 04 3e 2e 9b 51 3e 83 bb 53 be
       -0.12139465 0.12970895 0.20469353 -0.20676999
000170 f2 1c 57 be aa 36 48 3e a3 87 bf bc 21 82 7f bd
       -0.21007136 0.19552103 -0.023380106 -0.06237996
000180 5f 26 2d 3e e3 d1 30 bc d3 bd a8 bd 67 b9 76 be
       0.16909169 -0.010792228 -0.08239331 -0.24094163
000190 62 ec 02 bc ed 77 2a be 11 60 37 3e f1 a6 ff bd
       -0.007990928 -0.1664731 0.1790774 -0.124830134
0001a0 c4 e9 6b bd 18 46 22 3e 3d c9 1c be 2b 2a c8 bd
       -0.057595983 0.15847051 -0.15311141 -0.09773668
0001b0 5f fd 1f 3e d9 e7 1a be 17 b3 21 3e 95 c8 32 bd
       0.15623997 -0.15127505 0.15790974 -0.04364832
0001c0 12 1c 4c be 02 be f4 bd a2 ea f3 3d a7 ab e8 bd
       -0.19932583 -0.119503036 0.11909987 -0.11360865
0001d0 b9 c0 a7 be 73 ee 2c 3e eb 6b 96 3d 8d b7 c2 bd
       -0.32764223 0.16887836 0.073448025 -0.09507666
0001e0 7d cc c8 3d 86 d5 14 bd 06 31 9a bc ad b6 67 3e
       0.09804628 -0.036336444 -0.018822204 0.22628279
0001f0 4b 93 df bd c4 37 4d 3e db 4c 84 3e 18 f8 8d bd
       -0.10916766 0.20040804 0.25839886 -0.06932086
000200 a1 22 2c 3e c0 56 4b 3e 64 e6 60 bc 04 78 41 3d
       0.16810085 0.19857311 -0.013726804 0.047233596
000210 4f ec 80 3d f0 bc 3c 3a 8a 7c 74 be f7 90 36 3e
       0.06295072 0.0007199785 -0.23875633 0.17828737
000220 b2 ca 80 3e 0f fb 16 be 53 69 56 3c 74 d3 7d 3d
       0.25154644 -0.14744209 0.013086635 0.061969236
000230 1f 06 24 3e 0d 80 67 be 77 6a 36 3b a4 d3 7b 3d
       0.1601796 -0.22607441 0.0027834454 0.061481133
000240 2e a9 41 3e d7 8b d2 bc a9 70 8b be d4 cc 37 3e
       0.18912193 -0.025701446 -0.2723439 0.1794923
000250 31 46 ae 3d 8c 92 9a be ff 49 cb be 2f cd 36 3e
       0.08509482 -0.3018993 -0.39704892 0.17851709
000260 31 bf eb bd cf 2e 6c bc 86 f8 7c be c7 07 70 be
       -0.11511076 -0.014415457 -0.24704179 -0.23440467
000270 34 f3 45 3e 64 d9 74 bc 49 46 0c bc 94 45 24 be
       0.19331056 -0.014944408 -0.008561679 -0.16042167
000280 94 3d 4e 3e 30 a6 43 bd 32 4f 5e be ab 04 46 3e
       0.20140678 -0.04776591 -0.21709898 0.19337718
000290 7c fc 22 be 2f 71 d2 3c f2 b1 78 3c 4d 61 50 be
       -0.15916628 0.025688736 0.015179144 -0.20349617
0002a0 62 9e 29 be 28 c7 9d bd 81 a3 45 be 34 c4 46 3e
       -0.16564324 -0.07704002 -0.19300653 0.19410783
0002b0 7d 63 ce be 42 ba c7 3b 02 45 a6 bc dc 68 c1 3d
       -0.4031028 0.0060952017 -0.020296577 0.094438285
0002c0 5d e6 7a be fa 3a 48 3e e0 be 77 3e 95 9d 30 bd
       -0.24501939 0.19553748 0.24193907 -0.043119032
0002d0 e8 6d 9c be 91 cc b3 3c 8d af 08 3e e0 14 62 3e
       -0.30552602 0.02194813 0.13348217 0.22078276
0002e0 3c 92 53 3c fc 25 82 3d bd 08 a1 be 70 e0 3d 3e
       0.012913283 0.06354901 -0.3145198 0.18542647
0002f0 6d 3b 03 3e b6 fb 15 bd 28 37 72 3b de 3d 3b be
       0.12815638 -0.036617003 0.0036959145 -0.18285319
000300 6e 66 e7 bd 09 17 ae be 77 1a 47 3e 1a 0a 26 3e
       -0.11298834 -0.3400195 0.1944369 0.16214791
000310 65 56 9c 3c c8 a1 ff 3d cc 26 b2 be 53 51 34 be
       0.019084165 0.12482029 -0.34795225 -0.17609148
000320 9c 94 04 bd 63 d0 b0 bd 99 5b 21 3e 2a d2 49 3e
       -0.032368287 -0.086334966 0.15757598 0.19709077
000330 6e dd b0 be 81 a8 26 be 7f 2a a1 be 91 c0 8a bd
       -0.34543937 -0.16275217 -0.31477734 -0.067750104
000340 ff 8f 48 3e 22 73 7d be 8f 1b 22 3e ef 45 16 3e
       0.1958618 -0.24750951 0.15830825 0.14675115
000350 8a 6b d4 3d fe 0d 10 be 48 12 9c 3d b7 f8 8a 3e
       0.10372074 -0.14067838 0.07620674 0.2714288
000360 83 48 a6 bd 50 0a 44 3e bc cd 83 3d 52 52 0d bd
       -0.08119299 0.19144559 0.06435725 -0.034502335
000370 e7 14 08 be 2d 1e d5 bd b0 be ac be f6 21 db 3d
       -0.13289224 -0.10406146 -0.33739233 0.10699837
000380 6e b7 1f be 16 60 56 3e a4 af b2 be 93 5b 86 be
       -0.15597317 0.20935091 -0.34899628 -0.2624174
000390 c6 f1 0f 3e fc 82 b0 3d f7 1d 00 3c 67 08 ef 3d
       0.14057073 0.08618733 0.007819644 0.116715245
0003a0 bc eb 85 3e e2 e0 e8 bd 4f 25 58 3e 72 94 42 3d
       0.26156414 -0.11371018 0.21107982 0.04750485
0003b0 fd 32 4a be 5a 49 6c 3e 48 fc 44 3d ef 34 14 3e
       -0.19746013 0.23074856 0.048092157 0.14473318
0003c0 45 16 cb bd dd 4e 85 be f8 d2 c5 be 0c 53 55 be
       -0.09916357 -0.2603673 -0.3863752 -0.20832461
0003d0 a8 3f 9b 3d 71 e1 7b 3c c1 0f 0e 3e 4a 0c 2e be
       0.07580501 0.015373574 0.13873197 -0.16996875
0003e0 32 e2 1a be 65 2b 60 bc 8b 18 7b bc 9a dd 36 3d
       -0.15125349 -0.013682221 -0.015325676 0.04464493
0003f0 94 0d 94 3e 14 97 5b 3e 92 89 31 3e 01 3a fc bd
       0.2891661 0.2144435 0.17337635 -0.12315751

fc2.bias f4 [10]
000000 af ae 0f bd a7 5e d8 3d 14 9c 31 3d d4 b5 bc bd
       -0.0350787 0.105649285 0.04336174 -0.092143685
000010 ee ab a6 bd ab 72 de 3d c1 3d f4 bd a1 44 25 be
       -0.08138262 0.10861715 -0.11925841 -0.16139461
000020 04 d8 8c 3d 2b b2 ae 3d
       0.06877139 0.085300766
