models/mnist_model_20241118_120339.pth (torch, 59224 bytes, 16 tensors)

conv1.weight f4 [4, 1, 3, 3]
0	0xbdd9c148	-0.106325686
1	0xbe362dec	-0.17790955
2	0xbe8bc640	-0.2729969
3	0xbe10fe63	-0.14159541
4	0x3d60d699	0.054892156
5	0xbdd28fb2	-0.10281314
6	0x3e91a670	0.28447294
7	0xbc8bb82d	-0.017055595
8	0xbc5e8394	-0.013581175
9	0xbcb29e56	-0.021804016
10	0x3e720fb1	0.23638798
11	0x3e33bfc0	0.17553616
12	0xbe27db9c	-0.16392368
13	0x3d09b874	0.033623174
14	0xbe599e5a	-0.21251813
15	0xbe4717ac	-0.19442624
16	0xbec05b8e	-0.3756985
17	0xbc83c7d2	-0.016086493
18	0xbe79b4a0	-0.24385309
19	0xbe2f6d2a	-0.17131487
20	0xbd6fdcf4	-0.058560327
21	0xbce2e298	-0.027695939
22	0xbe65ab01	-0.22428514
23	0x3e17257c	0.14760393
24	0xbebfa615	-0.37431398
25	0x3ddc746a	0.10764392
26	0xbe27aed9	-0.16375293
27	0xbe39de6b	-0.18151252
28	0xbdf853b5	-0.12125341
29	0x3e961e58	0.29320025
30	0xbe00d128	-0.12579787
31	0xbe94f814	-0.2909552
32	0xbe2acda6	-0.16680011
33	0x3e1dff43	0.15429406
34	0xbd9bd37c	-0.07608697
35	0xbe36982e	-0.1783149

conv1.bias f4 [4]
0	0xbdfb645c	-0.122750014
1	0x3dc19b0f	0.09453403
2	0xbea12e5f	-0.3148069
3	0xbe597ec6	-0.21239766

bn1.weight f4 [4]
0	0x3f80171f	1.0007056
1	0x3f7a3f09	0.97752434
2	0x3f812e31	1.0092221
3	0x3f8352b0	1.0259609

bn1.bias f4 [4]
0	0xbde36d9d	-0.111048914
1	0xbca9ef6f	-0.020744054
2	0x3d8d711e	0.06906341
3	0xbd392377	-0.045199838

bn1.running_mean f4 [4]
0	0xbe037370	-0.12837005
1	0x3db9058a	0.090342596
2	0xbea62b88	-0.32455087
3	0xbe568fc6	-0.20953283

bn1.running_var f4 [4]
0	0x3e8cd546	0.27506465
1	0x3ec54f47	0.38537046
2	0x3f32bad9	0.69816357
3	0x3ec3622e	0.38160843

conv2.weight f4 [8, 4, 3, 3]
0	0x3d0e8210	0.034792006
1	0x3e26c8e3	0.1628757
2	0xbcae6a36	-0.02129088
3	0x3e0b498c	0.13602275
4	0x3e28314c	0.16425055
5	0x3ce63b97	0.028104587
6	0xbd9999ac	-0.07500014
7	0xbdf807a9	-0.12110836
8	0x3e01240d	0.12611409
9	0xbdfaff47	-0.122557215
10	0xbc776c56	-0.015101513
11	0x3dbd3fd2	0.092406884
12	0xbca8d890	-0.020611078
13	0xbd60e944	-0.05490996
14	0xbd76a0e4	-0.06021203
15	0xbdccb839	-0.09996075
16	0x3d035635	0.032064635
17	0x3e1ac71e	0.1511502
18	0xbe2528a8	-0.1612879
19	0x3d6f6004	0.058441177
20	0x3e20cad6	0.15702376
21	0x3d7ae101	0.061249737
22	0xbe2a6404	-0.16639715
23	0xbe5cd2d7	-0.21564804
24	0x3bbbe43f	0.005733996
25	0xbe12de67	-0.14342652
26	0xbd7dd41f	-0.061969873
27	0x3cbafec9	0.02282657
28	0xbcc57237	-0.024102313
29	0x3c86d55a	0.016459156
30	0xbc2d8010	-0.0105896145
31	0x3d0eb7e0	0.034843326
32	0xbe26450e	-0.1623728
33	0xbde4b361	-0.11167026
34	0xbdbbc1c3	-0.091678165
35	0x3d1c7453	0.038196873
36	0x3e202411	0.15638758
37	0xbc951d7c	-0.018202536
38	0xbd134038	-0.035949916
39	0x3e13f1c3	0.14447694
40	0x3dbcfab9	0.09227509
41	0x3d7e4bed	0.062084127
42	0xbca7bed4	-0.020476736
43	0x3db65090	0.08902085
44	0x3e0424d2	0.12904671
45	0x3cd3f7f4	0.02587507
46	0xbd9cb0d5	-0.076509155
47	0x3c977003	0.018486029
48	0x3d4d2552	0.05008442
49	0xbdb25eea	-0.0870951
50	0x3d6f9ae4	0.058497325
51	0x3cccee8f	0.025016097
52	0xbce2a369	-0.02766581
53	0xbded3f79	-0.11584372
54	0x3d664609	0.056219134
55	0x3e04cd77	0.12969004
56	0xbd857fcb	-0.06518515
57	0x3cb8aafa	0.022542465
58	0x3da096b8	0.07841247
59	0xbc32ab8c	-0.010905158
60	0xbd2df2b6	-0.042467795
61	0x3cc0e856	0.023548286
62	0xbc00ff4a	-0.007873366
63	0x3e1ef78c	0.15524119
64	0x3e1a7a67	0.15085755
65	0xbd2ead1c	-0.04264556
66	0x3de38d2c	0.11110911
67	0x3deed710	0.11662114
68	0x3e71f472	0.23628405
69	0xbd8ff4c6	-0.07029109
70	0x3e0ed674	0.13948995
71	0x3e3b6007	0.1829835
72	0x3c773802	0.015089037
73	0xbde9ada9	-0.11410076
74	0xbd91721f	-0.07101845
75	0xbca42777	-0.02003835
76	0xbd53149a	-0.05153332
77	0xbdb2fd39	-0.08739705
78	0x3d7238c9	0.059136186
79	0xbe44b9b8	-0.19211471
80	0x3e0eb055	0.13934453
81	0x3cf09876	0.029369574
82	0x3b840496	0.004028867
83	0xbbeb63db	-0.0071835346
84	0xbcdea2b7	-0.027177198
85	0xbd7f7703	-0.062369358
86	0x3d0f6534	0.035008624
87	0x3bc21ab9	0.0059235957
88	0x3d8992a2	0.06717421
89	0x3dcc200b	0.09967049
90	0x3e26ce9d	0.16289754
91	0x3d57a9be	0.052652113
92	0x3ceb1391	0.028695853
93	0x3cad6c41	0.021169784
94	0xbe609925	-0.2193342
95	0xbdd810e1	-0.105500944
96	0xbd73eb22	-0.059550412
97	0xbe498e2b	-0.19683139
98	0x3e25b963	0.16184
99	0xbc7c04db	-0.015382017
100	0xbdeb4af0	-0.114889026
101	0xbe01e909	-0.12686552
102	0xbdc10460	-0.094246626
103	0xbe5661e5	-0.20935781
104	0xbd8056f2	-0.062665835
105	0xbda9bb46	-0.08287673
106	0x3c1a43b3	0.009415555
107	0xbcb6728d	-0.022271419
108	0x3de778ab	0.113023125
109	0x3d06fc0e	0.03295522
110	0x3e0886fb	0.13332741
111	0xbdd82fcb	-0.10555991
112	0xbd85e612	-0.06538023
113	0xbdb687f4	-0.0891265
114	0xb9b0de0c	-0.00033734774
115	0x3c60270f	0.013681187
116	0x3d50d044	0.050979868
117	0xbcdbe330	-0.02684173
118	0xbd995ed6	-0.07488792
119	0x3d2cee87	0.042219665
120	0x3e4696bd	0.1939344
121	0x3e2b0eea	0.16704908
122	0x3d83f666	0.06443481
123	0x3d3a6f73	0.045516443
124	0x3e088483	0.13331799
125	0x3ddbd2be	0.10733555
126	0xbd485573	-0.048909616
127	0xbbddca72	-0.006768518
128	0xbdce62f9	-0.10077471
129	0x3de55006	0.11196904
130	0xbd13c633	-0.03607769
131	0xbc31fbd6	-0.010863265
132	0xbd523dc2	-0.051328428
133	0x3c0ef684	0.008725766
134	0xbdff98b0	-0.12480295
135	0xbdb4d8bb	-0.088304006
136	0xbcd3e0cf	-0.025864033
137	0xbc9addda	-0.018904615
138	0x3df4b374	0.119482905
139	0x3dc75e38	0.09734768
140	0x3d2e3fce	0.042541318
141	0xbd612030	-0.054962337
142	0x3e20ca40	0.15702152
143	0x3e3d015a	0.18457547
144	0xbda0373e	-0.078230366
145	0xbcf305d4	-0.029665865
146	0xbd24f3fe	-0.04027175
147	0xbde974fd	-0.11399267
148	0x3da9c86c	0.082901806
149	0x3ddab04d	0.10678158
150	0x3e631388	0.2217542
151	0x3de99ef6	0.114072725
152	0x3de2520d	0.11050806
153	0x3d39ec8c	0.045391604
154	0x3e0b1557	0.13582359
155	0x3cbd6fef	0.023124663
156	0x3cd101c9	0.025513547
157	0x3dfde3dd	0.12396977
158	0x3e038272	0.1284273
159	0xbc315fe4	-0.010826085
160	0x3e085959	0.13315333
161	0xbd80ce71	-0.062893756
162	0x3dbedd49	0.093195505
163	0x3df3f2e3	0.11911561
164	0x3d45b3a7	0.048267033
165	0x3c496d6e	0.0122941565
166	0x3da7a5d3	0.08185925
167	0xbdc4e0f5	-0.0961322
168	0x3d270598	0.04077682
169	0xbdda7b85	-0.10668091
170	0xbd4aa6d3	-0.049475502
171	0xbd50a398	-0.050937265
172	0xbdebb341	-0.11508799
173	0xbccb0b3e	-0.024785634
174	0xba56950e	-0.0008185663
175	0x3d9b3ede	0.0758035
176	0x3a2e9f9e	0.0006661358
177	0xbe14cccb	-0.14531247
178	0xbda90a37	-0.082539015
179	0xbd43acf8	-0.047772378
180	0x3d052e6a	0.032514967
181	0x3d47c15f	0.048768397
182	0x3d80da74	0.062916666
183	0xbb765b06	-0.0037590875
184	0x3dce88f5	0.10084716
185	0x3e1272f6	0.14301667
186	0xbd8da839	-0.069168516
187	0x3c845bcd	0.016157055
188	0x3d1ba9b0	0.038003623
189	0xbd445bd5	-0.04793914
190	0xbd79574f	-0.06087428
191	0xbd94e82a	-0.07270844
192	0x3d884479	0.06653685
193	0xbdc029ea	-0.093829945
194	0x3d38d473	0.045124482
195	0x3e16e29b	0.1473488
196	0x3dc31e38	0.09527248
197	0xbdbba3da	-0.091621116
198	0xbe3d051b	-0.18458979
199	0xbd991b8f	-0.074759595
200	0xbd5bc342	-0.05365301
201	0xbe1ce1a3	-0.15320449
202	0xbde1fbd4	-0.110343605
203	0xbe37102f	-0.17877267
204	0xbd0082b1	-0.031374637
205	0xbdb96f3e	-0.09054421
206	0xbe712a9f	-0.23551415
207	0xbc187d25	-0.0093071805
208	0x3db3a4d5	0.087716736
209	0x3d9fa7ed	0.07795701
210	0x3dc02bb0	0.09383333
211	0x3dc106a9	0.094250984
212	0x3dada9d0	0.08479655
213	0x3e41c46a	0.18922582
214	0x3d0ae060	0.033905387
215	0x3bd77595	0.006575296
216	0x3de838cb	0.113389574
217	0x3e45c260	0.1931243
218	0xbdf48f54	-0.119414
219	0x3e076d7d	0.1322536
220	0xbd04e705	-0.03244688
221	0xbe1a63bb	-0.15077107
222	0xbd6bf52d	-0.057606865
223	0xbe0b7067	-0.13617097
224	0xbda1c8a3	-0.078995965
225	0x3dcea203	0.10089495
226	0x3d132f63	0.035933863
227	0x3de8e177	0.11371129
228	0x3deb85dd	0.11500142
229	0x3d8a6a4d	0.067585565
230	0x3e255222	0.16144612
231	0x3d9e8bc4	0.07741502
232	0x3da1037f	0.07861995
233	0xbabac40f	-0.0014249104
234	0xbd2841f6	-0.04107853
235	0x3d772822	0.060341008
236	0xbdeb9591	-0.11503137
237	0x3cb2e9f6	0.021840077
238	0xbd76885c	-0.060188636
239	0x3d541f99	0.051787946
240	0xbdba4521	-0.090952165
241	0x3dcb1dab	0.09917768
242	0x3de29c46	0.11064963
243	0x3d1f7fc6	0.038940214
244	0xbd5ff0ec	-0.05467312
245	0xbd105379	-0.035235856
246	0xbb27092a	-0.002548764
247	0xbd32b00f	-0.043624934
248	0x3e15841c	0.14601177
249	0xbdb0efa9	-0.086394615
250	0xbbc9c889	-0.006157939
251	0xbde04c4d	-0.10952053
252	0xbe276208	-0.1634599
253	0xbd53f385	-0.05174591
254	0xbd6804e4	-0.05664529
255	0xbbb1f1cb	-0.0054304353

conv2.bias f4 [8]
0	0xbd80aefd	-0.06283376
1	0x3c09ca47	0.008410043
2	0xbbf865bf	-0.0075804885
3	0xbdfc8382	-0.123297706
4	0x3dbd0f28	0.092314065
5	0xbdb02471	-0.08600701
6	0x3dd33c40	0.10314226
7	0xbcc0c05e	-0.023529228

bn2.weight f4 [8]
0	0x3fa571c5	1.2925345
1	0x3fa808bd	1.3127667
2	0x3fae4b05	1.3616644
3	0x3faab9c8	1.3337946
4	0x3fa9928b	1.3247846
5	0x3fa3dbe8	1.2801485
6	0x3f9ebde0	1.2401695
7	0x3fa41aca	1.2820675

bn2.bias f4 [8]
0	0x3e2ea542	0.17055228
1	0x3d9ac775	0.07557575
2	0x3e35cb72	0.1775339
3	0x3e218cc8	0.1577636
4	0x3e45ff6c	0.19335717
5	0x3dbb31a6	0.09140329
6	0x3e2068e6	0.15665016
7	0x3e3df7ed	0.18551607

bn2.running_mean f4 [8]
0	0xbe8a8360	-0.27053356
1	0x3f1a6d24	0.60322785
2	0xbed25636	-0.410814
3	0x3e440692	0.19143131
4	0x3eb56eda	0.35436136
5	0xbe500bc3	-0.20316987
6	0x3e9ed5df	0.31022546
7	0xbec1636f	-0.37771174

bn2.running_var f4 [8]
0	0x3d60847b	0.054813843
1	0x3d82cf7c	0.06387231
2	0x3d0d8d65	0.034558672
3	0x3d9ae4bb	0.07563158
4	0x3d0ac04b	0.03387479
5	0x3d6d4a62	0.057932265
6	0x3d20a8bb	0.039223414
7	0x3d62f1eb	0.055406492

fc1.weight f4 [32, 392]
0	0x3dde2c8b	0.1084834
1	0xbd824ca0	-0.06362271
2	0x3d1fb01c	0.03898631
3	0x3da70c6c	0.08156666
4	0x3d31aabc	0.043375716
5	0x3ca2518e	0.019814279
6	0x3d8488f2	0.06471433
7	0x3d8fd049	0.07022149
8	0xbd60e53c	-0.054906115
9	0x3c8f2f53	0.01747862
10	0xbc6fef2f	-0.014644428
11	0x3c41b3ac	0.011822622
12	0x3c125ee3	0.008933756
13	0x3cf3792b	0.029720863
14	0x3b03a93c	0.0020089885
15	0x3cb40fcd	0.02198019
16	0x3d2e4b9f	0.042552587
17	0x3d450b6b	0.048106592
18	0x3d6431ab	0.05571143
19	0xbd94be02	-0.072628036
20	0xbd32e721	-0.043677453
21	0x3d163eee	0.03668111
22	0x3dee338c	0.116309255
23	0xbe126e70	-0.14299941
24	0xbe70ad24	-0.23503548
25	0xbd8638a0	-0.06553769
26	0x3ad0d0fb	0.0015931422
27	0x3ca129da	0.019673277
28	0x3db14713	0.086561345
29	0x3c988a6a	0.018620688
30	0xbd9e4000	-0.07727051
31	0xbbe32c66	-0.006932783
32	0xbe0a4250	-0.13501859
33	0xbd1f1c74	-0.038845494
34	0xbdb58c47	-0.088646464
35	0x3d87134e	0.06595479
36	0x3d1c8006	0.03820803
37	0xbd74eb5e	-0.059794776
38	0xbe1b4d4a	-0.15166202
39	0xbd4cc6b3	-0.04999418
40	0xbdf36c2b	-0.11885866
41	0xbdc8eb49	-0.09810502
42	0x3d3f8f54	0.046767548
43	0x3d0d0c4c	0.034435555
44	0x3dc88553	0.097910546
45	0x3daeda75	0.08537761
46	0x3dadd8c2	0.08488609
47	0x3da77601	0.08176804
48	0x3dad44b1	0.084603675
49	0x3d6ad02c	0.057327434
50	0x3d344e37	0.044019904
51	0xbcda8e71	-0.02667925
52	0xbc973568	-0.018458083
53	0x3a78cc56	0.00094908976
54	0xbd894dd0	-0.06704295
55	0x3cf90861	0.030399503
56	0x3c696335	0.014244844
57	0x3d294f92	0.04133565
58	0x3d9edbe0	0.077567816
59	0x3d0e6ffc	0.034774765
60	0xbd224b23	-0.039622437
61	0x3aefb59c	0.0018288377
62	0x3cd8d473	0.026468491
63	0x3c4aacc0	0.012370288
64	0x3d8b2572	0.067942515
65	0x3db0ccc7	0.08632808
66	0xbc87fbd6	-0.016599577
67	0x3d366c80	0.044537067
68	0xbcba1f10	-0.02271989
69	0xbc66ce5c	-0.014087286
70	0x3c8bbde7	0.017058326
71	0xbcc50af5	-0.024053076
72	0xbdb227d8	-0.08699006
73	0x3d30aa16	0.043130957
74	0x3c0e5999	0.008688354
75	0xbcc8a7ec	-0.024494134
76	0x3daefdd2	0.08544506
77	0x3d3a55ae	0.045491867
78	0x3c535d6e	0.012900693
79	0xbd65b4da	-0.056080677
80	0xbdb0b1bf	-0.086276524
81	0xbcbbd219	-0.02292733
82	0xbdd36ebd	-0.10323856
83	0x3b9f9042	0.004869492
84	0x3d4441e3	0.047914397
85	0xbddb1470	-0.106972575
86	0xbd773f94	-0.060363367
87	0xbb01a89e	-0.0019784342
88	0xbc545dae	-0.012961788
89	0xbd72d97f	-0.05928945
90	0xbd70c222	-0.05877889
91	0x3da24015	0.07922379
92	0xbccaa2bd	-0.024735803
93	0xbd853e20	-0.0650599
94	0x3dd6976f	0.104781024
95	0x3dc146db	0.09437343
96	0x3dac9af8	0.084279954
97	0x3ddc698d	0.1076232
98	0x3dc58909	0.09645278
99	0xbbd2dcd3	-0.0064350157
100	0x3d973edc	0.07385036
101	0x3cc4281a	0.023944903
102	0x3d9e7440	0.07737017
103	0x3a21bca4	0.0006169772
104	0x3d0e88d6	0.034798466
105	0xbca7f4a9	-0.020502405
106	0xbdca1801	-0.0986786
107	0xbe0a2266	-0.13489684
108	0xbddfbe20	-0.10924935
109	0xbd959f73	-0.07305803
110	0x3c5d75f6	0.013516894
111	0x3cf9c384	0.030488737
112	0xbd8db087	-0.069184355
113	0xbd1ecab8	-0.038767546
114	0xbd21e942	-0.039529093
115	0x3d8a39fa	0.067493394
116	0xbcd88366	-0.026429843
117	0xbd365fa4	-0.044524804
118	0xbc1b9f2c	-0.009498399
119	0xbc9661c0	-0.018357158
120	0x3dd748e3	0.10511949
121	0xbdd8e0b7	-0.10589736
122	0xbdc04271	-0.09387673
123	0x3d81a0e4	0.063295156
124	0xbd894593	-0.06702723
125	0xbd216ade	-0.039408557
126	0x3a8db6d3	0.0010811932
127	0xbd99aebb	-0.0750403
128	0xbdcb4d97	-0.099269085
129	0x3d09f937	0.033684935
130	0xbd671637	-0.05641767
131	0xbc3c4fc8	-0.011493631
132	0xbd0531de	-0.03251826
133	0x3c823536	0.015894514
134	0xbcd5f722	-0.026118819
135	0xbac97fbb	-0.001537315
136	0xbc1fb8be	-0.009748636
137	0xbdb9cd03	-0.09072306
138	0xbd0c4bb6	-0.03425189
139	0xbc3a9306	-0.011387592
140	0x3d4278e8	0.047478586
141	0x3d49254e	0.049107842
142	0x3c932b27	0.017964913
143	0xbb773860	-0.003772281
144	0x3c328d71	0.01089798
145	0xbd9ae6dc	-0.07563564
146	0x3d7d26b5	0.061804492
147	0x3d020dd7	0.03175148
148	0x3da6c012	0.08142103
149	0x3dcbbb67	0.099478535
150	0x3da6131f	0.08109116
151	0x3d0a6eb8	0.033796996
152	0x3d51e671	0.051245157
153	0x3d394b2f	0.045237716
154	0xbc50e26e	-0.012749298
155	0xbc1e5825	-0.00966457
156	0x3b585fc6	0.003301607
157	0xbdd66bc4	-0.104697734
158	0xbd5c00bf	-0.05371165
159	0xbb711778	-0.003678767
160	0x3d55eed5	0.05222972
161	0x3d5ed315	0.054400522
162	0x3c865f93	0.016402995
163	0x3d3a53b0	0.045489967
164	0x3e081d03	0.13292317
165	0x3da81350	0.082068086
166	0x3cb5bf66	0.022185992
167	0xbcb0e308	-0.021592632
168	0x3d01904f	0.031631764
169	0x3ce100da	0.027466226
170	0xbde9175a	-0.11381407
171	0xbe02edaf	-0.12785982
172	0x3d14c57f	0.03632116
173	0xbd7baa56	-0.061441742
174	0xbcaf6728	-0.021411493
175	0xbb8d78d2	-0.0043173814
176	0x3cf48029	0.029846268
177	0xbccb13ed	-0.024789775
178	0xbdbf2b49	-0.09334428
179	0x3d19dfe8	0.03756705
180	0x3ceedc61	0.02915782
181	0x3b8c9082	0.0042896876
182	0x3d02ca6f	0.031931337
183	0xbd185ca2	-0.037197717
184	0xbd5fef44	-0.05467154
185	0xbc8da398	-0.017289922
186	0xbd12f518	-0.03587827
187	0xbd2464cc	-0.04013519
188	0x3ca86157	0.020554228
189	0x3cfdb8b9	0.030971872
190	0x3d293865	0.041313548
191	0x3c868310	0.016419917
192	0xbc8b8a9e	-0.017033871
193	0x3c4692d7	0.01211997
194	0xbdb62f6f	-0.08895766
195	0x3d60051b	0.05469237
196	0x3d6ca6bc	0.057776198
197	0xbd3fa11c	-0.046784505
198	0xbd8f7570	-0.07004821
199	0xbdb6bdbc	-0.08922908
200	0xbd8ad694	-0.06779209
201	0xbdd4385e	-0.10362314
202	0x3bd5f70a	0.0065296935
203	0x3cb23dd2	0.021757994
204	0x3d6816e9	0.056662474
205	0xbc89c471	-0.016817303
206	0xbcb53cf3	-0.02212379
207	0x3d9986cb	0.07496413
208	0x3cdeb929	0.0271879
209	0xbcc8e2bf	-0.024522183
210	0x3c62dea8	0.013847031
211	0x3daa97e9	0.08329756
212	0x3cbf480e	0.023349788
213	0xbd46fd54	-0.048581436
214	0xbdc985db	-0.09839984
215	0xbd70861d	-0.05872165
216	0x3d9916b1	0.07475031
217	0x3d79675c	0.060889587
218	0x3d8d201c	0.0689089
219	0xbdc256bb	-0.09489199
220	0xbceb84b3	-0.0287498
221	0xbd6d0515	-0.057866175
222	0x3c5f79ec	0.013639908
223	0xbcc52a5b	-0.024068048
224	0x3d0b9bcf	0.034084138
225	0x3da9346a	0.0826195
226	0xbd7d1eac	-0.06179683
227	0xbe2d4aa2	-0.16923001
228	0xbdde5fee	-0.10858141
229	0xbd8a5f06	-0.067564055
230	0x3ac15778	0.0014750799
231	0x3cce3a92	0.025174413
232	0xbd36b0f6	-0.044602357
233	0xbe55db3f	-0.20884417
234	0xbd8aeaea	-0.067830876
235	0xbde20eb6	-0.11037962
236	0xbd10f7b4	-0.035392478
237	0xbd13403e	-0.035949938
238	0x3e037586	0.128378
239	0x3d52e385	0.05148651
240	0xbb3a2bb9	-0.0028407408
241	0x3ca8bbf7	0.020597441
242	0xbc2dee9d	-0.010615972
243	0x3c0a5721	0.008443625
244	0x3d875280	0.066075325
245	0xbd194e1f	-0.037428018
246	0xbd4ab08d	-0.04948478
247	0xbb62e215	-0.0034619619
248	0x3d1a5713	0.037680697
249	0x3dc7a987	0.09749132
250	0x3d09a8f0	0.033608377
251	0xbd4d983d	-0.050194014
252	0x3d82ce48	0.06387001
253	0x3d74605a	0.0596622
254	0x3c4dc923	0.012560162
255	0xbc258b86	-0.010104066

fc1.bias f4 [32]
0	0x3d50d304	0.05098249
1	0x3db3c25e	0.08777307
2	0xbac7fee2	-0.0015258456
3	0xbd8645b0	-0.065562606
4	0x3deb3d0d	0.11486254
5	0x3d2e816a	0.042603888
6	0xbc3c9861	-0.011510939
7	0x3d8e6552	0.06952919
8	0xbc77fe3a	-0.015136296
9	0x3cc36837	0.023853404
10	0x3c5ce95f	0.013483374
11	0xbcddfbf5	-0.027097682
12	0xbcf30ed4	-0.029670157
13	0xbc505eaa	-0.012717882
14	0x3d8631d7	0.06552475
15	0xbb93764e	-0.004500187
16	0xbd1a0222	-0.03759969
17	0xbaef74c5	-0.0018269053
18	0x3cbc5b1c	0.022992663
19	0x3b56e108	0.0032787938
20	0xbd633a16	-0.055475317
21	0x39a70a8d	0.00031860583
22	0xbc23ed6b	-0.010005335
23	0x3c86af11	0.0164409
24	0xbcb0c5ca	-0.021578688
25	0x3cc7d6e0	0.024394453
26	0x3d343f2c	0.044005558
27	0x3d5f893f	0.054574247
28	0xbbfc7184	-0.007703962
29	0x3c0fb205	0.0087704705
30	0xbc8daa01	-0.017292978
31	0x3b29ed6d	0.002592887

fc2.weight f4 [10, 32]
0	0xbe54c90e	-0.20779821
1	0xbe67ea2e	-0.22647926
2	0x3da26821	0.07930017
3	0xbeb7db5b	-0.35909542
4	0xbda97273	-0.082737826
5	0xbd0d3c70	-0.034481466
6	0xbe49abb2	-0.19694403
7	0x3e1d183e	0.15341279
8	0xbd8ca6be	-0.06867741
9	0x3e87be57	0.26512405
10	0x3e74447e	0.23854253
11	0x3dc84074	0.097779185
12	0x3dc1a35b	0.09454986
13	0xbdcbdb83	-0.09953978
14	0xbdf0fac8	-0.11766583
15	0x3daa980f	0.08329784
16	0xbe4de198	-0.20105588
17	0xbb8475bf	-0.0040423567
18	0x3c415070	0.011798963
19	0x3e72b27a	0.23700896
20	0xbd330bb7	-0.043712344
21	0x3e40cf66	0.18829116
22	0x3e5f8447	0.21827804
23	0x3d438dbd	0.047742594
24	0xbe1b53cf	-0.15168689
25	0xbe8a37a1	-0.26995566
26	0xbe926fc6	-0.286009
27	0x3e6177f8	0.2201842
28	0xbca75ef5	-0.020431021
29	0xbd4c6ad4	-0.049906567
30	0xbe792434	-0.24330217
31	0xbe336ed8	-0.17522752
32	0x3e93425d	0.2876157
33	0x3e784e34	0.24248582
34	0x3dda1be8	0.10649854
35	0xbdc4e70b	-0.096143804
36	0x3e4d72c8	0.20063317
37	0xbe075087	-0.13214312
38	0xbec19b84	-0.37813962
39	0x3dd70375	0.10498706
40	0x3c0ca920	0.008585244
41	0x3cb9f09e	0.022697743
42	0xbd9c3e3c	-0.07629058
43	0x3def55ac	0.116862625
44	0xbce3da20	-0.027813971
45	0x3df5be03	0.119991325
46	0x3e77369e	0.24141929
47	0xbe4d4178	-0.20044506
48	0xbe9e41fa	-0.3090971
49	0x3dac7053	0.08419862
50	0xbeb2bdf0	-0.34910536
51	0xbe84f203	-0.2596589
52	0xbeb3e403	-0.35134897
53	0xbe5f1594	-0.21785575
54	0xbe160a20	-0.146523
55	0x3e29f5f8	0.16597736
56	0x3e13a1cc	0.1441719
57	0x3d849850	0.06474364
58	0x3e3a6c9f	0.18205498
59	0x3e624cc3	0.22099595
60	0x3dbb34e5	0.09140948
61	0xbe66932a	-0.22517076
62	0xbe529fa2	-0.20568708
63	0xbc36b592	-0.011151688
64	0xbe3c74e2	-0.18403962
65	0x3ceff8ec	0.0292935
66	0xbbeb42f3	-0.007179612
67	0x3e329367	0.17439042
68	0x3e3149a4	0.17313248
69	0xbea1d497	-0.31607506
70	0xbdea82c8	-0.11450726
71	0xbe0151fd	-0.12628932
72	0x3dbe01c7	0.09277683
73	0xbe3ad648	-0.18245804
74	0xbe1454c5	-0.14485462
75	0xbcf6d1f3	-0.030129408
76	0x3e2595e5	0.16170461
77	0x3d8a4587	0.067515425
78	0xbb1d333b	-0.0023986835
79	0x3e24e819	0.16104163
80	0x3dd2190a	0.10258682
81	0x3dfe27d6	0.12409942
82	0xbe45421f	-0.19263504
83	0x3e4aaf17	0.19793354
84	0xbe851dba	-0.25999242
85	0xbe78d767	-0.2430092
86	0x3e3e576a	0.18588033
87	0x3dd422b9	0.10358185
88	0xbdc9ea3a	-0.09859128
89	0x3e82d9b7	0.25556728
90	0x3e324fb6	0.1741322
91	0xbe2544ab	-0.16139476
92	0x3b927a6f	0.0044701616
93	0xbe9c3587	-0.30509588
94	0x3e00f9d5	0.12595303
95	0x3e221c60	0.15831137
96	0xbe5a7f1b	-0.2133755
97	0x3e1cb94b	0.15305059
98	0x3e1b8d96	0.1519073
99	0x3e2e4962	0.17020181
100	0xbe69cb01	-0.22831346
101	0x3e4755f0	0.19466376
102	0xbe4da62a	-0.20082918
103	0x3cccd933	0.025005912
104	0x3d25f0b5	0.04051276
105	0xbe7fa0bf	-0.24963664
106	0xbea725d2	-0.32646042
107	0xbd8609d9	-0.06544847
108	0xbcbefa82	-0.02331281
109	0x3e690508	0.22755826
110	0x3cf4894e	0.029850628
111	0x3e58cca8	0.2117182
112	0xbe0098f1	-0.12558343
113	0xbd4fe60d	-0.050756503
114	0x3e4a0dcf	0.1973183
115	0xbcf8abe2	-0.030355398
116	0x3e017431	0.1264198
117	0xbe9caec4	-0.30602086
118	0x3cfe0724	0.031009264
119	0xbe079a7c	-0.13242525
120	0xbe86f0c5	-0.26355568
121	0xbdc0f70c	-0.094221205
122	0x3df1f8b9	0.11815018
123	0x3dc50235	0.096195616
124	0x3d27edd2	0.040998287
125	0x3d81f114	0.0634481
126	0x3dbe6dbb	0.09298273
127	0xbdcc91c0	-0.09988737
128	0xbe2cf054	-0.16888553
129	0xbe858a7d	-0.2608222
130	0x3db6f2e7	0.08933049
131	0xbcc83011	-0.024436982
132	0x3e4bde5d	0.19909044
133	0x3e8a4305	0.27004257
134	0x3e1fb1b3	0.1559513
135	0x3d6636e3	0.056204688
136	0x3de6e8c2	0.11274864
137	0xbea5392a	-0.32270175
138	0xbe0efeb9	-0.13964356
139	0xbe21496e	-0.15750667
140	0xbdde32b4	-0.108495146
141	0xbdf062d9	-0.11737604
142	0x3da3b1b3	0.07992878
143	0xbea36673	-0.319141
144	0xbd7c8ce2	-0.061657794
145	0xbc811978	-0.015759215
146	0x3e336be6	0.17521629
147	0x3bc037c3	0.0058660223
148	0xbe96cf15	-0.29454866
149	0x3e021054	0.12701541
150	0xbea849e4	-0.32868874
151	0x3e02f939	0.12790383
152	0x3db09ea2	0.08624007
153	0xbdaa939e	-0.08328937
154	0x3e4236d0	0.18966222
155	0xbe4507f2	-0.19241312
156	0xbd25f994	-0.04052122
157	0xbded3fee	-0.11584459
158	0x3e634c0a	0.22196975
159	0x3d9e080c	0.077163786
160	0xbdaf7224	-0.085666925
161	0xbe785029	-0.24249329
162	0xbe0be766	-0.1366249
163	0x3e098f95	0.13433678
164	0xbe53eafe	-0.20695111
165	0xbe7ee4de	-0.24891993
166	0x3b50b891	0.0031848291
167	0x3e110ac5	0.14164265
168	0x3c3caf3d	0.011516389
169	0x3d9e11b1	0.07718218
170	0xbe9a0a88	-0.3008616
171	0xbe0f1869	-0.13974155
172	0xbd8fb379	-0.070166536
173	0x3e7528e1	0.23941375
174	0x3e2e9730	0.17049861
175	0x3e075285	0.13215072
176	0x3e232afa	0.15934363
177	0xbd863dcd	-0.06554756
178	0x3e35f9cd	0.17771073
179	0x3dbfc369	0.093634434
180	0x3d14df1b	0.036345582
181	0x3e3b9558	0.18318689
182	0xbeb931bf	-0.36170766
183	0xbebd4840	-0.36969185
184	0x3c3cf81b	0.011533762
185	0xbdc28568	-0.094981015
186	0x3dc4a453	0.09601655
187	0xbd01d341	-0.031695608
188	0xbd6db216	-0.058031164
189	0x3e1f6672	0.15566424
190	0xbe3343ab	-0.17506282
191	0xbde7fc3d	-0.113274075
192	0xbe502ea6	-0.20330295
193	0x3e0441f6	0.12915787
194	0xbded5915	-0.11589257
195	0x3bacadce	0.0052697426
196	0xbe479f30	-0.19494319
197	0xbe975bc6	-0.29562205
198	0x3e1a3d6a	0.1506249
199	0x3e4402fd	0.19141765
200	0x3ddbb7de	0.10728429
201	0x3e7a983f	0.2447214
202	0x3def4d4e	0.116846666
203	0x3dbabcb0	0.091180205
204	0xbdfbf6e5	-0.12302951
205	0xbe5cd934	-0.21567231
206	0x3e67fa7d	0.22654147
207	0xbe96bc55	-0.2944056
208	0xbe369891	-0.17831637
209	0xbdfcf02b	-0.12350496
210	0xbe4ec2d9	-0.20191516
211	0x3e0bfad4	0.13669902
212	0xbe38588f	-0.18002532
213	0x3e240e9b	0.16021197
214	0xbe8b7c8f	-0.27243468
215	0xbe6bd222	-0.23029378
216	0xbe66b85d	-0.22531267
217	0x3e6e1073	0.23248462
218	0xbdd04272	-0.101689234
219	0x3e291228	0.16510832
220	0xbdc83256	-0.09775226
221	0x3d2d4a42	0.042307146
222	0x3d4fa795	0.050696928
223	0x3daf1dab	0.085505806
224	0x3e98f03c	0.29870784
225	0x3e344431	0.17604138
226	0x3cdeda84	0.027203806
227	0x3dd2c8f8	0.10292238
228	0x3e31ead9	0.17374744
229	0x3e80abd7	0.25131103
230	0x3dcbccf0	0.09951198
231	0xbe931de2	-0.28733736
232	0x3e19379f	0.14962624
233	0x3d90c9cd	0.070697404
234	0x3e2793c1	0.16364957
235	0x3e11d0db	0.14239828
236	0xbd642172	-0.05569596
237	0xbe81108d	-0.2520794
238	0xbe8fb814	-0.28070128
239	0x3e3d5aa1	0.18491603
240	0x3e46ebbf	0.19425867
241	0xbaf7b015	-0.0018897081
242	0x3d30b821	0.04314435
243	0xbdf8dff1	-0.121520884
244	0xbe4a8195	-0.19775994
245	0x3de1bb13	0.1102201
246	0x3dc4ebc9	0.09615285
247	0xbd623c83	-0.05523349
248	0xbe64ae77	-0.22332178
249	0xbe9cf744	-0.306574
250	0xbe5d2c5f	-0.21598957
251	0xbea617f4	-0.3244015
252	0x3db9d2ef	0.090734355
253	0x3ca3a554	0.019976296
254	0xbd2db6a3	-0.042410504
255	0x3c4ea0c5	0.012611573

fc2.bias f4 [10]
0	0xbc6c54be	-0.014424501
1	0x3e6edcac	0.23326367
2	0x3af87b6f	0.0018957685
3	0xbce77e68	-0.028258517
4	0x3e2e95ea	0.17049375
5	0xbe44f828	-0.19235289
6	0x3d66e880	0.056374073
7	0x3e222852	0.15835693
8	0xbdb0d085	-0.08633522
9	0xbd428922	-0.04749406
