models/mnist_model_20241118_111636.pth (torch, 211952 bytes, 8 tensors)

conv1.weight f4 [8, 1, 3, 3]
00000000: 1601 453e d62e 703e 9612 3b3d d7a8 883e
00000010: ecec da3c 6fd0 963e 65d9 e7be 7d7a d4bc
00000020: 2a93 393d 3413 a73e 94b9 46be e3c2 dcbe
00000030: 065c f03d e5cd 8abd 1537 67be 0f5a 993e
00000040: 9019 f33e 01bf a5bd c32f e53d abc1 203e
00000050: 21dc 9a3e 8943 a63e 8e0e 7f3e 8e56 18be
00000060: ea0b 14bf 7a2b a3be 5502 8abd d156 293e
00000070: ca47 d0be b434 0a3e d576 ce3e dd80 63bd
00000080: 1b25 db3c d126 473e 0ce6 663e c0ec 7e3d
00000090: 9c0c 213f 7914 a4bd c451 cfbe 27a3 0f3e
000000a0: f850 bebe 8f96 aebe 4834 7a3d aa8e d1be
000000b0: d49d 503e fe5b d73e 4723 c53e a737 243e
000000c0: f937 8e3e ec4a d33e 8b60 893e c52c 34be
000000d0: d600 a03e 4406 9b3e a842 1e3e e52f f93e
000000e0: 17d0 de3e 8191 e6bb 1143 9d3b 2bc5 843d
000000f0: 2178 403c 7fc3 50be 2aba 36bd fdc6 bd3e
00000100: 811c 143e c327 283e 6006 9c3d 1b84 6d3e
00000110: d131 8f3e ab29 e03e 98fc fa3d 5072 913e
0.19238696 0.23455366 0.04567202 0.26691315 0.026724301 0.29455897 -0.45283046 -0.025937313
0.045306362 0.32631838 -0.1940673 -0.43117437 0.11736302 -0.067775525 -0.22579606 0.29951522
0.4748044 -0.08093072 0.111907504 0.15698878 0.3024607 0.324734 0.24907896 -0.14876768
-0.5783068 -0.31869107 -0.06738726 0.16537024 -0.4067977 0.13496667 0.40325037 -0.055542815
0.026751092 0.19448401 0.22548693 0.0622375 0.62909865 -0.08011717 -0.4049207 0.14027081
-0.3717115 -0.34099242 0.061085016 -0.40929157 0.20372707 0.42062372 0.38503477 0.16036855
0.2777708 0.41268098 0.2683147 -0.17595203 0.31250638 0.30278218 0.15455115 0.48669353
0.43518135 -0.0070363884 0.0047992547 0.06482919 0.011747391 -0.20387076 -0.044611134 0.3706588
0.14463998 0.16421418 0.076184034 0.23194925 0.27967694 0.4378179 0.1225521 0.28407526

conv1.bias f4 [8]
00000000: 2119 b0bb 03d5 ba3d b9f7 8d3d 7b82 87bb
00000010: cf35 2ebe cee7 d2bd 6b88 d03e 1515 d63d
-0.0053740893 0.0912266 0.06932015 -0.0041354275 -0.17012714 -0.102981195 0.4072908 0.1045324

conv2.weight f4 [16, 8, 3, 3]
00000000: 5ce7 19bd 99e0 a9bd da3b b1bd d15f 2b3d
00000010: a705 693d ccf8 1d3c f885 a5bb 1878 053e
00000020: a9d6 b23d 9e16 19bc d9dd 7bbe fd63 03be
00000030: 97dd 93bc 5138 bbbc 8684 8bbd 6740 f5bc
00000040: 42df 27be e006 1e3e 1cfc 96bd 5b00 8abe
00000050: 3cbc 81be e7c5 16be 07a0 72be e359 8cbd
00000060: 937a dbbd 2f48 1abe 1a97 8dbc 1c87 10be
00000070: dd83 80bd 6686 f13d cedf 0dbe 819e 62bd
00000080: c643 273b f451 a93d 54db d639 875a 9bbd
00000090: d8df 1d3c b040 7abd f6a2 10bd 0cd9 4b3d
000000a0: 284c 20bd ad24 263e 4053 85bd 5ec0 0d3e
000000b0: c6be 6b3e 7098 6fbd b7d8 2bbd eb16 113e
000000c0: be71 0fbe 1e5b dc3d 3ff3 f23d 6572 f83c
000000d0: 5a21 d03d 88b8 c13d 9545 3ebe 4d25 debd
000000e0: 4404 433d eee3 28bd e6ef cfbc 4e85 20bd
000000f0: f700 b1bd 695f 89bc 9e51 ad3c 5d76 52be
00000100: 5b75 3e3d b690 163e 4c07 0ebe b497 133e
00000110: 59fb 0f3e a68a 71bc 1c38 dc3d 4ae3 35bd
00000120: 852e a9bc 90a1 28bd 4f0e b33d b662 093e
00000130: c35b f53d 843f 89bd e38c 443c 6e89 e2bd
00000140: cc9f ccbd 58a8 a0bd 6b1b 96bd 7a31 a0bd
00000150: aef9 b4bd d556 b8bc 53e4 d4bc 3045 91bd
00000160: fc15 1abd 76da 3dbe 050c 9fbd e2c7 29be
00000170: d001 bd3c 2211 ee3c c8c0 073c 9cb6 043e
00000180: d7ed 33be 7ff8 d03d 0fd0 edbc d2f6 373e
00000190: dadc efbc 816a 193c 69aa e23d 37ca 40bd
000001a0: bc3f 9bbd 13e4 703d b0be 5fbe 4a00 48be
000001b0: f237 3bbe 0567 8abd d6e0 963c ecfa 023e
000001c0: 2f42 f63c 9b43 9cbd 16c9 3bbb f090 6cbd
000001d0: eed5 283d 002f fd3d 6ea4 eb3d 6a8d c13d
000001e0: ebf9 d73d bae0 9c3d 88cc 923d 2189 783d
000001f0: c1f2 a7bd 6ac7 50be 03ba 9f3d e065 a53d
00000200: e20c 85bd 3a28 e43c 4587 f83d 859d 363d
00000210: bd58 88bd a26e a33d 444f 35be 69b1 eabc
00000220: 11bc 743d 70d1 aa3d 4573 343e fc0e 27bd
00000230: 64af 57bd 8d2d ebbd 1557 b1bc 3e1a 5cbe
00000240: 84a2 15be 63e2 37be d28c 3dbe e90d f03d
00000250: 6351 6cbd b782 983d 6240 773d 4a18 85bc
00000260: 7f5a 6f3d 72c5 133e bbb7 f03d 4902 283d
00000270: efdc 4e3d 6e36 37bd 7396 37bb 9636 593b
00000280: 0362 c23d ddc0 e6bb 4408 5abe f608 f6bc
00000290: 0d47 81bd 53f2 c13d 9a27 babd 8b52 063c
000002a0: 24c2 dd3d bb8c 0e3e 486c 413e 7f7b 9bba
000002b0: 7c48 d7bb c46d 16be c473 023e 7aa1 dd3d
000002c0: e45a fa3d a5d4 1bbd 1778 d63d 248c 833d
000002d0: 621e debc 62b2 a4bc c2cf 17be 1c75 4cbd
000002e0: 94ca 00be 69b4 6fbc 3966 09be 2e2c 26be
000002f0: 59af c5bd 2995 f23c 3cd9 e9bd dc0e 0cbe
00000300: bc6e 093e 0266 d13d 2ef8 973d d49b d83d
00000310: 411d 97bd 2af9 ca3b b546 4f3d b303 91bd
00000320: 63a8 80bd a75a b0bd 33d3 8d3d a496 0dbe
00000330: d5f1 d2bc 3144 86bd e517 ef3d e235 d0bb
00000340: c4cc 1dbe d90d dbbd fc1d a33d 28a5 8fbd
00000350: 0ec7 33bd 7306 503d f63f 113d 87e2 223d
00000360: b96b 2cbd f15a 9bbd e9d8 cfbd 5ae7 c43c
00000370: fc9b 57bd 3281 173d b93e 843d 503e 293e
00000380: cded 243e 8413 adbd 1236 38bc 142a 083e
00000390: 0ad6 4bbd 6edf cabd 4fe7 cabd fa0f 25bd
000003a0: 3cce 03bd a50b a3bd 3b4a b23c 2819 a7bd
000003b0: 1fad 3cbd ff70 21bd b549 903b 0094 7e3e
000003c0: 9876 293e a2bc 593e 5e99 2c3e ead0 2dbd
000003d0: 1f2f 263d f81d d8bc 46c6 3d3d 006d a33d
000003e0: d579 003e 1fb0 f23c 3df1 39be c22d bdbd
000003f0: 9088 b03a 7c90 663d cde4 d0bd 3803 d03d
-0.037574157 -0.08294792 -0.08653994 0.041839425 0.056890156 0.009641837 -0.0050513707 0.13034093
0.087323494 -0.009343771 -0.24596347 -0.12831111 -0.018049998 -0.022854002 -0.06812386 -0.029937936
-0.1639376 0.1543231 -0.07372305 -0.26953396 -0.25338924 -0.14723931 -0.23693858 -0.06853082
-0.107167386 -0.15066598 -0.017283965 -0.1411404 -0.06275151 0.117932126 -0.13854906 -0.055326942
0.0025522574 0.082675844 0.00040980673 -0.07585626 0.009635888 -0.061096847 -0.03531166 0.04976754
-0.03913513 0.16224928 -0.06510019 0.13842914 0.23021993 -0.058494985 -0.041954722 0.14168899
-0.14008233 0.10759567 0.11862802 0.030327985 0.10162611 0.09459025 -0.18581231 -0.10846958
0.04761149 -0.041232996 -0.025382947 -0.03918963 -0.08642762 -0.016769128 0.021157082 -0.20552965
0.046498638 0.1470364 -0.13869971 0.14413339 0.14060725 -0.014742529 0.107528895 -0.044406213
-0.020652065 -0.041169703 0.087429635 0.13416561 0.11980393 -0.06701568 0.011996481 -0.11061369
-0.09991416 -0.07844609 -0.07329448 -0.07821937 -0.08836685 -0.022502342 -0.02598778 -0.070932746
-0.037618622 -0.18540367 -0.077659644 -0.16580155 0.023072153 0.029060904 0.008285709 0.12960285
-0.17571197 0.10203647 -0.029029874 0.17965248 -0.029280115 0.009363771 0.110676594 -0.047067847
-0.07580516 0.05881126 -0.21850085 -0.1953136 -0.1828306 -0.06757931 0.018417757 0.12791032
0.030060856 -0.07630082 -0.0028653792 -0.05775541 0.041219644 0.1236248 0.11505972 0.09450801
0.10545715 0.07660051 0.071679175 0.06067765 -0.082005985 -0.2038857 0.07799151 0.08076072
-0.06496598 0.027851213 0.121351756 0.044583816 -0.066575505 0.07980086 -0.17706019 -0.028649049
0.059749667 0.08340728 0.17622097 -0.040785775 -0.0526575 -0.114832975 -0.02164797 -0.21494386
-0.14612776 -0.17957453 -0.1851075 0.11721403 -0.057694804 0.07446807 0.060364135 -0.016246933
0.058435913 0.14430788 0.11753794 0.041017804 0.050503667 -0.044729643 -0.0028013259 0.0033144108
0.094913505 -0.007042034 -0.21292216 -0.03003357 -0.0631238 0.09470048 -0.09089585 0.008198391
0.10828045 0.13920872 0.18888962 -0.0011862366 -0.00656992 -0.1469031 0.12739474 0.10821815
0.12224367 -0.03804459 0.10472124 0.06423214 -0.027114097 -0.02010459 -0.14825347 -0.04991637
-0.12577277 -0.0146304155 -0.13417901 -0.1622779 -0.096525855 0.02961214 -0.11418387 -0.13677543
0.13421148 0.102245346 0.074203834 0.10576597 -0.073786266 0.0061942535 0.05060454 -0.07080784
-0.06282117 -0.086110406 0.06925049 -0.13826996 -0.02575008 -0.06555975 0.116744794 -0.0063540796
-0.15410143 -0.106960006 0.079647034 -0.07013923 -0.043891005 0.0507874 0.03546139 0.039766815
-0.04209492 -0.07585705 -0.10148794 0.024036098 -0.052638993 0.036988445 0.06457276 0.16527677
0.16106339 -0.08450988 -0.01124336 0.13297302 -0.04976467 -0.09905897 -0.099074 -0.04029844
-0.032179102 -0.079612054 0.021763911 -0.08159095 -0.04606354 -0.039414402 0.004403318 0.24861145
0.16549146 0.21263364 0.1685538 -0.042435564 0.040572282 -0.026381478 0.046331666 0.079797745
0.12546475 0.029624997 -0.18158431 -0.09237243 0.0013468433 0.056290135 -0.1019989 0.10156864

conv2.bias f4 [16]
00000000: 76ce b53b 0d7e 5f3b 66c9 223d 93ea 5c3d
00000010: 65ed 0d3c cdb3 55bd d8eb 10bd ecc4 adbd
00000020: 08e6 b33d 7fd2 b2bb 0a2b d7bd 7c6b b1bd
00000030: 8e40 65bd 91a3 97bd 95f8 9fbd 7b69 c9bd
0.0055482937 0.0034102232 0.03974285 0.053934645 0.008662556 -0.052173425 -0.035381168 -0.084848255
0.08784109 -0.005457222 -0.10506256 -0.08663079 -0.055969767 -0.07404245 -0.07811085 -0.09834572

fc1.weight f4 [64, 784]
00000000: f01c df3b a00d 763d 28e0 ec3c 1ecc 2dbd
00000010: 8a9c 2cbd 9f96 ccbc 50fc 16bd e4b2 ec3c
00000020: cf7f fb3c 7b87 b0ba acf2 56bd d2fc ccbc
00000030: d349 c4bd f83f 10bd 2a4f ebbc 9c06 73bc
00000040: 0290 5dbd 8aaa 6fbc ed05 6ebd be7e 5abd
00000050: 6152 8cbd e1ea 10bd ed8f 9ebc de03 87bb
00000060: 9a6a 18bd ce42 4dbd e8c2 8cbc eab0 113d
00000070: f1fa 33bd 7e5f a5bd d03f bfbb 6b73 babc
00000080: 3e88 7e3c 7a9e 81bc 4463 023e 5d2d 20bd
00000090: 6b15 7fbc 9141 d13c fc55 4abc d616 cabc
000000a0: 7715 2bbd 1ad7 3bbc 92e1 46bc 6a9f 89bc
000000b0: a51b 2dbc 0cb4 b3bc e21e f6ba 26da a63c
000000c0: c019 6f3a 9f26 37bd 53fb 26bd 4646 10bd
000000d0: f54d 0bbd 3eed 7bbc b590 8ebc 1e99 b2bb
000000e0: 3cf7 933c f255 803d 7101 453d 6ae1 fe3c
000000f0: be65 4abd 430a 27bd 206b 00bd 2474 473b
00000100: 9f30 643d 59c0 87ba c795 1e3d 5127 33bc
00000110: dbb5 64bc 71f8 8cbd f173 3d3c efad 90bc
00000120: 306e 893c 20b2 47bb 1469 fdbb 6f70 913b
00000130: b5fe 85bc e011 28bc b50a 59bd a00e 08bd
00000140: 7ab3 afbd c67b 8dbd dd6e 9bbc 753f bdbc
00000150: 8bf5 bd3b 05f8 45bd 5ca3 e2bc 08cc c23c
00000160: 5fa1 7dbc b666 063d 3e8d e53c 990f f43c
00000170: afff 0bbc ae64 99bc aa22 f2bc d1c1 fdba
00000180: 0c86 8dbc 339c 303d 1774 9fbc 857b 903b
00000190: 5f02 8db9 4cce dcbc bf42 7eba 846c ad3c
000001a0: 81fc a2bc c894 c7bc f29c 523d 5fa3 643d
000001b0: 7020 5fbc 84f9 85bc fc21 493c a1ec 20bd
000001c0: 9bb1 babc 3267 8abb 1673 873c a14e 52bd
000001d0: 0001 263c 18e2 8ebc 3132 bcbd 14fe 193c
000001e0: de6c 27bd 1808 f9bc 949f b4bd 9687 98bc
000001f0: feee 2fbc 22c6 84ba f4db 17bd 09f4 26bb
00000200: eac0 91bc 33cf 1cba 1b5d 193d b0b9 1e3c
00000210: 328a 17bc 6907 c03c 6f23 3abd 2e83 25bd
00000220: 8ade 163c fe40 81bb b2c0 acbc 6dda 883d
00000230: 32d6 61bc 5f1d bebc a436 a23c d851 f0bd
00000240: 2141 61bd 7c5f 91bc c049 59bc 6de7 16bd
00000250: c58e 75bc ff3e d5bc 8751 3cbd 58bd 2bbd
00000260: 2f12 0ebd 5d0c dbbb 19f2 87bb 6578 923c
00000270: 4e27 303d 943b acbc b591 4fbd 18e5 8abc
00000280: 8f3b cdbc 0985 99bc 7050 353d f4e2 913b
00000290: c1a6 05bd 14b2 dcbc c337 e9bc f589 67bd
000002a0: 45eb 8abc fa69 debc 880b 15bb 0eab 96bd
000002b0: 8a83 9fbd cf98 63bd deb6 b7bc 4aba 20bc
000002c0: f7c7 bbbc a2a0 a4bc a6cc 843c b0ce b13c
000002d0: 46f0 133d b813 443c 3d3d 78ba 081f 3fbd
000002e0: bc59 36bd 858f 883b fd61 06bb 975b 4d3c
000002f0: 6fe1 163d f96e e6bc c554 d73c f995 5eba
00000300: f094 e73c 9a16 1bbd d824 abb9 0a11 d3bc
00000310: f2a2 f9bc 3655 92ba 2cb1 36bd cf3b 0bbd
00000320: 4c13 073c 20cd 1dbd bacf 06bd 5c1e a13d
00000330: 9c79 a03c 1705 803c 731e 38bd 245c 89bd
00000340: 893e bfba 9204 053c 79af 9b3c 22fc 0b3d
00000350: 8393 783c 9f64 be3c c3f6 1cbd d17c 28bd
00000360: aa21 a23a d617 3dbc d0b2 a93c f0b4 6b3c
00000370: 6934 9b3c 786d 0d3d e6e3 42bd 62f9 50bb
00000380: 4ce1 acbc df6c e6bc 37ad fabc 8130 edbc
00000390: 1271 84bc 45b4 80bc d889 45bc d6fb a6bc
000003a0: dd44 9fbd 03fd 4abb 5279 c6bc 6671 553d
000003b0: 0cb7 943d 0863 0a3d e541 14bd e799 2abd
000003c0: d491 f4bc a12d 16bd 36cc bebb f1a5 063d
000003d0: fa5d 8e3d 1021 dcbc 75a8 dd3b 9bd9 0e3c
000003e0: 7fa8 16bd 3cae b7ba 72d3 f3bb 9c32 b1bc
000003f0: 7a8c 1c3d c548 733d b430 ea3b f1e7 113c
0.0068088695 0.060071588 0.02891548 -0.04243099 -0.042141475 -0.024974165 -0.036861718 0.028893895
0.030700592 -0.0013468111 -0.052477524 -0.025022898 -0.09584393 -0.035217255 -0.028724272 -0.014833119
-0.054092415 -0.014628062 -0.05811112 -0.053343527 -0.0685165 -0.035380248 -0.019355739 -0.004120334
-0.03721104 -0.050112538 -0.017182782 0.03556911 -0.04394049 -0.08074854 -0.0058364645 -0.022760114
0.015535412 -0.015822638 0.1273318 -0.03910576 -0.015569071 0.02554396 -0.012349602 -0.024669092
-0.041768517 -0.011464858 -0.012138741 -0.016799647 -0.010565673 -0.021936439 -0.0018777514 0.020367693
0.00091209635 -0.044714566 -0.040767025 -0.035223268 -0.034009892 -0.015376387 -0.017402986 -0.005450382
0.018062226 0.06266393 0.048097078 0.031113345 -0.049413435 -0.04078127 -0.031352162 0.0030434215
0.05571043 -0.0010357007 0.038717058 -0.010934667 -0.013959373 -0.06883324 0.011563287 -0.017661063
0.016776174 -0.003047116 -0.0077334736 0.004438452 -0.016356805 -0.010258168 -0.052988727 -0.033217072
-0.08579154 -0.069083735 -0.018973762 -0.023101548 0.0057970933 -0.048332233 -0.027665786 0.02377893
-0.015480368 0.032812797 0.028021451 0.029792594 -0.008544846 -0.018724766 -0.029557545 -0.001936013
-0.017275833 0.043117713 -0.019464536 0.004409256 -0.00026895382 -0.026953839 -0.0009699277 0.021169908
-0.019895794 -0.024362937 0.051419206 0.055819865 -0.013618574 -0.01635433 0.012276169 -0.039288167
-0.022789767 -0.0042237276 0.01653437 -0.051344518 0.010132074 -0.017441794 -0.09189261 0.009398956
-0.04087531 -0.030399367 -0.088194996 -0.01861934 -0.0107381325 -0.0010129849 -0.037074998 -0.0025475046
-0.017792184 -0.0005981803 0.037442308 0.009687826 -0.009249257 0.023441033 -0.04544395 -0.040408306
0.009208331 -0.0039445153 -0.021087978 0.066822864 -0.013783978 -0.023207365 0.019801445 -0.117343605
-0.054993752 -0.017745726 -0.013262212 -0.0368418 -0.014987652 -0.026031015 -0.045976188 -0.04192862
-0.03468531 -0.0066848234 -0.0041487333 0.017879674 0.043006234 -0.021024503 -0.050676066 -0.016954944
-0.025052814 -0.018740194 0.044266164 0.0044521037 -0.032629732 -0.026940383 -0.028468972 -0.05652805
-0.016957888 -0.027150143 -0.002274247 -0.07356845 -0.07788761 -0.05556565 -0.022426065 -0.00981004
-0.0229225 -0.020096127 0.016210865 0.021705002 0.036117814 0.011967592 -0.00094695744 -0.046660453
-0.04451917 0.0041674995 -0.0020505183 0.012534044 0.036836084 -0.028129088 0.026285538 -0.00084909756
0.028269261 -0.03786335 -0.00032643112 -0.02576496 -0.030473206 -0.0011164311 -0.044602558 -0.033992585
0.008244347 -0.0385257 -0.032912947 0.07867119 0.019589238 0.015627427 -0.044950914 -0.067070276
-0.001459078 0.008118765 0.01900457 0.034176 0.015171888 0.02324134 -0.038321268 -0.04113466
0.0012369652 -0.011541327 0.020715147 0.014386401 0.01894589 0.034528226 -0.047580622 -0.0031886925
-0.021103524 -0.028128086 -0.030600173 -0.028953793 -0.016167197 -0.01571096 -0.01205679 -0.020383757
-0.077768065 -0.003097356 -0.024227772 0.0521101 0.07261476 0.03378585 -0.036195654 -0.04165068
-0.029854693 -0.03666461 -0.0058226837 0.032873098 0.06951518 -0.026871234 0.0067644664 0.008718873
-0.036781784 -0.0014013718 -0.0074409777 -0.021630578 0.038219906 0.05939557 0.007146919 0.008905397

fc1.bias f4 [64]
00000000: 13b3 f2bc 86d2 063d a0fd 513d 7dd8 e1bc
00000010: a969 563c f7e0 923b a916 c5bc d008 62ba
00000020: af3c db3c 668b 9ebc 899e b6bc 0cff 463d
00000030: 0d02 bbba 3024 fabc 384c 7a3d 65d5 0ebd
00000040: 8e39 683d fe41 e0bc b269 a63c 5877 623c
00000050: c773 77bc 8aaf d5bc f4bf 70bc 9cae db3b
00000060: f097 cdbb 83cc b33c f97b 113d ac51 373d
00000070: abdd 0b3c 7f39 0c3d f07a 06bd beeb 5cbb
00000080: cc33 bb3c 31bf 4b3d c71c aabc f335 543b
00000090: d732 16bc 9780 123d 77bd 773c 1f78 04bc
000000a0: 364b ca3c cce4 b4bc 1128 943a e484 2e3d
000000b0: ac9e 86bb 6425 293d 99b4 e2bc 6179 c2bc
000000c0: e089 e33b fd74 f7bc afab d73c 6b1b afbc
000000d0: 5a0e be3b 0c3e 0bbc 5c4e 483d 2019 a6bc
000000e0: 3b4c b03c fc38 8dbc c235 68bc 53e0 0dbd
000000f0: 9227 c03c 5239 d1bb f991 b43c dc59 933c
-0.029626405 0.032915615 0.051267266 -0.02756905 0.013086715 0.0044823843 -0.024058657 -0.0008622529
0.026762335 -0.01935358 -0.022292392 0.048583075 -0.0014267579 -0.030534834 0.061107844 -0.034871478
0.056695513 -0.027375218 0.020314071 0.013822399 -0.015103287 -0.02608468 -0.014694203 0.0067041647
-0.006274216 0.021948105 0.03551862 0.044755623 0.0085367365 0.03423452 -0.032832086 -0.003370985
0.022851847 0.04974288 -0.020765675 0.003238079 -0.009167395 0.035767164 0.0151208555 -0.00808528
0.024694066 -0.022081755 0.0011303445 0.042607203 -0.0041082706 0.041295424 -0.027674006 -0.023739519
0.006943926 -0.030207152 0.026326982 -0.021375379 0.0058000507 -0.00849868 0.048902854 -0.020275652
0.021520725 -0.017239086 -0.014172973 -0.03463776 0.023456369 -0.006385007 0.022042261 0.017987184

fc2.weight f4 [10, 64]
00000000: 4c0b b5bd e5e8 06bd cc1c 18be d96a 633d
00000010: cec4 bb3d 983b 853d bec2 21bd cba1 883d
00000020: 09e2 99bd a8ef 143e 8131 223e 9fcb f23d
00000030: 1976 b8bd c3f7 fbbd 4d06 f3bd 0a97 cd3d
00000040: 3097 43bd f07e c2bd a5c3 043d 6935 a43c
00000050: 2d60 32bd dbfa 273d 77e9 fabd 1bf0 f83d
00000060: afcc f8bd fd83 2ebe ce53 b1bd 8a79 02be
00000070: 9455 16bd a55c 863d 0d3f 043e 9e66 c0bd
00000080: 87bc 453d 33ca e4bd a738 d4bd 8899 ce3d
00000090: 25ce 98bd c6f9 fb3d 552d b4bd 9a2d a0bd
000000a0: e7e2 17be 9468 023e 5393 683d b89f a7bd
000000b0: 020b 093d 80a6 943d 4313 d8bd c14e b63d
000000c0: 040c 15be 9035 30bd 72b2 89bd e595 d5bc
000000d0: 3506 293e d1f8 c4bd 2848 b63d 7f74 cd3d
000000e0: 72ab 933d 2d96 90bd 3048 cd3c 7434 dabc
000000f0: ed49 dc3c 2877 7b3d e1a5 febc b3a1 5e3d
00000100: dfc1 99bc 4cac 923d f9a8 40be 244f 43be
00000110: fbd0 a63c e16d 36bd 6a6f 023d 09a8 2abe
00000120: ca5d 51be 9677 bc3d e23e 21bd b6be 5e3d
00000130: d50d 6abc 78bb e53c 15c0 383e fa7f 89bc
00000140: 6c2b 263e 9740 1e3a 4152 193e 98b4 1abe
00000150: 70b3 18be 4f56 f2bd a219 49bd 79c9 89bd
00000160: 71ae dcbc 7b45 c23d 46fb fe3c 62cc 243e
00000170: 65ee febd d6f4 7c3d e78a 73bd 0805 8dbd
00000180: 4eaa f2bd fe61 d43d bbe5 aa3c a125 2bbe
00000190: ecc0 d63d 9b1d 8c3c 7124 ce3d b885 b43d
000001a0: 673f 30be ec8c 25be 1118 90bd 3f47 083e
000001b0: 2107 1c3d d5fa 363b 954d c53d e88c d53d
000001c0: 3643 ab3d bcb1 2fbd 972d cebd 55c9 82bd
000001d0: 63f6 c9bd af45 f53b 34bf 9c3d 4efc 29be
000001e0: 58d9 e83c 2195 b3bc 7918 783d 21ba f73c
000001f0: fb91 edbc 16a6 1dbd 2f45 bf3d b8dc 42be
00000200: 01de 143e 1435 02be cc7d d73d 6c53 823d
00000210: dd23 0d3c 9a6f ecbd bd7d b93b 12ea 72bc
00000220: c672 50bd d6f7 573d 34b9 2e3e c339 29be
00000230: d321 48bd b0a2 7c3d 58bd 3bbe 0778 80bd
00000240: 664d 9bbd 9a44 cc3d 3e6b eb3d 7d51 98bd
00000250: 23a8 04bd 13ab d7bb 1989 d4bd 3cca f8bd
00000260: 154b 6d3d 7076 8a3d c642 06bc b0d9 f53d
00000270: a935 8d3d c1b0 3dbd 8361 c13c 9597 b8bb
00000280: b91c 853b 4065 23be 9315 7fbb 6de0 1f3d
00000290: 4e8b 54bc d85b c9bc ce69 903d aad7 233c
000002a0: bb01 d2bd 9c7d 053e 571e 85bd 1e9b d23d
000002b0: 5228 57bc 295e bcbd d886 efbd 6ead 913d
000002c0: 69bf 483b 6438 1abe eb03 c1bd 04d6 3b3e
000002d0: 4690 85bd 67a3 503d 03f5 033d b95f 153e
000002e0: 2fe5 b7bd 509e 83bd 8353 d8bd 8955 08bb
000002f0: 14d9 8a3d 53f2 71bd a73b fe3d 8149 b8bd
00000300: daac ae3d 6050 0cbe 95a9 77bd c7e1 46bd
00000310: 8e81 b9bd 9173 d73d e9a0 38bd 2b40 0c3d
00000320: 0ba6 d53d 1357 e4bd 80d7 0abe 1413 4f3d
00000330: 3b20 abbd 6b39 893d 9e09 01be 88a8 3c3b
00000340: 5b41 863d f3cc cdbd 0a61 d23d 63a5 af3d
00000350: cbb5 1a3e 8abb cf3c 433a 3d3d 1f3c a8bd
00000360: 23f9 f83d ad48 1bbc 57a8 18be b9d9 e7bd
00000370: 1d1d b0bd 979c b93d f4a2 733c 6ca0 b2ba
00000380: fee0 c33d 1f25 35be 3162 583d 86b9 e8bd
00000390: 9378 86bd 9df6 0bbe 8787 41bd a447 233d
000003a0: f8d1 993d 22f4 8abd 62de 8b3d 7bf8 013e
000003b0: 0384 5e3d 9fbf 8e3d 8072 d0bd 7d88 ef3d
000003c0: 90ea 383d 57ea f8bc a408 4ebd 64f6 14bb
000003d0: 62c0 d7bc 8b46 133d 5667 9cbd 1e6a 3dbc
000003e0: 752b eb3d d4f7 93bd 7fbb 163d d717 fd3a
000003f0: 2a13 cd3d 79da 93bd 78a1 16be 336a 11bd
-0.08840045 -0.03293695 -0.14854735 0.05552182 0.09168397 0.06505507 -0.03949236 0.066714846
-0.07513816 0.14544547 0.15839197 0.11855244 -0.090069 -0.12303116 -0.11866436 0.10038574
-0.047751606 -0.09496868 0.032413144 0.020045 -0.04354875 0.04101072 -0.12251561 0.121551715
-0.12148415 -0.17042537 -0.086585626 -0.12741676 -0.036702707 0.06560639 0.12914677 -0.09394573
0.048275497 -0.11171379 -0.10362368 0.100878775 -0.07461194 0.123035 -0.08797709 -0.07821198
-0.1483265 0.12735206 0.056781124 -0.08184761 0.033457763 0.0725832 -0.10550549 0.0890174
-0.14555365 -0.04301983 -0.06723489 -0.026072452 0.16506274 -0.096177705 0.089004815 0.100319855
0.07210435 -0.07059894 0.025058836 -0.02663634 0.02689072 0.061392933 -0.031084957 0.054353427
-0.018769203 0.07161769 -0.18814458 -0.19073159 0.020363322 -0.044538382 0.031844534 -0.16665663
-0.20445934 0.09202497 -0.03936661 0.054381095 -0.014285524 0.028043494 0.18042023 -0.016784657
0.16227502 0.00060368463 0.14972784 -0.15107954 -0.149122 -0.11832868 -0.04909671 -0.06727881
-0.026938649 0.094859086 0.031125676 0.16093591 -0.12447814 0.06175693 -0.05945864 -0.06885725
-0.11848889 0.10370253 0.020861497 -0.16713573 0.10486016 0.01710396 0.100655444 0.08814567
-0.17211686 -0.16167039 -0.0703584 0.13308428 0.038092736 0.0027920504 0.09633938 0.10427266
0.08362429 -0.04289411 -0.10067289 -0.06386057 -0.09861448 0.0074851136 0.076536566 -0.16600153
0.02842395 -0.021921696 0.060570214 0.03024012 -0.029000273 -0.03848847 0.093393676 -0.1902951
0.14537813 -0.1271556 0.10522041 0.06363568 0.0086145075 -0.11544724 0.005660741 -0.0148263145
-0.050890706 0.05272659 0.17062837 -0.1652594 -0.048860382 0.06167859 -0.18333948 -0.062728934
-0.07583122 0.09974022 0.11495064 -0.07437418 -0.03238691 -0.006581673 -0.10377712 -0.12147948
0.057932932 0.067608714 -0.008194631 0.12004411 0.068950005 -0.046311144 0.023606068 -0.0056333044
0.004062262 -0.15956593 -0.0038922771 0.03903239 -0.012972666 -0.024579927 0.07051431 0.010000149
-0.10254236 0.13036197 -0.064999275 0.102834925 -0.013132172 -0.09197647 -0.11695641 0.07113157
0.0030631667 -0.15060574 -0.094245754 0.18343359 -0.065216586 0.050937083 0.032216083 0.14587297
-0.0897926 -0.0642668 -0.105628036 -0.0020802936 0.067796856 -0.05906899 0.124137215 -0.08998395
0.085290626 -0.13702536 -0.06046446 -0.04855516 -0.09057914 0.105200894 -0.04507533 0.034240883
0.10432061 -0.111494206 -0.13558769 0.050555304 -0.08355757 0.06700405 -0.12601325 0.0028786976
0.06555434 -0.100488566 0.10272415 0.08576467 0.15108411 0.02535798 0.04619814 -0.08214592
0.12156894 -0.0094777765 -0.14907967 -0.11320824 -0.08599303 0.0906307 0.014870394 -0.0013628132
0.09564398 -0.17689942 0.052828018 -0.11363511 -0.065659665 -0.13668294 -0.04724839 0.039863244
0.075107515 -0.06784846 0.068295255 0.12692444 0.054325115 0.069701426 -0.10178089 0.11695955
0.04514557 -0.03038518 -0.05030121 -0.0022729868 -0.026336852 0.035955947 -0.07636897 -0.011560945
0.11482898 -0.07225004 0.036799904 0.0019309473 0.10013421 -0.07219405 -0.14710033 -0.03550167

fc2.bias f4 [10]
00000000: e7d1 5b3d 3e2c 963d 53b2 a63d 2206 0dbc
00000010: 0083 dcbd 9f67 e33d 28bf 593c 5efe f73d
00000020: be0e 1d3d 157e c13b
0.053666975 0.07332657 0.081394814 -0.008607419 -0.10767174 0.111037485 0.013290204 0.121090636
0.038344137 0.0059049227
