models/mnist_model_20241118_115007.pth (torch, 59224 bytes, 16 tensors)

conv1.weight f4 [4, 1, 3, 3]
00000000: 3846 963e 27d0 57be 4529 d33c 4268 153e
00000010: 02b0 023e 5ab6 63be 66dd 2a3e 9bcc a13e
00000020: 70f4 f43d 8011 95be a3cc 0f3d 42bf 97be
00000030: 686b 58be dca9 37be c593 573e 1141 c03d
00000040: 72ba 0d3e 17bf 9a3e 9c21 f6bd bdd9 54bd
00000050: d6df 95be 2010 b3be abc3 e2bd 86ca bebe
00000060: 1ab5 abbe 5a26 bb3d 484b 5bbe 1120 2cbe
00000070: ce0d 19be 46cc 4bbc 3be8 42be 51a8 e03b
00000080: 70d7 1d3e 98de adbe 91f1 813e 9b74 8dbc
0.29350448 -0.21075498 0.025776515 0.14590552 0.12762454 -0.2223753 0.1668602 0.31601414
0.11960685 -0.29114914 0.035107266 -0.29638106 -0.21134722 -0.1793589 0.21052463 0.093874104
0.13840654 0.30223915 -0.12018129 -0.051965464 -0.29272336 -0.3497324 -0.11072477 -0.37263888
-0.33536607 0.09138174 -0.21415436 -0.16809107 -0.14946672 -0.012438839 -0.19033901 0.0068560024
0.15414214 -0.33958888 0.25379613 -0.017267516

conv1.bias f4 [4]
00000000: 1ce2 38bd 9906 d33e 8a47 943d ba36 4d3e
-0.04513751 0.4121597 0.072402075 0.20040408

bn1.weight f4 [4]
00000000: 67f7 7c3f c01c 763f b3f6 8a3f 52fd 843f
0.98815006 0.9613762 1.0856537 1.0389807

bn1.bias f4 [4]
00000000: 387b 38bd d862 d3bd 0714 dd3d dd88 b4bc
-0.045039386 -0.10321587 0.107948355 -0.022037918

bn1.running_mean f4 [4]
00000000: a7b2 ccbc 21ed d03e 5aca dc3c 1593 3c3e
-0.024987532 0.40805915 0.026951957 0.18415482

bn1.running_var f4 [4]
00000000: 1da0 f93e d054 b63e d0c5 0240 8e62 993e
0.4875497 0.35611582 2.0433235 0.29958004

conv2.weight f4 [8, 4, 3, 3]
00000000: cade 913d c038 373d 2071 31be ffb4 2a3e
00000010: ba49 af3d fe33 053d e7e6 993d cdfc 3a3d
00000020: fda8 dbbd 79f1 27be 026d fcbd 9f7d 6c3d
00000030: 64f3 09be bd96 f6bc 4917 32bd 9ae9 9cbc
00000040: 416d 3a3d 33c6 583d b0f5 70be c721 d3bc
00000050: b8d0 d4bd 8d1d 42be dc0c 313d cfe8 923d
00000060: 7683 d9bd a4b5 183e a6b6 b4bd 617c d23d
00000070: ad16 433e 9af9 e63d b317 373e 389b 0f3e
00000080: d28c c93d 4239 6ebd f6f1 093d d901 45bd
00000090: 21a5 64bd 3004 1b3d 113c 0ebd d6c7 173e
000000a0: ba70 c0bd 1940 4e3d f468 5ebe f1eb 39bd
000000b0: f685 873b 6e91 1e3e c3e5 593e c8f8 9f3d
000000c0: 9e3a cdbc 4988 1d3c 3689 1bbd c06c 953c
000000d0: 590d 4e3d 3efd 833d c22e 02be 0c92 e33d
000000e0: 9ac2 a33d 753a b9bd 53c0 8ebe 97bd 08be
000000f0: b860 ec3d c973 053c cb51 f03d b2ec 4dbc
00000100: c7d4 f0bc c446 c3bd b45e 31be e93b 24be
00000110: 59bb aabc 7d09 24bd 830b 0cbe fbef 6fbd
00000120: 3292 9a3d 97ef eb3d 574a 533d 946e 82bd
00000130: 511b 80bc 2762 fb3d ae10 80bd fbbb 573d
00000140: 98be 983c 2fd7 dfbd 4f12 12be 1e01 303e
00000150: 988e 80bd 0aea 1fbe 27c7 c3bd 52c4 f63d
00000160: 2ad9 023e 617b 7e3c 509d 863e c393 b83c
00000170: edbb 09bd cd2c 2bbd ec95 2dbe e738 48bd
00000180: ef3c a2bd a4f7 04bd 34dd b83d a19f 88bd
00000190: ab4a 0dbe 499c 29bd f70b 43bd 565f 48be
000001a0: fe89 36be b902 e23c f44c 74bd 5e55 66bc
000001b0: 4503 66bc fada f73b 4db6 f4bd e40a af3d
000001c0: 4501 dc3d 781e b53d ec25 e0bd 690d 30bd
000001d0: 54eb 07be 7d39 5e3c b8df 15be 9a6c ee3c
000001e0: 58c6 753d 4a67 703d 06d8 003e c589 3a3e
000001f0: 2533 203e ce40 0cbc 3bd3 ca3d 47fb 0ebd
00000200: 80d1 29bd f358 afbd 6148 21be 32fe 48bd
00000210: bab3 01be ce84 a73b 8cb4 523c 6d08 cabd
00000220: f098 74bb 6b68 2bbe 7495 903d 1df9 67bb
00000230: 22f6 4a3e 1d88 e1bc 81ec 2b3e cd23 2c3c
00000240: 0587 e2bc 3d3d 2c3e d5da 9b3d 31f8 abbd
00000250: 5738 c13b d3b9 0a3e d2e6 4dbd 060d 1fbe
00000260: d393 bd3a 1cf5 e9bc a94f 19be 7f9c 1ebd
00000270: 451a e8bc 39f8 fdbd 3132 423d 98a5 45bd
00000280: 230e a93d bad6 3cbc f5e6 5dbe 7da6 2abe
00000290: 92df dbbd 3a01 083e 2f8c 77bd 7c48 12be
000002a0: 581a 023e 88d7 89bd d1ef 01be b6f7 58be
000002b0: 1bc1 bbbd 7aa1 63bb ee58 0a3e a998 2fbc
000002c0: fc7a 15be d124 e73d 618b c33c d2f7 a3bd
000002d0: 849f 50bb ec2c 2f3d e199 30bd 684d 8fbd
000002e0: 8817 c73c 4629 afbc 6364 3c3d a520 f7ba
000002f0: 459b b0bd 9879 e6bd ad74 d63d 2b1c 123e
00000300: 7b70 413e 894e 543e 71e9 03be b328 0ebd
00000310: b7b1 c5bd 3c45 1d3d 3b66 0fbd 34ee f5bc
00000320: 0b8d 2bbd 36f2 19be 3f2b 79bd b2ee 0cbe
00000330: 53b3 223c c988 5cbd eef6 373d 13f9 a4bd
00000340: ac0b 1a3b 72df 7f3c 3207 593c 5d04 943e
00000350: 4e40 b23d 8aee d3bc 6149 353d 7e41 e5bc
00000360: 8a3e 313d 7e01 32be 8f90 03be 04bc ce3d
00000370: bed1 813e 0df7 6fbc faf0 62be fcf7 b3bc
00000380: b4f5 063e c777 333c a0f0 ae3c 5dcd 5dbd
00000390: 9014 6f3d 8880 393c 55b6 9a3d c779 d6bc
000003a0: ee53 923c 0c0d e5bd 25ce b33d 6016 52bd
000003b0: 9f1e 213e 3858 1bbe 4933 fcbc 509d c0bd
000003c0: 1186 923d d063 17bc 89aa 9cbd 08e3 95bc
000003d0: d320 c6bd ced2 bbbc d1e0 2cbd e7d8 10be
000003e0: d8c8 18be 0198 59bd 69af 88bb 1da1 3c3a
000003f0: 87f1 2dbe 7127 213e c433 8e3c 3047 dcbd
0.07122572 0.044731855 -0.1732831 0.16670607 0.08558984 0.032520287 0.07514744 0.045651246
-0.10725591 -0.16400708 -0.12325479 0.05773699 -0.13471752 -0.030101174 -0.043479238 -0.019154359
0.04551435 0.052923393 -0.23531222 -0.025772942 -0.103913724 -0.18956585 0.043225154 0.07173311
-0.10620777 0.1491304 -0.088239 0.1027763 0.19051619 0.112780765 0.17880134 0.14024055
0.098413125 -0.058160074 0.033678018 -0.048097465 -0.05582154 0.03784579 -0.034725253 0.14822325
-0.09396501 0.050354097 -0.21719724 -0.045391027 0.0041358424 0.15485165 0.21279053 0.07811123
-0.025052365 0.009615012 -0.03797265 0.018240333 0.050305698 0.064447865 -0.12713149 0.111118406
0.07996102 -0.09044353 -0.27881107 -0.13353573 0.11541885 0.008145281 0.11734351 -0.01256864
-0.029398335 -0.09534982 -0.17321283 -0.16038479 -0.020841287 -0.04004811 -0.13676266 -0.058578473
0.07547416 0.115203075 0.051584568 -0.06368747 -0.015638025 0.122745804 -0.062531814 0.052669507
0.01864557 -0.10929715 -0.14264797 0.17187926 -0.062771976 -0.15616623 -0.0955947 0.12049164
0.12778154 0.0155323455 0.26291895 0.022531396 -0.033626486 -0.041790772 -0.16951722 -0.04888239
-0.079217784 -0.03246273 0.09026566 -0.06671072 -0.13798015 -0.04140881 -0.047618832 -0.19567618
-0.17826077 0.027589189 -0.0596437 -0.014058439 -0.014038865 0.007563946 -0.119488336 0.08546999
0.1074243 0.08843702 -0.10944733 -0.04298154 -0.13273364 0.013563511 -0.14636123 0.02910452
0.06000361 0.058692254 0.12582406 0.18216617 0.1564451 -0.0085603725 0.0990357 -0.034907605
-0.04145956 -0.085618876 -0.15750267 -0.049070545 -0.12666216 0.005112267 0.012860429 -0.09864888
-0.0037322603 -0.16739051 0.07059756 -0.0035396286 0.19820455 -0.027530724 0.16789438 0.010506582
-0.027652273 0.16820236 0.07610098 -0.08396948 0.005896609 0.13547449 -0.050268956 -0.15532312
0.0014463611 -0.02855926 -0.14971794 -0.038723465 -0.028332839 -0.1240086 0.047411148 -0.048253626
0.082546495 -0.011525804 -0.21670134 -0.16665073 -0.10736002 0.13281718 -0.060436424 -0.14285463
0.12705362 -0.067305624 -0.12689139 -0.21188244 -0.09167691 -0.0034733699 0.13510486 -0.010717549
-0.14597696 0.11286319 0.023870172 -0.08006252 -0.003183336 0.04276745 -0.0431155 -0.06997186
0.024303213 -0.021381985 0.045994174 -0.0018854333 -0.08623365 -0.11253661 0.10471473 0.14268558
0.18890564 0.20733084 -0.1288202 -0.034706783 -0.09653037 0.038396105 -0.035009604 -0.03002081
-0.041882556 -0.15033802 -0.06083226 -0.1376293 0.00993045 -0.053841386 0.044913225 -0.0805532
0.0023505492 0.015617238 0.013246344 0.2890958 0.087036714 -0.02587058 0.044259433 -0.02798533
0.043272533 -0.17383382 -0.12848113 0.10094455 0.25355333 -0.014646304 -0.22162238 -0.021968834
0.13179666 0.01095385 0.021354973 -0.054150928 0.05836922 0.011322148 0.07554308 -0.026181115
0.017862286 -0.11184129 0.08779553 -0.05129087 0.15734337 -0.15170372 -0.030786173 -0.09405005
0.071544774 -0.009240106 -0.076497145 -0.018296733 -0.096742295 -0.022927668 -0.04220659 -0.14145242
-0.14920366 -0.053123478 -0.004171301 0.00071956386 -0.16986667 0.15737702 0.017358668 -0.107557654

conv2.bias f4 [8]
00000000: 7762 bc3d 9ac7 7c3d 8a44 b8bd 1a2a dabd
00000010: bcd8 ef3b 6eef 30bd 05e0 8d3c 6524 3cbe
0.09198468 0.061713792 -0.08997448 -0.106525615 0.007319538 -0.043197088 0.017318735 -0.18373258

bn2.weight f4 [8]
00000000: 45f1 ad3f c051 aa3f 85a7 ad3f b455 9b3f
00000010: 65fa ad3f 094e a93f 44a7 a73f 579f a43f
1.3589255 1.3306198 1.3566748 1.213553 1.3592039 1.322694 1.309792 1.2861127

bn2.bias f4 [8]
00000000: c364 083e 6971 013e 0688 0c3e 7e69 ec3d
00000010: 7d70 fd3d 9b79 8c3d 65bb 4f3d c905 753d
0.13319688 0.12640919 0.13723764 0.115435585 0.12374971 0.06859132 0.050715823 0.05981997

bn2.running_mean f4 [8]
00000000: bd59 503e a031 9bbe 0ff6 a5be 8d8c 09be
00000010: e508 f2be 60d9 97bd 0f75 8cbe 22b7 f9bd
0.20346732 -0.30311298 -0.3241429 -0.13432522 -0.4727241 -0.07414508 -0.2743306 -0.12193133

bn2.running_var f4 [8]
00000000: 13e2 fd3d b776 db3d 44a8 d13d f9bd c63d
00000010: 07d0 313e 5d62 003e 550c fb3d e913 5c3e
0.12396636 0.107160024 0.10237172 0.09704203 0.17364512 0.12537523 0.122582115 0.2149197

fc1.weight f4 [32, 392]
00000000: caad 02bd 5b56 973d b2b4 243d 3e98 e73c
00000010: 2b8c eabc ea53 3e3b 2f7e 423b 8591 82bc
00000020: d390 bcbb a1d0 5a3d 4eb8 5c3d e062 f2bc
00000030: 1ff1 ab3c a547 d4bc bb3e 05bd b2cb 8cbc
00000040: 5558 fb3c 6126 4cbc bef3 4e3d c11f 6c3d
00000050: cd25 a1bd 31ce 1f3d 2d05 a43c e188 453d
00000060: 0c25 553b 78f2 30ba 2390 d63d f39f ccbc
00000070: 31b7 01bd a304 3bbd 5eea 4ebc ba22 29bd
00000080: 20df 9ebc 0cce dfbc a63a 14bd 286c b1bc
00000090: 64dd 233d 793b 73bd 60d4 b4bc b2bb 0a3d
000000a0: 674f a8bd 660c e63a db78 2bbd 15c0 d1bc
000000b0: ff21 4cbd 2b82 223e ec6d dd3d 332f 18bd
000000c0: 3409 f43b a26f 85bd 6420 2fbd cb10 29bd
000000d0: 7d68 91bc 6968 b03b 3bb9 a23c a480 433d
000000e0: 3e29 a7bd 38cd a33d 6f7a 6f3c 0b80 e3bd
000000f0: 7daf 98bd ea29 75bd cecb 02bc 60ed 86bd
00000100: fd9b 38bd 7e8b 84bc 96f5 99bd 258d adbd
00000110: eb02 63be 7a29 16be 22a7 3e3d bb8d 0a3d
00000120: be36 05bd a389 153c de86 a73b 6ac0 bebc
00000130: 32ae 023e b4a8 a0bd 719d 813d 6e27 883d
00000140: 90f3 cc3d efa9 a93d dbcd 243e 61ed 153e
00000150: a129 40bd e2db 46bd dad2 9bbd 4e44 f9bd
00000160: 7a09 a3bd 2bf0 603d bb2c 083d 9d3d ba39
00000170: 59c8 6fbd eab2 e6bd 7a52 b4bd dcae 83bd
00000180: 9b19 0b3d dca7 953a 680c 0cbd 5ac7 893d
00000190: d142 82bc ed27 66bd e569 82bd d449 e6bc
000001a0: 75ab 913d 6a1d 6e39 83b9 32bd e8e2 11bd
000001b0: 25df 89bd 8a0c 913c 2d3b d53b e458 d2bd
000001c0: 170f e2bc 467f 5c3d ff3d 89bd 406b 86bd
000001d0: 77c4 cfbd dccd b9bd 3bd5 4abc afee 1d3c
000001e0: 591a 1ebd 6287 b0bc 8836 8b3c d1a6 fd39
000001f0: cbfd 483c 93be eb3b 3514 b4bb befa 4abd
00000200: 27fa 993d 94d2 b23d 77b9 ce3d 2d45 843d
00000210: 2eb9 c03c ffc1 563d 8038 003c 2e92 50bd
00000220: 6434 1abd 1d30 96bc 635a 833c 79d7 9bbb
00000230: 3438 7b3c d343 33bd d5f9 bbbd c701 2fbe
00000240: cff4 d0bd 3028 f0bc 101d 023c 2e9a 44ba
00000250: a198 903d f4b4 a53d 81a2 47bd aaec 20bc
00000260: 4647 f73c da06 7e3c 3530 16bd ed48 c6bc
00000270: 3dd3 c53c dac5 6fbd 5149 e83c 5d3a 4b3d
00000280: b424 67bd 426c 60bc 93b9 8c3c 9030 753c
00000290: 721b 29bd af24 eb3d 4394 0d3d 10ca 9bbd
000002a0: 4fad 603d 44ae 383e 5f96 983d 0843 3a3d
000002b0: 858c 1f3c 9b33 863d 8565 0b3e 06e6 fb3d
000002c0: 58d1 463d 185f 163d 5430 aabd 8ed7 d7bc
000002d0: 2a6a 6ebc 1f54 8a3d 54ea e53c 02b0 5cbd
000002e0: a612 2cbd 2a6c 2abe fb0c 49bd cdcd 5e3d
000002f0: 0e8a 963d fc03 29bd 2f56 1cbd 0290 73bd
00000300: ef6a 343d ba82 9c3d a6bb ea3a b166 89bc
00000310: 8382 c7bc 615d 63bc e879 ca3c 3ca5 aebc
00000320: 95cf 9d3c bb32 223d 23b9 12bd 7a04 a9bd
00000330: afa7 ce3a 3264 1f3c 3e3a 013d 09c2 363e
00000340: 7af9 253d 5e40 7b3c 2bc7 2d3c f246 6bbc
00000350: d5b2 b9bd 00b4 debc e8fb 6d3c 2029 25be
00000360: 7bf8 7fbc e97f f63d 8bfa 583d a093 c8bd
00000370: ba82 c7bd d917 1fbe e7c1 2bbe 267d 1a3b
00000380: 8444 413c 3846 223d c115 df3c 5fd3 043e
00000390: 19f7 803c 0a05 d93d 0974 c73a 6b12 c6bb
000003a0: 87ba 343d 8ab7 98bd ff92 4dbc 348e df3d
000003b0: 4a23 313e e784 6d3b 67a4 4e3c 7db4 9cbd
000003c0: 92ce f8bd 8483 25be 63c5 c8bd 2669 d53c
000003d0: 0ef5 04bc a0c8 2938 1f52 4f3d 0644 b03d
000003e0: 7218 4d3b cd04 cfbc 44a9 3fbc 7a6f 923c
000003f0: 98e1 5fbd ca76 453d c549 88bb 2f6e 81bc
-0.03190402 0.07389518 0.040211387 0.028270837 -0.02863129 0.0029041716 0.0029677262 -0.01593853
-0.005754569 0.05342162 0.053886704 -0.029588163 0.020988999 -0.025913069 -0.032530528 -0.017186973
0.030681768 -0.012460322 0.05052542 0.05764747 -0.07868538 0.039015 0.020022 0.04822624
0.0032523302 -0.0006749998 0.10476711 -0.024978613 -0.031668846 -0.04565872 -0.01262912 -0.041292883
-0.019393504 -0.02731993 -0.036188744 -0.021658018 0.040006056 -0.05938289 -0.022073925 0.033870406
-0.0821827 0.0017551302 -0.041863304 -0.025604287 -0.04983711 0.15869968 0.108119816 -0.037154388
0.007447386 -0.06515433 -0.0427555 -0.04127578 -0.01775002 0.0053835404 0.019863715 0.047730103
-0.08162163 0.07998127 0.014616593 -0.11108407 -0.07455347 -0.059854425 -0.007983161 -0.065882444
-0.045070637 -0.016179796 -0.07517545 -0.08474187 -0.22169082 -0.1466426 0.04654611 0.03382657
-0.03252291 0.009127053 0.005112513 -0.02328511 0.12761763 -0.078446776 0.06328858 0.066481456
0.10007393 0.082843654 0.16094153 0.14641334 -0.0469147 -0.04854954 -0.07608576 -0.12171231
-0.07960792 0.054916542 0.033245783 0.0003552259 -0.058540676 -0.11264594 -0.08804794 -0.06429836
0.033959966 0.0011417824 -0.03419152 0.067274764 -0.015901001 -0.05619042 -0.06367854 -0.028111376
0.07112781 0.00022708406 -0.04363395 -0.035616785 -0.067320146 0.017706174 0.0065072984 -0.10270861
-0.027595086 0.053832315 -0.06701278 -0.06563425 -0.101448946 -0.09072468 -0.01237994 0.009639426
-0.038599346 -0.02154893 0.016993776 0.00048380208 0.01226754 0.007194349 -0.005495573 -0.049555533
0.07518416 0.08731571 0.10093968 0.06458507 0.0235258 0.052431103 0.007825971 -0.050920658
-0.03764762 -0.01833349 0.01603431 -0.004755911 0.015333224 -0.043765854 -0.09178511 -0.17090522
-0.102029435 -0.029316038 0.007941499 -0.0007499781 0.07060362 0.08091155 -0.04873896 -0.00982205
0.030185353 0.015504563 -0.036667068 -0.024204696 0.024148578 -0.058538295 0.028355272 0.049616206
-0.056431487 -0.013697686 0.017178332 0.0149651915 -0.04128594 0.11481606 0.03456522 -0.076069
0.05485278 0.18035227 0.07450556 0.045474082 0.009738092 0.06552812 0.13612945 0.12299733
0.04853949 0.036711782 -0.08309999 -0.026347902 -0.014551679 0.06754326 0.028065838 -0.05387879
-0.042009972 -0.16642824 -0.049084645 0.054395486 0.073505506 -0.041263565 -0.03816813 -0.05946351
0.044047292 0.076421216 0.0017908707 -0.0167726 -0.024354225 -0.013877244 0.024716333 -0.021319024
0.019264022 0.03959916 -0.03582109 -0.08252807 0.0015766526 0.009728478 0.031549685 0.17847456
0.040521123 0.015335171 0.010606567 -0.014360176 -0.09067313 -0.02718544 0.014525391 -0.16128969
-0.015623207 0.12036116 0.05297331 -0.09793782 -0.09741731 -0.15536441 -0.16773187 0.002357313
0.011796121 0.039617747 0.027232053 0.12971257 0.015742825 0.10596664 0.0015217076 -0.006044676
0.0441232 -0.07456882 -0.012547254 0.10915795 0.17298618 0.0036242546 0.012612439 -0.07651613
-0.12148775 -0.1616345 -0.098032735 0.026051115 -0.008115066 4.0479586e-05 0.050615426 0.086067244
0.0031295088 -0.025270844 -0.011698071 0.017875422 -0.054658502 0.04820899 -0.0041591846 -0.01579961

fc1.bias f4 [32]
00000000: 6d3f 2b3d d442 623d 5415 8c3a 44cb 3fbd
00000010: d4d6 d0bc 5918 8f3d c5ab b6bd ea33 003d
00000020: 8318 8cba b39c f7bb 63a4 4ebd ca77 4a3c
00000030: 208f 853b 7c49 87bd 6d2b 2ebd 1227 fc3c
00000040: a1d7 88bd 5944 0a3d d133 893c 8447 2c3d
00000050: f0ff 433d 5ee2 fd3c c180 44bd bca8 7dbc
00000060: 9a14 a33c 2e04 923c 1712 7a3d 1cef 023c
00000070: 4fd9 5abd ab3c d03c 8c2f 493d 163a 2fbd
0.041808534 0.055239514 0.0010687509 -0.04682471 -0.025493063 0.06987066 -0.08919481 0.03129951
-0.0010688457 -0.007556522 -0.05044974 0.0123576615 0.0040758997 -0.06605813 -0.042521883 0.030780349
-0.06681753 0.033756588 0.01674834 0.04206039 0.047851503 0.03099173 -0.04797435 -0.015482124
0.019907285 0.017824259 0.061052408 0.007991578 -0.053429898 0.025419554 0.04911761 -0.042780004

fc2.weight f4 [10, 32]
00000000: 9785 d8bd c280 8e3e 1464 18be e2e0 493e
00000010: 3ad0 e2bd 5a75 183e 783f edbd d025 9dbe
00000020: 0200 5e3e 1ef9 99be 2e8d 1abe 46ad 16be
00000030: 416d e33d 56b4 253e 61f1 7f3d 956c 02bd
00000040: 2ecb 53bd 32d0 4f3e c704 ec3d 9805 a23c
00000050: 5919 a43d 96d1 e2bc e293 81be 5fee 9dbe
00000060: eac4 0cbd f4da 91be 2477 8bbe c949 973c
00000070: bafd d73d 9dfd 02be 770a 5dbd 4df2 f33d
00000080: 8b1f 17be af3b 653e 5590 003e bc11 a2bd
00000090: 2b6d febc 1c26 863e 4d1e edbe 2e51 1b3e
000000a0: a896 b13d c162 98bc cf45 93bd 10c6 6cbd
000000b0: 2f64 97be f2af 8abe ad7c 6fbd 9e3c c93c
000000c0: b1e9 39be 4357 73be 092f 9cbe a11a 8cbd
000000d0: 144e 973d 02f5 673e 3de2 69be ad8e 94be
000000e0: 404d 2dbd 8200 403e 3edc 5c3e 682c 10bd
000000f0: e1d7 65be eb4e 963d c673 743e 9630 1ebe
00000100: 6141 0a3e 6c21 a33d 13c9 e3bd f4b9 e93d
00000110: a726 2bbe 83d3 b43d 4405 a43c 81a1 333e
00000120: bd22 113e f2b8 b2be 6125 e8bc 009a 173e
00000130: 74e9 81bd 8126 28bd 861b 0e3e 6d40 193e
00000140: 0383 323e b5f1 3c3e 7ae4 5fbe 5295 85be
00000150: 2487 073e 7ca6 fdbd 591d 08be 5088 c73d
00000160: 0188 13be b16c a13d 8193 aabd 2f55 b93c
00000170: 06e4 a4bd 1169 c7bd ad99 2d3e 2a2d ffbd
00000180: 4304 82be 61f8 8dbe 0773 adbe 76c1 62bd
00000190: ff86 36be 47f7 ae3d 2e30 30be 4b7d 323e
000001a0: 5188 303e bf30 cd3d 74f3 023d 7901 bcbd
000001b0: 4b09 b3be 4f73 f33c a79e 72bc f966 16be
000001c0: bbbc f63d 6114 013c 92bc 35be 3a9f 353e
000001d0: ce2e 003e 49f4 25be a242 233e 6edc 223e
000001e0: 1e21 8fbc 736c 33bd f84f d1be 0639 dc3d
000001f0: 018a 993d e343 563e 17a6 993d f161 5cbc
00000200: b925 643e 06b5 b5bd da1d 4b3e 88ff 91be
00000210: 9635 29be 09da f93d 3d57 803d da68 6dbe
00000220: 638c c8be 3dc8 3bbe 28c1 1d3e 4e71 4abd
00000230: 44de bdba 40e7 53be 38f4 ef3d f5e6 dc3d
00000240: c11a 533b 53e0 64be fd44 bf3c fed5 6a3e
00000250: a9cb cdbe 60d3 0a3e e988 a03c 2d8f 8ebe
00000260: ca0a 803d 38d1 29bd fc22 083e 4883 223e
00000270: 8137 263e d743 013e 4ba8 3f3e 93b9 a7bd
00000280: 39e1 52be 087b 65be 956c 18be 0a48 8bbc
00000290: 0259 053e 40d0 4d3e b43a 3abe 2a97 95be
000002a0: 24a1 b43d 9597 103e 05d2 21be 5f1d 2b3e
000002b0: 31a8 293e dd70 77bd 1380 ad3c ccf8 cebd
000002c0: 8bda 37be ec22 7bbe 7930 7ebd 658c 373e
000002d0: 4867 da3d a4d9 393d 3a69 323e a145 463e
000002e0: d0c5 f03c d617 ed3c 56db dc3d 8ff6 52bd
000002f0: d785 083e cee9 7dbd b9ae 87be 6a82 163d
00000300: 8bc0 0e3d 004a 273e 28e7 553e e13e 233e
00000310: 3eca cd3d d00c 493e 0ff4 a53d a4c0 62be
00000320: 47c0 23be afce ccba 8c22 333d dcd6 5a3d
00000330: 3eb7 f63d bcfb 2c3e 33d9 003d 7e52 913c
00000340: 321f 4c3d 2aa9 51be 50aa 03be 4d5b 9dbd
00000350: e3d7 bbbe 1e37 9bbe 341f 743e 259a adbe
00000360: 7011 06bd ec30 173e 2ef9 d8bd afa1 b1bb
00000370: 80dc 19be 9f6d 5b3e c903 54be 570d e6bd
00000380: 244d 8bbb 99eb a73c ad1d 9ebe 258f 4fbe
00000390: 11f6 21bd 0729 63be 6688 eb3d 68e1 043e
000003a0: f022 9a3d 767a 1b3e bd0e a73d 8895 a93d
000003b0: 05dc afbe 1a4d b3be 2a73 b1bd 46f0 49bc
000003c0: aae5 27be fa5d 873e cf42 143e 4112 38be
000003d0: daef 1abd 8e8e 4c3e 6801 98be a17d 0fbe
000003e0: abff 073e 5c93 81be 1c06 a8be 820e 293d
000003f0: 19cd 7b3d fec8 263e fc8a 713e 8a17 1fbe
-0.10572355 0.2783261 -0.14881927 0.19714692 -0.11074872 0.14888516 -0.11584371 -0.3069291
0.2167969 -0.30072874 -0.15092918 -0.14714536 0.11104823 0.16182074 0.062486056 -0.031841833
-0.05170744 0.20294264 0.11524349 0.019778058 0.08012647 -0.027687829 -0.25308138 -0.30845925
-0.03436748 -0.2848736 -0.27239335 0.0184678 0.105464414 -0.12792058 -0.05396506 0.119114496
-0.14758126 0.22386049 0.12555058 -0.07913539 -0.031057915 0.2620095 -0.4631218 0.15167686
0.086713135 -0.018601777 -0.07191049 -0.057806075 -0.29568622 -0.2708736 -0.05846851 0.024565037
-0.18155552 -0.23763756 -0.30504635 -0.068410166 0.07387939 0.22652057 -0.2284021 -0.29015103
-0.04231 0.18750194 0.2156839 -0.0351986 -0.22445633 0.07339271 0.23872289 -0.15448222
0.13501503 0.07965359 -0.11122336 0.11412421 -0.16713963 0.08829405 0.020022042 0.17542078
0.14173408 -0.34906727 -0.028338136 0.1480484 -0.06343356 -0.041052345 0.13877687 0.14965983
0.1743279 0.18451579 -0.218645 -0.26090485 0.13235146 -0.1238527 -0.13292445 0.097427964
-0.1440735 0.07882059 -0.083289154 0.022623627 -0.080513045 -0.09736837 0.16953154 -0.12459786
-0.25393876 -0.2772856 -0.3387682 -0.05536028 -0.17824934 0.08543258 -0.17205879 0.17430608
0.172395 0.10019063 0.031970456 -0.091799684 -0.34968027 0.02971807 -0.0148083335 -0.14687718
0.12047716 0.007878394 -0.17747715 0.17736521 0.12517855 -0.16206469 0.15943387 0.159044
-0.017471846 -0.043804597 -0.40881324 0.10753064 0.07497025 0.20924334 0.07502382 -0.013451085
0.22280015 -0.08872418 0.19835606 -0.28515267 -0.16524348 0.1219979 0.062666394 -0.23184529
-0.39169607 -0.18338104 0.15405715 -0.049424462 -0.0014485796 -0.20693684 0.11716503 0.10786239
0.0032211991 -0.22351198 0.023348326 0.22933194 -0.40194443 0.13557196 0.019596534 -0.2784361
0.06252058 -0.041459292 0.13294595 0.15870392 0.1623211 0.12623535 0.18716542 -0.08189692
-0.20593728 -0.22410214 -0.14885171 -0.017002124 0.13022235 0.20098972 -0.18186456 -0.29216892
0.08819798 0.14120324 -0.15802772 0.16710423 0.16568066 -0.06041037 0.021179235 -0.10106048
-0.17954461 -0.2452504 -0.062057946 0.1792465 0.106642306 0.045373574 0.17422953 0.19362499
0.0293912 0.02894203 0.107840225 -0.051504668 0.13332306 -0.06199055 -0.2650049 0.036745466
0.034851592 0.16336823 0.2088896 0.15941955 0.1004834 0.19633794 0.08103191 -0.22143799
-0.15991317 -0.0015625561 0.04373412 0.053427562 0.120466694 0.16892904 0.031457137 0.01773953
0.049834438 -0.20474687 -0.12857938 -0.0768343 -0.36688146 -0.3031549 0.23840028 -0.33906665
-0.032731473 0.14764756 -0.10594402 -0.0054208855 -0.1502552 0.21428536 -0.20704569 -0.11233013
-0.0042511392 0.020498084 -0.30882016 -0.20269449 -0.039541308 -0.2218362 0.11500625 0.1297661
0.07526195 0.15183434 0.08157108 0.08280474 -0.3434755 -0.3501976 -0.08664544 -0.012325352
-0.16396204 0.26438886 0.1447861 -0.17975713 -0.037826397 0.19976255 -0.29688573 -0.14012767
0.13281123 -0.2530774 -0.3281716 0.0412736 0.061474893 0.1628761 0.23588175 -0.15536323

fc2.bias f4 [10]
00000000: 9f9b 143d c24c 093d 3268 28be b016 a6bd
00000010: 576d 1e3e 755f ae3d 9d32 cfbc 6bdf cd3d
00000020: 598c c93d c808 cbbc
0.036281224 0.033520468 -0.16445997 -0.08109796 0.15471397 0.08514301 -0.025292689 0.10052379
0.09841222 -0.02478446
