models/mnist_model_20241118_114946.pth (torch, 59224 bytes, 16 tensors)

conv1.weight f4 [4, 1, 3, 3]
000000 fd f0 b5 3d 54 e0 55 3e 03 d8 f3 3d 22 28 47 bd
       0.088838555 0.20886356 0.11906435 -0.048622258
000010 df b7 33 bd e5 d1 4c be 8f 65 7f be d7 ee b0 bd
       -0.043876525 -0.20001943 -0.24941085 -0.08639305
000020 05 ab d1 bd 3f 8b 6f be 21 c5 85 3e c2 27 de 3c
       -0.102376975 -0.23392962 0.2612696 0.027118567
000030 d8 88 a4 be 32 e3 93 3e 89 4a 88 3d d6 a5 60 be
       -0.32135653 0.28884274 0.066548415 -0.21938261
000040 2b 58 3d 3d 94 2b 87 3e 2d 9b 0c 3e 22 bb 21 3e
       0.04622666 0.26400435 0.1373107 0.15794042
000050 d2 96 50 3e ed 13 cc bc eb 34 9e bc 7a 7d 0b 3e
       0.20370033 -0.024911845 -0.019312343 0.13622084
000060 4f e7 75 bc 3d a9 1c be 60 a6 c2 bd da 2e 00 3c
       -0.015008762 -0.15298934 -0.0950439 0.00782367
000070 9f 3b ae be 28 a2 57 be 9c 06 be be 33 03 c0 3d
       -0.34029862 -0.21057951 -0.37114418 0.0937561
000080 8e ce 6f 3e 12 e3 0c be f3 d5 31 3e 39 8a 30 3d
       0.23418638 -0.13758495 0.17366771 0.04310057

conv1.bias f4 [4]
000000 b2 d9 37 be 9f cf 78 3e 73 30 38 be ce 1b 1f be
       -0.17954138 0.24297951 -0.17987232 -0.1553795

bn1.weight f4 [4]
000000 47 90 8b 3f 66 63 77 3f e8 f6 7a 3f 6b b2 85 3f
       1.0903405 0.96636045 0.98033 1.0445074

bn1.bias f4 [4]
000000 1f bc d8 bd 8f 62 74 bd be cb b2 3c e1 e4 fa bd
       -0.10582756 -0.059664305 0.021825667 -0.122506864

bn1.running_mean f4 [4]
000000 92 f4 3e be 3a 7a 72 3e 38 cc 30 be 4e 34 29 be
       -0.18647984 0.23679438 -0.17265403 -0.16523859

bn1.running_var f4 [4]
000000 a2 5e 50 3e 48 6f 94 3e 44 dd 2b 3e c1 7c be 3e
       0.203486 0.2899115 0.16783625 0.37204555

conv2.weight f4 [8, 4, 3, 3]
000000 3b 5b 59 3e b0 b6 98 3c 17 f5 72 be 98 6e 53 3d
       0.21226208 0.0186418 -0.23726307 0.051619142
000010 c4 af 37 be 7b 20 e0 3c ab 52 35 3e e5 00 d5 bc
       -0.17938143 0.027359238 0.17707317 -0.026001403
000020 01 b5 0e bc 70 5e e0 bd e9 05 92 bd 7b 69 12 3d
       -0.008710147 -0.109555125 -0.071300335 0.035745125
000030 68 69 27 3d 75 8c c9 bd 18 e6 10 3e 1b 45 3d bd
       0.040872008 -0.09841243 0.14150274 -0.046208482
000040 b7 06 a4 bd 8d 25 57 be ab 6e 83 bd 75 10 35 3e
       -0.08009093 -0.21010418 -0.064175926 0.17682059
000050 80 ae 95 3d b4 46 b6 bd fa 97 e8 3c f7 52 07 3e
       0.07308674 -0.08900204 0.02839278 0.13215242
000060 c1 b1 fd 3d 21 f0 72 bd 9e 24 da 3c f7 f9 33 bd
       0.123874195 -0.059311036 0.026628789 -0.043939557
000070 59 e4 b5 bd b5 2b 75 3c f2 38 f1 bd 3f 56 82 be
       -0.088814445 0.014964034 -0.117784396 -0.25456426
000080 9a 66 25 3d 8e d2 80 3d 3a bd c5 bb 43 be eb 3c
       0.04038105 0.0629016 -0.0060345205 0.028777247
000090 e5 5d 20 bd 79 75 a1 3d ee ad 10 bd 35 f2 90 3d
       -0.039152045 0.07883734 -0.035322122 0.07077447
0000a0 ef 70 f3 3c 7f 3a 1e bc d2 06 07 3e 52 e3 a4 3d
       0.029716937 -0.009657501 0.13186195 0.080511704
0000b0 9e ee 31 be 5d 05 a1 3c 5d b1 58 3d 4d cb a6 bd
       -0.17376181 0.019655878 0.05290352 -0.08144245
0000c0 0e 00 7d 3d f3 27 1f 3e 8e 66 0d 3e 88 1d 4d 3d
       0.06176763 0.15542583 0.13808653 0.05007699
0000d0 0b 0d f5 3d 30 af 17 be 24 ec 68 bd 8c 97 38 be
       0.119653784 -0.14812922 -0.056865826 -0.1802656
0000e0 a1 82 7a 3d d8 d8 46 be b2 7c 93 bd 2b bc 7f 3d
       0.061159734 -0.19418657 -0.07201518 0.06243531
0000f0 cd 4f a1 bd 5d bd da bc 29 c9 51 bc df 38 01 3e
       -0.07876549 -0.026701624 -0.012804308 0.12619351
000100 18 2e 97 3e 53 c0 b4 3e b4 df 80 3d e7 5a 87 3e
       0.29527354 0.35302982 0.06292668 0.2643654
000110 08 23 02 3e 83 a7 f9 3d 10 2f 49 bc fd ca 05 bd
       0.12708676 0.121901534 -0.012279287 -0.032664288
000120 75 51 f9 bd 23 90 6d 3d 7f 93 44 bd 74 20 dd bd
       -0.1217374 0.057998788 -0.047992226 -0.107972056
000130 75 d7 2c bd 2e 62 61 3d c7 76 bb bc 70 f8 40 bd
       -0.042197663 0.055025272 -0.022883786 -0.04711193
000140 58 76 46 3e 07 24 40 3e cf c7 67 3d da f8 8d bd
       0.19381082 0.18763743 0.056587037 -0.0693223
000150 29 b3 f6 3d 9c b8 93 3d f3 de 49 bb 91 f1 3f be
       0.12045891 0.07212946 -0.0030803054 -0.18744494
000160 52 b8 1b be b8 78 1b 3c 95 17 63 3d 11 4b 3c 3b
       -0.15207031 0.009489231 0.05544241 0.0028731267
000170 5c d7 e8 bd 39 3f 90 bc d6 f4 84 3d cc 04 b0 bc
       -0.113692015 -0.017608272 0.06492011 -0.021486662
000180 b2 0e d9 3d 6a da b3 bd ac 38 08 3e 88 cf a1 bd
       0.10598506 -0.087818936 0.13302869 -0.079009116
000190 84 e6 a2 bd 1b a5 b8 3d af 08 88 3d 7b 60 3f 3b
       -0.079541236 0.09015866 0.06642281 0.0029201794
0001a0 fb af 82 3d 57 c5 b7 bd d3 6f 74 bd fd ee 1b bd
       0.06381222 -0.089731865 -0.059676956 -0.038069714
0001b0 00 15 93 bc 1e d0 08 bd 82 2f d1 3d 62 f6 f0 3d
       -0.01795435 -0.0334016 0.102141395 0.11765744
0001c0 7f d1 98 bd f5 dc d3 3c 40 b5 15 3e 5d 93 dd 3d
       -0.07461833 0.025862196 0.14619923 0.10819123
0001d0 f7 13 2a be 0d 5b e7 bc fb d7 44 3b 72 29 3e bd
       -0.16609178 -0.028241659 0.003003596 -0.046426244
0001e0 5f 4d 98 3d 7e 3f 3c 3e 5d 77 61 3d 90 4f 02 bc
       0.07436632 0.18383595 0.055045474 -0.0079535395
0001f0 47 48 81 3c ea 92 89 3d 7d 35 b2 3d d2 7b 05 be
       0.015781535 0.06717475 0.08701608 -0.13035515
000200 a6 1e db bd 0e 1c 8a bd f6 56 f3 3c eb 4a 3a be
       -0.10699205 -0.06743632 0.029704552 -0.18192641
000210 64 f4 b5 3d 7b ec 9b 3d 4e 03 1b 3d cf ef 9e bc
       0.088845044 0.076134644 0.03784495 -0.019401459
000220 a7 dc bb bd ab 45 1c be 9a 25 b3 bd 6a b0 96 3d
       -0.091729455 -0.15260951 -0.08747406 0.07357867
000230 5d 5f 9f bd b0 30 b6 bd c2 d1 e7 bd 38 e6 00 be
       -0.07781861 -0.08896005 -0.11319305 -0.12587821
000240 1f 9c 10 3e 31 0d 8f 3e 62 a1 f8 3d b0 fa b9 3a
       0.14122055 0.27939752 0.12140156 0.001418909
000250 67 87 12 3e 33 13 d2 3d 50 36 35 3c e7 68 5c 3d
       0.14309464 0.10257568 0.011060312 0.05381098
000260 dd 31 00 3e 0a ce de bd ce 0d db bd a9 f0 f3 bd
       0.12519021 -0.108791426 -0.106959924 -0.11911137
000270 de a9 2f bd 6b 67 30 bd b2 3d 0a bd 36 9b e7 ba
       -0.042886607 -0.043067377 -0.033750243 -0.0017670158
000280 1d 68 15 3d e3 0c de 3c f6 2d 17 bd 31 6d be 3c
       0.036476243 0.027105754 -0.036909066 0.023245426
000290 95 40 0e 3d 7b 56 00 be 8e e1 89 bd d6 25 99 bd
       0.03472956 -0.1253299 -0.06732474 -0.0747792
0002a0 5a a3 26 3e 44 8a 29 3e 2a 6b 40 3e ce 88 fb 3c
       0.16273251 0.1655665 0.1879088 0.030704882
0002b0 6f e8 b5 bd de c5 a2 3d 2b 7d af 3b c1 4c 67 bd
       -0.08882224 0.079478964 0.0053554974 -0.056469683
0002c0 6e f6 96 bc bf 0f 43 bd 05 12 6b 3c 88 1c 3b bc
       -0.018428054 -0.04762244 0.014347558 -0.011420377
0002d0 57 8e 3b bd 68 a3 e4 bc 0e 82 e4 bd 72 6a 1c ba
       -0.045790043 -0.02790995 -0.111576185 -0.00059667893
0002e0 a0 11 39 be 80 b1 19 be 35 f2 1e bc fa 7e 67 3c
       -0.1807313 -0.15009117 -0.009701301 0.014129395
0002f0 a4 24 dd bd 8c 93 c4 3d 4f 64 49 3e d5 82 a3 3d
       -0.10798004 0.09598455 0.19667171 0.079839386
000300 1a 74 be 3d d1 c9 20 3e 62 d9 48 3c d2 25 75 3d
       0.09299488 0.15701987 0.012258859 0.05985052
000310 6a ee d9 3d 8d 2b 2f 3d 35 70 7b bd 39 63 09 3c
       0.10641177 0.042766143 -0.061386306 0.008385473
000320 79 c0 7e 3d 07 67 c3 bd 06 04 c2 3d 11 c2 ce bd
       0.062195275 -0.09541135 0.09473424 -0.10095609
000330 6b 8a f2 bd 12 5c cb bd b0 58 db bd 68 3e 0a be
       -0.118428074 -0.099296704 -0.10710275 -0.13500369
000340 9d f7 62 bd 4d 5d 96 3d 7b 39 70 3d 74 d3 bb bd
       -0.055411924 0.073420145 0.058648568 -0.09171191
000350 30 92 0e 3d 5a 91 5d 3c b0 05 29 be 46 43 cb bd
       0.034807384 0.013523424 -0.16506076 -0.09924941
000360 30 46 e4 bd 20 a3 c9 bd 7f 14 24 bd eb 40 59 bd
       -0.111462 -0.09845567 -0.04005861 -0.053040426
000370 5b 17 c5 bd 9b 2f 3d bc a9 68 21 3e 62 7c 73 bd
       -0.09623595 -0.011546995 0.15762581 -0.059444793
000380 98 83 01 be 17 be 67 3d 15 c8 21 3e d5 d6 0f 3e
       -0.12647855 0.05657777 0.15798981 0.14046796
000390 3f 36 0c 3e 68 81 47 bd 22 fa e7 3b cc b4 a0 bd
       0.13692568 -0.048707396 0.0070793787 -0.07846984
0003a0 6c 32 9b bd 28 4d b9 bd 11 44 e3 3d ad 85 be 3d
       -0.075779766 -0.090479195 0.11096967 0.093028404
0003b0 d6 dd 3a be e7 6a ce bd 17 b7 5a 3d 3a 2a 97 3c
       -0.18248686 -0.10078984 0.053397264 0.018452752
0003c0 2c ee dc 3c 3e e2 a0 bd 79 75 e3 3d 04 d1 c3 bc
       0.026969038 -0.07855652 0.111063905 -0.023903377
0003d0 c7 64 73 be c7 a1 ae bc 43 45 31 3e 75 6a 31 bb
       -0.23768912 -0.021317376 0.17311577 -0.002707151
0003e0 bc 68 1d be 70 bc 25 bd c5 a0 84 3e 42 d3 21 3d
       -0.15371984 -0.04046291 0.25903907 0.03950811
0003f0 c5 d3 22 bd 8d 31 75 3a 26 17 95 bc dd 44 84 3c
       -0.03975274 0.0009353392 -0.018199515 0.016146118

conv2.bias f4 [8]
000000 e6 31 b1 3d e9 fb 82 bd 25 d8 12 3e 03 7d 65 3c
       0.086520955 -0.06395704 0.14340265 0.014006856
000010 a8 44 99 bd e8 06 fe bd fd e9 14 bd 58 17 99 3c
       -0.07483798 -0.12403661 -0.03635596 0.018687889

bn2.weight f4 [8]
000000 54 f9 a7 3f 1a b3 ab 3f 15 92 9d 3f a4 b5 ad 3f
       1.3122964 1.3414032 1.2310206 1.3571057
000010 10 8f a8 3f 56 49 a5 3f 7d 87 a5 3f f3 37 a5 3f
       1.3168659 1.2913005 1.2931973 1.2907699

bn2.bias f4 [8]
000000 78 fc ce 3d 2e 30 17 3e 52 30 dd 3d 88 29 90 3d
       0.10106748 0.14764473 0.10800232 0.070391715
000010 d8 8b 55 3e 4e e1 d5 3d e4 69 ac 3d 8d cf 3e 3e
       0.20854127 0.10443364 0.084186345 0.18633862

bn2.running_mean f4 [8]
000000 9f 8b 79 bc ca 20 a7 3e 94 fe 22 3e 1f fe d1 bd
       -0.015231042 0.32642204 0.15917426 -0.10253548
000010 cb e0 78 3e 9c 74 b6 be c2 3b a6 bd 5a 8c ba 3e
       0.24304502 -0.3563584 -0.08116867 0.36435205

bn2.running_var f4 [8]
000000 68 a5 08 3e 15 59 bf 3e a7 07 2b 3e bd ff 16 3e
       0.13344347 0.37372652 0.16702138 0.14745994
000010 45 07 4c 3e a6 b1 4c 3e 99 86 a4 3d 46 a1 51 3e
       0.19924648 0.19989643 0.08033485 0.20471677

fc1.weight f4 [32, 392]
000000 36 69 4f 3c 09 d1 cf 3c 12 65 15 3d 32 dc 19 bc
       0.012659362 0.02536823 0.03647334 -0.009390878
000010 c7 e7 ac 3c fd 20 ac bc c7 69 db 38 e6 9b 09 bd
       0.021106614 -0.021011824 0.00010462436 -0.033595942
000020 76 97 6e bd 3c b6 e1 bc 16 50 04 bd a3 d3 d5 bc
       -0.058249913 -0.027552716 -0.03230294 -0.026101893
000030 db 42 34 3c 92 14 28 3d 30 a0 14 3d 7e 1e 27 bd
       0.011002268 0.041035242 0.03628558 -0.040800564
000040 6b 72 55 bd d2 2d 0f 3c 48 65 0f bd 35 f3 cd 3c
       -0.05211107 0.008738952 -0.0350087 0.025140384
000050 8f 91 53 bd 2f 06 17 3d 7f a4 7b bc 6b ee 05 3d
       -0.051652487 0.03687113 -0.015359043 0.032698076
000060 44 91 90 3b 9c 21 9b bc 7f a5 04 3d eb a0 83 bc
       0.0044118483 -0.018936925 0.032384392 -0.016067943
000070 84 a9 cb 3c cd 9e 02 bd 1c 47 6f bd 73 bf 67 bc
       0.024861105 -0.031889725 -0.058417425 -0.014144766
000080 a5 cc 4e bd dc be 42 bd d6 16 8c 3c 04 45 c1 3c
       -0.050488133 -0.0475453 0.017100733 0.02359248
000090 8a a4 62 bd 3a 49 52 bd d3 59 64 3c 52 28 96 3b
       -0.055332698 -0.051339366 0.013937431 0.0045824433
0000a0 ff cd ff 3a 44 1b 38 bd 54 00 9c 3c 6d dc c8 3c
       0.0019516348 -0.044947878 0.019043125 0.02451917
0000b0 35 f7 31 3c 53 f5 14 bd 42 74 35 bd db d0 1c bd
       0.010862161 -0.036366772 -0.044300325 -0.038285118
0000c0 41 b8 02 3d 03 fa 23 bd 5b 6e a5 bc 58 93 3f bc
       0.031914 -0.04003335 -0.020194223 -0.011692844
0000d0 99 70 13 bd c7 11 50 bb 7c ea a5 bc 0c 32 15 3c
       -0.035996053 -0.0031748877 -0.020253412 0.00910617
0000e0 04 b6 8f bc 85 1d a8 bc 12 97 b1 3b c7 e8 c8 bc
       -0.017542847 -0.020521889 0.0054196203 -0.02452506
0000f0 4f ef af bc 75 f3 10 bd 12 df d4 3c 45 22 04 3d
       -0.021476416 -0.03538843 0.025985274 0.032259244
000100 fc fa c3 3c 2b ef bd 3c 21 b6 db bc 8e 22 25 3d
       0.02392339 0.023185333 -0.026820244 0.040316157
000110 7c 1c 17 bd 36 9e b6 bc af 98 e4 3c 21 5e 1e 3d
       -0.0368924 -0.022292238 0.027904836 0.038663987
000120 9a 03 19 3d 92 66 18 bc d2 62 9e bc 04 be b8 bb
       0.03735695 -0.009301798 -0.01933423 -0.005637886
000130 02 ca cb bc a4 43 24 3d 4e 45 49 3c 12 ff 40 bd
       -0.024876598 0.04010357 0.01228459 -0.047118254
000140 8a d0 d6 bc 3a 52 1a 3d 20 5f 10 bc 3c 80 2e 3c
       -0.026222486 0.037676074 -0.008811742 0.010650691
000150 4d f4 ee 3c ba 7c 26 3c 9a 4f 24 3c 47 e9 47 bd
       0.029169226 0.010161573 0.010028744 -0.048806455
000160 16 47 17 3c 3e 63 f0 3b 6c e5 1c bd f0 62 1e bb
       0.009233257 0.0073360493 -0.03830473 -0.0024167858
000170 62 07 cd bb be b0 e2 3c 59 af be bc 97 1a 25 bd
       -0.0062569836 0.027672168 -0.023276972 -0.04030856
000180 06 27 5a 3c 3c fb 1d 3d 89 6c ba 3c 8c 64 e4 3c
       0.013314968 0.038569674 0.022756832 0.027879976
000190 99 f8 e3 bc a5 60 02 bb 87 ae 65 3d ca 69 e2 bc
       -0.027828502 -0.001989403 0.056074645 -0.027638335
0001a0 28 85 86 bb 68 56 18 3d 75 3a c9 3c 80 cb ca 3c
       -0.004105229 0.03719178 0.024564007 0.02475524
0001b0 0e 6d e2 3c 4a aa a3 3c c1 db 15 bd 39 d6 a8 bc
       0.027639892 0.019978661 -0.036586527 -0.020609962
0001c0 63 42 42 3c e6 5c b4 bc f6 1e b5 bc 55 f5 32 3c
       0.011856648 -0.022016954 -0.02210949 0.0109227495
0001d0 26 96 25 bd 81 0e 24 bc b9 df 6c bd 07 55 b2 bc
       -0.040426396 -0.010013224 -0.057830546 -0.02176906
0001e0 34 00 18 3d cd 54 a7 3c aa a8 22 bc 80 9a 00 3d
       0.03710957 0.020426178 -0.009927908 0.031397343
0001f0 a2 5b 25 3d a7 fb 4e bd 8b 84 e6 bc 84 4f e2 3c
       0.04037059 -0.050532963 -0.028139373 0.027625807
000200 ed 85 69 bd dd cc 23 bd f9 39 0e bc fa d4 4a bd
       -0.057012487 -0.039990295 -0.008680814 -0.049519517
000210 30 5d a8 3c fd 1b be 3c 60 52 fb 3b 6e a0 be bb
       0.020552248 0.023206705 0.007669732 -0.0058174646
000220 ff ac 33 3c ce 61 31 bd 12 a1 49 bc 71 4e 1d bd
       0.010966538 -0.043306164 -0.012306469 -0.038404886
000230 5e c9 06 bd 91 fa 43 bd 25 7e a6 3c 27 4c 28 bd
       -0.032906882 -0.04784638 0.020323822 -0.04108825
000240 ed 2f f7 3c 9a 01 75 3b f0 4d 0d bb 73 cb 47 bd
       0.03017422 0.0037384988 -0.0021561347 -0.04877801
000250 c0 a2 2c 3b c8 61 5e bd db 16 eb bc 91 a3 f6 bc
       0.0026342124 -0.05429247 -0.028697422 -0.030107291
000260 ff c1 5c bd 53 8b 59 bd dd 99 de bc 5b 2e 89 bc
       -0.053895947 -0.053111386 -0.027172977 -0.016745737
000270 da c9 1e 3d d3 68 04 bd e0 93 f6 bc 8e 78 60 bd
       0.03876672 -0.03232653 -0.03009981 -0.05480247
000280 b9 9d a9 bc eb 32 13 bd 00 47 9a bc 5a c1 8e 3c
       -0.02070509 -0.03593723 -0.018832684 0.017426182
000290 ad cf 64 3c e4 3a 3c 3c 9d dd 62 bd 4d 68 c7 3b
       0.013965529 0.01148865 -0.05538713 0.0060854317
0002a0 39 bc 59 bd d8 81 02 bd 5b 79 59 3c 0e cd 3e bd
       -0.05315802 -0.03186211 0.013273562 -0.046582274
0002b0 46 02 bd bc 50 06 2b bd 12 f1 2c bd b2 0d 8f 3c
       -0.023072373 -0.041754067 -0.04222209 0.017462585
0002c0 a9 66 49 bd 59 a0 2e bd e8 80 a9 bc d2 fe 7c bc
       -0.04917017 -0.04263339 -0.02069135 -0.015441613
0002d0 b8 cf 2b bd cc 2f f8 bc 15 fd 9d bb b7 f3 bb bc
       -0.041946143 -0.030296229 -0.0048214295 -0.02294336
0002e0 b6 a8 61 bc 10 1b 03 bb 48 ab f3 bb 16 19 16 3d
       -0.013773134 -0.0020005144 -0.00743619 0.036645018
0002f0 2e d0 8f 3b c1 1c 0b 3d 2d 01 23 b9 7c 62 a3 bc
       0.0043888306 0.03396297 -0.0001554533 -0.019944422
000300 c7 bb 98 3c e2 34 02 3d e7 9c 93 bc 92 da 97 3c
       0.018644227 0.031788714 -0.018019153 0.01853684
000310 9f 62 1b bd 62 a2 9a 3c b0 d8 57 bd 5d e3 8d bc
       -0.03793585 0.018876258 -0.052696884 -0.01732033
000320 aa d9 02 37 7d b0 51 bd c5 90 18 3d 9c 18 ec 3c
       7.799283e-06 -0.051193703 0.037247438 0.028820328
000330 6e e3 c8 bc ce 6e 35 3a fe 13 64 bd 12 e3 cd bc
       -0.02452251 0.0006921113 -0.05568313 -0.02513269
000340 84 13 ef 3c 6b fc 1c 3c 1b ab cb 3c c3 5a d6 3c
       0.02918411 0.0095816655 0.024861863 0.026166325
000350 8b 98 14 bd 14 40 06 3d 9e 26 23 3d 2a 8e af bc
       -0.03627829 0.032775953 0.03983175 -0.021430094
000360 8e fe 24 3d 22 c1 a0 ba 7a 48 56 bc f2 ff 2a 3c
       0.040281825 -0.0012264589 -0.013078803 0.010436999
000370 19 f0 0b 3d 36 e3 31 bd 91 be 5f bd d4 82 ec 3a
       0.03416452 -0.043429576 -0.054625098 0.0018044361
000380 c3 98 dc bb 36 9b f1 bc 73 70 3a bd 0c b8 16 3d
       -0.006732078 -0.029492956 -0.045517396 0.036796615
000390 c6 d8 b1 3c 1a c7 19 bc d4 39 0b 3d 10 a4 20 3d
       0.021709811 -0.009385848 0.033990696 0.039218962
0003a0 4c 52 93 bb 1f 06 52 bd 7f 79 a5 3b 45 1e 3f bd
       -0.0044958945 -0.05127537 0.005049884 -0.046659727
0003b0 f7 ac db bc 5e 06 23 bd 02 60 06 bb 94 63 dc 3b
       -0.026815875 -0.039800994 -0.0020504002 0.006725738
0003c0 22 3c 92 bc 22 f8 2d 3b df aa e8 3c fa bc b2 bc
       -0.01785094 0.0026545604 0.02840179 -0.021818627
0003d0 48 ee 59 bd 32 5a a6 3c c8 ed 89 39 49 e9 7f bc
       -0.05320576 0.02030668 0.00026307837 -0.015619584
0003e0 e3 b2 ff 3c 17 ce cd 3c 4e 21 c5 3b 78 b3 6c 3c
       0.03121323 0.025122685 0.006015933 0.014447086
0003f0 42 46 d1 3c 4b d4 cf bc d0 6f a1 bc be 7f b6 bc
       0.025546197 -0.025369784 -0.019706637 -0.02227771

fc1.bias f4 [32]
000000 08 fa 04 3d e0 7c a5 3d c9 f0 ca 3a 7e 20 60 3d
       0.03246501 0.08080459 0.0015483137 0.054718487
000010 67 49 d2 bb 7a ec 82 bd df 8f 17 3d 26 15 6e 3c
       -0.0064174416 -0.063927606 0.03700244 0.014531409
000020 88 af 8f bd 4f 32 b8 3d bf b6 2b bd 3a a2 23 3d
       -0.07015902 0.089939706 -0.041922327 0.039949633
000030 57 bc bb ba d7 1d 18 3c 36 73 25 3d af 6a ff bb
       -0.0014323097 0.009284458 0.040393077 -0.0077947
000040 53 6f c5 3d 3b 7a 72 bd ef 96 87 3c a8 61 be bc
       0.09640374 -0.0591986 0.016551463 -0.023239926
000050 d1 b0 0e 3d 17 c3 9d 3d d7 d6 ef bb 4d 40 34 bc
       0.034836594 0.07703226 -0.007319312 -0.011001659
000060 00 59 b4 3b 8a 83 99 3b af ea 7e 3d 91 2d 60 bd
       0.0055037737 0.00468487 0.06223553 -0.054730956
000070 02 58 1e bd 17 23 d3 3c 4d c1 31 bd a0 31 f3 bc
       -0.03865815 0.025773568 -0.043397237 -0.029686749

fc2.weight f4 [10, 32]
000000 25 f3 e2 bb e2 1d 74 3e 6e f3 1c be 39 f4 1d be
       -0.0069259577 0.23839524 -0.15327236 -0.15425195
000010 77 1d ce 3c df ae 10 3e ff 5a 15 be 8e 95 eb bd
       0.025160534 0.14129208 -0.14585494 -0.11503135
000020 24 ea 89 3e e4 be 13 be 82 f2 38 be 28 f9 6f 3e
       0.26936448 -0.14428288 -0.1806126 0.2343489
000030 45 21 51 3d f8 b4 a4 be cb 1f 02 3d 50 50 15 3c
       0.05105712 -0.32169318 0.0317686 0.009113386
000040 59 01 3d 3e cf 70 4c be 35 d5 d4 3d 67 47 9d bd
       0.18457545 -0.19964908 0.103922285 -0.076796345
000050 69 c6 61 be 64 7c 9e 3d f7 0d 7a 3d 52 c3 03 be
       -0.22048344 0.077385694 0.061048474 -0.12867478
000060 ab 16 53 be 0d d3 55 3e 92 f4 09 3e fc 70 20 3e
       -0.20614116 0.2088129 0.13472202 0.156681
000070 01 e9 90 3b eb ef 23 be c1 71 83 bc 2f fc 92 be
       0.0044223075 -0.1600949 -0.016045453 -0.28708026
000080 6d fd f8 3d e7 8c 86 3e b5 26 8d be 6c a8 84 bd
       0.12157712 0.26279375 -0.27568594 -0.064774364
000090 1e 95 98 be 49 cf bb be d1 ec bb 3d 97 cb 2e bd
       -0.29801267 -0.36681584 0.091760285 -0.042674627
0000a0 a3 52 ae be 9e 3c 68 3e 55 49 3f 3e ad 81 ad 3d
       -0.34047422 0.22679374 0.18680318 0.08471999
0000b0 1f e6 91 be fc c0 49 bc 24 53 db 3d e6 f0 88 bd
       -0.2849588 -0.0123140775 0.10709217 -0.06686573
0000c0 cc 02 02 3e e0 8f fd 3d 13 e6 82 bd 84 2c ea bd
       0.1269638 0.123809576 -0.063915394 -0.11434272
0000d0 8a c3 76 3e fb 3f cc 3d 9c 7f 86 bd 59 d7 3c be
       0.2409803 0.09973141 -0.06567308 -0.18441524
0000e0 c3 4d 5f 3e 93 9b 4d be 75 e8 8c 3d fa 44 14 bd
       0.21807007 -0.20078878 0.06880275 -0.036198594
0000f0 11 be 99 be c4 d7 50 be c2 69 7d be b6 51 e9 3c
       -0.30027822 -0.20394808 -0.24747375 0.028481346
000100 df 6b b3 3d df be 99 3e 22 24 26 3e 80 73 c4 3d
       0.08760809 0.30028436 0.16224721 0.095923424
000110 e6 f9 e6 3d 42 60 31 be 0d 46 13 be 97 b3 9b bd
       0.11278133 -0.17321876 -0.14382191 -0.076026134
000120 5a d6 79 be 1a 7c 8e be 4c 16 5e be 13 44 31 3e
       -0.24398175 -0.27829057 -0.21688193 0.17311125
000130 58 f7 9c be 9b 46 47 3e af 4e 95 3d b7 d0 0a be
       -0.30657458 0.19460528 0.07290398 -0.13556181
000140 8b 56 52 be 7e de e0 3d 76 f7 a3 bd 43 e5 a4 3c
       -0.20540826 0.10979937 -0.08006184 0.020128852
000150 9e ff d3 bd 08 50 bc 3d e2 e5 81 bd e4 6e 55 be
       -0.103514895 0.09194952 -0.06342675 -0.20843083
000160 e9 e4 23 3e 85 6d 02 bd 74 ee 08 be fc f0 4e bd
       0.16005291 -0.031842727 -0.13372213 -0.05052279
000170 9c 07 98 3d cc 6b b6 bc 2a cd 1b 3e 87 ea 45 be
       0.074233264 -0.022268198 0.15214983 -0.19327746
000180 40 d1 f5 bd 9b 0d a5 be 0e 4d b4 3d d3 92 cb bd
       -0.12002802 -0.32236943 0.088037595 -0.09940114
000190 41 ae 2e 3e 40 7c 03 3e ec 83 25 be c8 06 12 be
       0.1705866 0.12840366 -0.16163605 -0.142604
0001a0 0b 82 47 be 6c c2 9c bb 7c 53 9a be bc 4e 54 be
       -0.19483201 -0.004783919 -0.3014182 -0.2073316
0001b0 a6 1c 9e bd 0d 09 47 3e e2 55 e3 bd bc 62 14 be
       -0.07720308 0.19437046 -0.11100365 -0.14490789
0001c0 6e a4 1d 3e ac 88 07 be cc ea 07 3e 4a 29 ab 3d
       0.15394756 -0.1323573 0.13273162 0.08357485
0001d0 fe ca 8d be cb 50 08 3d 39 01 b8 3d ae b9 95 39
       -0.27693933 0.033280175 0.08984608 0.00028557837
0001e0 fc cd e3 3d d2 83 a3 be 7e 57 d7 3d d1 1d 5b 3d
       0.11123273 -0.31936508 0.10514735 0.053495232
0001f0 96 41 99 be 05 d5 65 3e b3 8c 16 3e d2 88 5b 3e
       -0.2993285 0.22444542 0.1470211 0.21438912
000200 a3 61 63 bd 75 e7 bd 3c 9f 2d 66 bd f2 1f 8f 3e
       -0.055513036 0.023181656 -0.05619585 0.2795406
000210 63 1a af be 60 61 bb 3d 07 51 18 be 9e 88 2b be
       -0.3419982 0.09149432 -0.1487466 -0.16751334
000220 92 18 85 3d 79 de 2d be 4e 84 c7 3d 87 ae a0 be
       0.06498827 -0.16979398 0.09742032 -0.31383154
000230 da e8 df bd c9 9b f7 bd fe 95 1b 3e 29 d6 b1 bd
       -0.10933085 -0.120902605 0.15193936 -0.08683426
000240 a1 57 f3 3d 57 b4 53 3e d7 c8 6f bd 8f f4 24 3d
       0.11881948 0.20674263 -0.058541145 0.04027229
000250 ed 0a 6c 3e 4b 79 8e bd 35 68 80 3d 53 84 5b 3d
       0.23051043 -0.069567285 0.06269876 0.05359299
000260 41 99 10 3a 80 e4 0a 3e 6f a1 0a be 25 9a 2d be
       0.00055160007 0.13563728 -0.13538145 -0.16953333
000270 c4 4e 46 3e 16 14 8e be a0 c2 8a be e6 9b 81 be
       0.19365984 -0.277497 -0.27101612 -0.25314254
000280 ff a4 d9 bd 04 ea 86 be ce 75 0c 3c df 4f 98 be
       -0.10627174 -0.26350415 0.008573009 -0.29748437
000290 93 4c b6 bd d0 38 5c 3e 14 ba a5 3d a6 b7 13 bd
       -0.08901324 0.21506047 0.08092132 -0.036063813
0002a0 f6 c5 b9 3c de ef 8d 3e 93 74 86 be 92 1d 5a be
       0.022677403 0.27722067 -0.26260814 -0.21300343
0002b0 de a5 3c 3e cf 92 66 3e 0b 1e e0 3d d6 cc 41 3d
       0.18422648 0.2251694 0.1094323 0.047314487
0002c0 af 9f d2 bd ea b5 13 3d 36 44 94 3d e3 6a 18 be
       -0.102843635 0.03606216 0.07239573 -0.14884524
0002d0 67 51 9f be 9b 0c e0 bd 6c a4 c6 bd 4b 74 c5 3d
       -0.31116793 -0.10939904 -0.0969933 0.09641322
0002e0 94 44 ac be 79 5c 60 be 28 67 0e 3e 93 9d 4a bd
       -0.3364607 -0.21910276 0.13906538 -0.04946668
0002f0 f5 46 a0 3c 9c 2e 29 3d 0a 5f eb 3d 2a 6a a7 3d
       0.019565085 0.041304216 0.11492737 0.08174546
000300 22 75 ec bc db 4e a7 be 17 45 3f 3e f0 4b 8a bd
       -0.028864447 -0.3267735 0.186787 -0.06752765
000310 8a 44 ca be 20 44 89 3d 11 69 66 3d c4 5b 04 be
       -0.39505416 0.06702447 0.056252543 -0.12925631
000320 6f 22 95 3e 74 65 92 bd e0 39 e3 3d 4f a3 ba 3d
       0.29127833 -0.07148257 0.11095023 0.0911318
000330 f4 d9 7d be 55 44 03 3e e4 e8 94 bd 94 e2 01 be
       -0.24790174 0.12819035 -0.07270983 -0.12684089
000340 b8 78 af be 8f 98 69 3e 61 42 13 3e 70 76 a0 bc
       -0.3427179 0.22812103 0.1438079 -0.019587725
000350 35 4f 80 be ea da 77 3d 26 e9 cf 3c b8 7c 99 be
       -0.2506043 0.060511507 0.025379729 -0.29977965
000360 0d bb 87 be aa b8 4c 3e 8f a8 78 bd 9d da e1 3d
       -0.26509896 0.19992319 -0.060707625 0.11028025
000370 53 42 25 be e7 88 f0 bd 7d 6b 23 be ec 9d 4f 3e
       -0.16138582 -0.11744862 -0.15958972 0.20275086
000380 01 1d bf bd 79 32 ef bd 8e be 54 3e a4 37 4f 3e
       -0.09331704 -0.11679549 0.20775816 0.20236069
000390 7e 3d 85 bd 73 c5 1a be 19 c1 94 be 88 f9 11 3e
       -0.06505869 -0.15114383 -0.29053572 0.14255345
0003a0 8e 41 f7 3d 4c 2d ee 3d 32 da f7 3b 38 62 67 3e
       0.120730504 0.116297334 0.0075638527 0.22596061
0003b0 ba 8f 00 3e c9 2f 68 be 69 be b2 bc 87 38 18 bc
       0.12554827 -0.22674479 -0.02181931 -0.009290821
0003c0 b7 23 b8 3d 5c 4c a0 be 0b be 12 3d 27 9a 04 be
       0.08991187 -0.31308258 0.03582577 -0.1294943
0003d0 2a 88 32 3e 66 54 92 be ee 8c 14 be 3f 46 b6 3c
       0.17434755 -0.28580016 -0.14506885 0.022250293
0003e0 73 a6 10 3e 90 7a 58 be b0 2d 8c be 54 64 a3 3b
       0.14125995 -0.21140504 -0.27378607 0.0049863253
0003f0 e5 6a 26 bd 03 93 5c 3e 4f 0d 10 3e 9f ea 79 be
       -0.040629286 0.21540456 0.14067577 -0.24405907

fc2.bias f4 [10]
000000 65 14 56 3e ec 6c a9 3c d4 e1 bf 3c bd ae ea bd
       0.20906217 0.02068182 0.023423113 -0.1145911
000010 52 4c e6 3d 0f d6 2e be 59 ef 2e 3d 8b 82 72 bd
       0.11245026 -0.17073844 0.04270873 -0.059206527
000020 36 bc 5d be 5c df 7e 3d
       -0.21653828 0.06222473
