models/mnist_model_20241118_113859.pth (torch, 211952 bytes, 8 tensors)

conv1.weight f4 [8, 1, 3, 3]
0.4159955 0.3167354 0.34335592 -0.21234825 0.31047127 0.25011513 -0.12846097 0.2054102
-0.122272626 -0.20201783 0.027371565 0.23727407 -0.13872673 0.40105185 0.034446996 0.08396475
0.42785582 0.29350236 -0.25837436 -0.28119007 0.20334423 -0.2171026 -0.1892611 0.3785241
-0.41121143 0.1602541 0.36447364 0.08761862 0.00892503 0.33019948 0.04914092 -0.010364767
0.2578465 0.4361047 0.14138559 0.19038633 -0.068301015 -0.13928984 -0.12224328 0.32084045
-0.08383537 0.37271836 0.17741251 0.06582667 0.3816324 -0.4647345 -0.21989095 0.0015287569
0.24231978 0.42411488 0.24371536 0.103690706 -0.13459046 0.3970168 0.17935498 0.37798038
0.2832267 0.1273505 -0.16392224 0.23267451 -0.26972204 -0.06377983 0.16069266 0.3128025
0.3702454 0.1052067 -0.11309265 0.076585285 0.21247439 -0.34438607 -0.50600576 -0.3320187
00000000: 5dfd d43e 242b a23e 59cc af3e d271 59be
00000010: 17f6 9e3e 170f 803e 468b 03be 0d57 523e
00000020: 126a fabd c3dd 4ebe 553a e03c f9f7 723e
00000030: 610e 0ebe ab56 cd3e 4b18 0d3d b6f5 ab3d
00000040: eb0f db3e f145 963e a549 84be 25f8 8fbe
00000050: 7839 503e 2550 5ebe a9cd 41be e9cd c13e
00000060: 4e8a d2be a719 243e 4a9c ba3e 6471 b33d
00000070: 4a3a 123c e80f a93e fd47 493d fcd0 29bc
00000080: 7504 843e 1e49 df3e 62c7 103e a2f4 423e
00000090: 67e1 8bbd ffa1 0ebe af5a fabd 3345 a43e
000000a0: e1b1 abbd f1d4 be3e a0ab 353e 22d0 863d
000000b0: 5265 c33e aef1 edbe 182b 61be 9260 c83a
000000c0: ad22 783e 9625 d93e 8590 793e cb5b d43d
000000d0: 15d2 09be c945 cb3e d5a8 373e a586 c13e
000000e0: 1703 913e 2b68 023e 3bdb 27be 3a42 6e3e
000000f0: 0219 8abe 009f 82bd 9e8c 243e a627 a03e
00000100: ce90 bd3e 9c76 d73d 1f9d e7bd bfd8 9c3d
00000110: e392 593e 5f53 b0be 9889 01bf 5bfe a9be

conv1.bias f4 [8]
-0.018681485 0.21447362 0.03712658 0.01796915 0.2884599 0.23641391 0.21390498 0.19007774
00000000: ea09 99bc f99e 5b3e 0a12 183d 0a34 933c
00000010: 04b1 933e 7d16 723e e809 5b3e bda3 423e

conv2.weight f4 [16, 8, 3, 3]
-0.09783034 0.0065923585 -0.14465865 -0.1529037 0.10701179 0.031220863 -0.014169955 -0.023530478
-0.14478932 -0.07049864 -0.11460484 0.14398296 -0.10203835 0.13785596 0.01785747 0.021701567
0.053048402 -0.1942636 0.03720972 -0.03567524 0.1778656 0.19352089 0.20388669 0.104313016
0.31254536 0.10649435 -0.062088095 -0.18635339 -0.118951894 0.06927076 -0.11003577 0.1591514
0.08281267 0.008933722 -0.045095798 -0.13417475 -0.17513606 -0.021622593 0.03517347 0.05158327
0.11709629 0.038272455 0.021633115 -0.03344473 -0.008345106 -0.13080986 -0.06620937 0.044692386
0.082201615 0.09388665 0.043475673 0.13320369 0.052598435 -0.008430195 -0.1132574 -0.07095687
-0.0006838331 -0.022573039 -0.059460104 -0.0011146605 -0.06808724 0.008270467 -0.04238275 0.0811377
-0.11441114 -0.0045762644 -0.0057456256 -0.09620048 0.10241777 -0.06837013 0.07530827 0.08825722
0.109134704 0.0027794444 0.14819512 0.111836165 0.08776901 -0.095919 0.1983504 -0.02522842
-0.1957514 0.07224457 -0.0049182805 0.027947444 0.028283864 0.0014308423 -0.1520095 0.19495513
-0.027319545 -0.25005743 -0.037051324 -0.14988364 -0.057240598 0.001030801 0.0035483327 -0.030770365
0.18489066 -0.06424424 -0.03698629 -0.019383743 0.09759466 -0.03837862 0.120704465 0.008625837
0.02438382 0.14833964 -0.015142962 -0.12483032 0.083200864 0.059815526 -0.053817883 0.14840078
-0.0059627434 -0.10255633 -0.005944928 -0.1538889 -0.14284256 0.03221057 0.11198513 -0.014774047
0.119553134 -0.015594677 -0.20911051 0.06467086 -0.18891525 -0.14894772 0.15758723 0.065741085
-0.049038313 0.118230656 0.13713846 0.018799813 0.07390782 -0.022884382 -0.10471544 -0.07029354
-0.061183028 0.099518284 -0.11000875 -0.14626676 -0.12003062 -0.2922816 -0.13980708 -0.02254249
-0.11736947 -0.032779884 0.10927461 -0.03140779 0.019204866 -0.07605978 0.12822099 0.04347371
-0.048130196 -0.04708195 0.08201969 0.13715437 0.11691609 0.18221979 0.064347215 0.044262063
0.08372455 -0.16122822 0.043641288 0.15437692 0.033415884 0.07730524 -0.0011648991 -0.08508308
0.048199445 0.013125769 0.012738235 -0.0285348 0.01805596 0.16221873 0.040473275 -0.02136401
0.04694254 0.08334537 -0.02514911 -0.081978485 -0.115615696 -0.04894934 -0.007027142 0.001054762
0.11624348 -0.0004970614 0.10235968 -0.15515666 -0.2084976 0.094873905 0.07190498 0.0057041743
0.054799914 0.013999797 -0.027672695 0.14538631 0.0505263 -0.14619464 -0.06190693 -0.08902827
-0.05746933 -0.1046498 0.10047428 0.056906387 -0.005700337 -0.06791799 0.018440131 -0.024414236
-0.17202035 0.055392995 -0.07687238 -0.16039559 0.04470922 -0.007757489 -0.065686606 0.07642744
-0.056785285 -0.06905085 0.044912387 -0.21257241 -0.21146172 0.201659 -0.09012867 -0.05085048
0.15809058 -0.11212056 -0.066031165 0.13564655 -0.22704811 -0.0082239015 0.11491041 0.04392784
0.10217051 0.16418144 -0.042512387 0.0102718165 0.022191346 0.00536083 0.12024076 0.19935158
0.1063849 0.06858064 0.15996207 0.036667153 -0.081103 0.04789236 -0.18309733 -0.028512936
0.18211651 -0.14768195 0.08634841 0.1163799 0.031367034 -0.113427654 0.034544736 -0.19235575
00000000: 465b c8bd b604 d83b 6621 14be ca92 1cbe
00000010: ff28 db3d e5c2 ff3c 1929 68bc fdc2 c0bc
00000020: a743 14be 9761 90bd f1b5 eabd 4570 133e
00000030: 7cf9 d0bd 1d2a 0d3e d449 923c 7cc7 b13c
00000040: 4849 593d 0aed 46be 3869 183d 3320 12bd
00000050: 6622 363e 572a 463e acc7 503e 10a2 d53d
00000060: f205 a03e b619 da3d 1650 7ebd 6cd3 3ebe
00000070: 0d9d f3bd d4dd 8d3d 6f5a e1bd 96f8 223e
00000080: b099 a93d bf5e 123c 5fb6 38bd 1b65 09be
00000090: de56 33be dd21 b1bc 0e12 103d fb48 533d
000000a0: 2ed0 ef3d 94c3 1c3d ee37 b13c 57fd 08bd
000000b0: e9b9 08bc 05f3 05be c798 87bd 5d0f 373d
000000c0: 5259 a83d a547 c03d 8c13 323d 8c66 083e
000000d0: 7571 573d cd1e 0abc 7ff3 e7bd d651 91bd
000000e0: 4343 33ba 18eb b8bc 708c 73bd cd19 92ba
000000f0: 5371 8bbd da80 073c 8999 2dbd 862b a63d
00000100: 6350 eabd 7df4 95bb cd45 bcbb c204 c5bd
00000110: 68c0 d13d a405 8cbd 393b 9a3d 34c0 b43d
00000120: 0482 df3d 5727 363b 76c0 173e 5c0a e53d
00000130: 3dc0 b33d 2e71 c4bd 5e1c 4b3e d5ab cebc
00000140: 0e73 48be f6f4 933d 8729 a1bb 0af2 e43c
00000150: 90b3 e73c 1a8b bb3a 61a8 1bbe 51a2 473e
00000160: 3dcd dfbc 8707 80be 21c3 17bd 197b 19be
00000170: 1e75 6abd f11b 873a 258b 683b 2212 fcbc
00000180: fa53 3d3e 7c92 83bd f07e 17bd a8ca 9ebc
00000190: b6df c73d e632 1dbd e733 f73d 6253 0d3c
000001a0: 94c0 c73c 59e6 173e 301a 78bc 0aa7 ffbd
000001b0: 3765 aa3d 2001 753d 2470 5cbd 60f6 173e
000001c0: 1e63 c3bb 0e09 d2bd accd c2bb 0d95 1dbe
000001d0: 5245 12be 3bef 033d 7658 e53d d80e 72bc
000001e0: 46d8 f43d d180 7fbc 1121 56be 2872 843d
000001f0: 0073 41be c085 18be 8c5e 213e 43a3 863d
00000200: 66dc 48bd ea22 f23d 066e 0c3e 1102 9a3c
00000210: fc5c 973d 0778 bbbc 0c75 d6bd 0ff6 8fbd
00000220: 0e9b 7abd 3ed0 cb3d 444c e1bd f4c6 15be
00000230: 9dd2 f5bd efa5 95be 9629 0fbe 07ab b8bc
00000240: 685f f0bd 3344 06bd 5ecb df3d 74a5 00bd
00000250: 8653 9d3c 3bc5 9bbd 5d4c 033e 7d11 323d
00000260: 2b24 45bd 01d9 40bd f0f9 a73d 3272 0c3e
00000270: b471 ef3d d397 3a3e 79c8 833d 234c 353d
00000280: c777 ab3d 0319 25be 35c1 323d fc14 1e3e
00000290: 18df 083d 3652 9e3d 87af 98ba 0a40 aebd
000002a0: c86c 453d 770d 573c 08b4 503c d0c1 e9bc
000002b0: 18ea 933c ab1c 263e 4ec7 253d 9403 afbc
000002c0: d246 403d fab0 aa3d 8205 cebc 56e4 a7bd
000002d0: ecc7 ecbd 1a7f 48bd f143 e6bb f13f 8a3a
000002e0: 1011 ee3d 3a4d 02ba f4a1 d13d 63e1 1ebe
000002f0: 6580 55be 404d c23d eb42 933d 15ea ba3b
00000300: e075 603d 685f 653c d9b1 e2bc 26e0 143e
00000310: aaf4 4e3d 0cb4 15be 1f92 7dbd 7454 b6bd
00000320: f664 6bbd a252 d6bd 76c5 cd3d ac16 693d
00000330: e4c9 babb 9618 8bbd c20f 973c 5d00 c8bc
00000340: 1a26 30be c4e3 623d 446f 9dbd be3e 24be
00000350: 0421 373d 8932 febb b386 86bd fd85 9c3d
00000360: b097 68bd 886a 8dbd 0df6 373d 95ac 59be
00000370: 6c89 58be b27f 4e3e 6195 b8bd 9848 50bd
00000380: 7fe2 213e 779f e5bd 593b 87bd eee6 0a3e
00000390: 4d7f 68be 8bbd 06bc 2656 eb3d aeed 333d
000003a0: c63e d13d 2e1f 283e 7821 2ebd 1f4b 283c
000003b0: a0ca b53c e7a9 af3b ca40 f63d d222 4c3e
000003c0: 54e0 d93d 0274 8c3d 19cd 233e 4c30 163d
000003d0: 5419 a6bd c72a 443d de7d 3bbe f693 e9bc
000003e0: c07c 3a3e f039 17be 6fd7 b03d 9658 ee3d
000003f0: b87a 003d c24c e8bd c87e 0d3d e8f8 44be

conv2.bias f4 [16]
0.005473825 0.06350534 -0.051861983 -0.05532385 0.0019439008 -0.009750383 -0.06146793 -0.12485013
-0.099336185 -0.0992207 0.0015430497 -0.07721367 0.008611583 -0.06499954 0.0051465067 0.048824847
00000000: c65d b33b 160f 823d 3b6d 54bd 439b 62bd
00000010: 7dca fe3a 12c0 1fbc ccc5 7bbd 6db1 ffbd
00000020: c570 cbbd 3934 cbbd 2840 ca3a 3322 9ebd
00000030: 9917 0d3c 7b1e 85bd 07a4 a83b 90fc 473d

fc1.weight f4 [64, 784]
0.024754373 -1.6928341e-05 -0.015268884 -0.05202416 -0.041911256 0.0038054453 -0.0058087544 0.0036045716
-0.046960585 0.006269588 -0.064718835 -0.112515524 -0.010259761 0.027023371 -0.00969623 0.022586701
0.041366935 0.038240448 -0.04739495 -0.010417788 -0.041670848 -0.018165965 0.048691057 0.109898314
0.050239433 -0.060821228 -0.01652916 -0.029438952 -0.047895104 -0.009753454 -0.033713296 -0.015639648
0.023376212 0.026653403 -0.00021099736 -0.017791165 -0.043586634 0.0046380153 -0.064113 0.0570653
0.03798874 0.0063875304 0.00818734 0.027086264 0.05495761 0.014058187 0.020265805 0.0015154748
0.03918753 0.007704131 -0.047959168 -0.09209655 -0.072253436 -0.05526125 -0.022017708 -0.001331357
-0.029626897 -0.06846118 -0.121767335 -0.11659723 -0.035597235 0.029970618 0.012140622 -0.0023196938
0.028279085 -0.046047755 0.03428449 0.030628487 0.030440714 0.008662098 0.01742516 0.03688864
0.02794158 0.058727812 0.000597836 0.066957094 0.018651143 -0.031699628 -0.050021797 -0.11629846
-0.064345755 -0.008465641 0.09278813 0.010339022 0.032417677 0.0008473438 -0.028246397 -0.032252274
0.02741622 0.008430594 -0.00044543776 0.037944008 0.05425397 0.05112746 0.021121478 0.021756193
-0.04724881 -0.015295006 -0.0121948235 -0.02358591 -0.06632469 -0.006907676 -0.022643978 -0.030766862
-0.091198415 0.013477971 -0.016395371 0.032763284 0.016121909 -0.017636491 0.0395057 0.010102181
0.072933406 0.02544121 -0.0022873487 0.04659674 -0.004786243 0.037920948 0.013871207 0.034103736
0.021021506 0.029500768 -0.042193618 -0.013927898 0.029973887 0.014363779 0.014877672 -0.059969503
-0.08336294 -0.013136146 0.018356163 0.02005358 -0.027679762 0.031326167 0.019468298 -0.010908717
0.050692704 0.05909329 0.0070069507 -0.08727655 0.06421634 0.047786355 0.029055307 0.040510975
0.046873607 0.015870012 0.033674505 0.0067150644 -0.023468567 -0.0437832 -0.06294242 -0.024361664
-0.077075936 -0.008797994 0.0595851 -0.023698844 0.006036112 -0.020175308 -0.026990002 -0.06216559
-0.004268907 0.003540751 -0.011651497 0.017281596 0.002847715 -0.11218121 -0.029866304 -0.027511502
-0.02620796 0.007297501 0.0592682 -0.03251382 -0.040408414 -0.017949522 -0.046735864 0.011842736
-0.04728563 -0.07677242 0.0058812466 0.10509366 0.03598855 -0.007875353 0.027285788 0.02550876
0.031939853 0.013093551 0.11406598 0.038897213 0.025836878 0.030331355 0.091831304 0.12740599
0.099484235 0.07385208 -0.0074069994 0.008557401 -0.011355005 -0.0028527083 -0.0035749958 -0.027914647
-0.028125627 -0.03317744 -0.050681505 -0.0039581484 0.030225119 0.012202289 0.0030521618 0.028798983
0.02449272 -0.0066104187 -0.012594477 -0.0021872043 0.052329212 0.032588672 -0.00018947764 0.054893415
0.019094598 0.021982098 -0.004568758 0.016516784 -0.036401868 -0.021109158 0.0025645066 0.029866315
0.0023382297 0.007889481 -0.060435455 -0.063871436 -0.005553751 0.00011158234 0.052825358 0.06084796
0.020414023 0.053946767 0.048288822 -0.013889553 -0.009948228 0.02810827 0.057681706 0.040175047
0.052159548 0.039631292 0.010913785 -0.019295298 0.006790468 0.025757652 0.017861342 -0.046307545
0.00018041227 -0.032205895 0.0028405213 0.002776986 0.03203815 0.037064586 -0.0027554063 0.0057528573
00000000: afc9 ca3c 5601 8eb7 572a 7abc 4917 55bd
00000010: 23ab 2bbd c764 793b 5d57 bebb ad3a 6c3b
00000020: be59 40bd 1e71 cd3b 4f8b 84bd 8a6e e6bd
00000030: 8e18 28bc 1e60 dd3c f0dc 1ebc bf07 b93c
00000040: 6070 293d 04a2 1c3d 3521 42bd 5faf 2abc
00000050: 0daf 2abd cad0 94bc 4670 473d 5e12 e13d
00000060: ddc7 4d3d ae1f 79bd 2968 87bc f529 f1bc
00000070: a82d 44bd f3cc 1fbc f416 0abd b81e 80bc
00000080: 787f bf3c 3d58 da3c 2c3f 5db9 c7be 91bc
00000090: e687 32bd 7efa 973b ad4d 83bd 4ebd 693d
000000a0: 159a 1b3d 7d4e d13b 3124 063c 03e4 dd3c
000000b0: 3b1b 613d 4f54 663c 7904 a63c e5a2 c63a
000000c0: 1a83 203d ef72 fc3b d570 44bd 1e9d bcbd
000000d0: 9cf9 93bd 9f59 62bd 7b5e b4bc ee80 aeba
000000e0: 1bb4 f2bc 6035 8cbd 2761 f9bd 87ca eebd
000000f0: 68ce 11bd f184 f53c 76e9 463c 0106 18bb
00000100: 8aa9 e73c 929c 3cbd e56d 0c3d 98e8 fa3c
00000110: ce5e f93c 79eb 0d3c 36bf 8e3c 8b18 173d
00000120: bee5 e43c 938c 703d 18b8 1c3a cd20 893d
00000130: 48ca 983c 78d7 01bd a8e3 4cbd e32d eebd
00000140: b5c7 83bd 79b3 0abc b407 be3d 0065 293c
00000150: 66c8 043d 4820 5e3a fd64 e7bc f61a 04bd
00000160: fb97 e03c 7920 0a3c a589 e9b9 2d6b 1b3d
00000170: 6939 5e3d 076b 513d f306 ad3c 0b3a b23c
00000180: f887 41bd e897 7abc cccc 47bc 3d37 c1bc
00000190: 3dd5 87bd c959 e2bb dd7f b9bc c90a fcbc
000001a0: 3cc6 babd b5d2 5c3c 964f 86bc cb32 063d
000001b0: 1812 843c 677a 90bc bbd0 213d 9e83 253c
000001c0: 1c5e 953d 166a d03c 58e7 15bb 39dc 3e3d
000001d0: ebd5 9cbb ff52 1b3d 0f44 633c 5cb0 0b3d
000001e0: 4b35 ac3c 98ab f13c 37d3 2cbd d731 64bc
000001f0: cc8b f53c 0e56 6b3c 7bc1 733c 95a2 75bd
00000200: 30ba aabd fd38 57bc aa5f 963c 6847 a43c
00000210: abc0 e2bc de4f 003d fb7b 9f3c 7aba 32bc
00000220: 27a3 4f3d ce0b 723d 909a e53b 0cbe b2bd
00000230: db83 833d a0bb 433d 6505 ee3c d6ee 253d
00000240: 8afe 3f3d d401 823c 47ee 093d 0b0a dc3b
00000250: 2741 c0bc 0356 33bd f5e7 80bd 1d92 c7bc
00000260: fdd9 9dbd 7625 10bc 810f 743d 1424 c2bc
00000270: 94ca c53b b046 a5bc 231a ddbc 58a1 7ebd
00000280: 30e2 8bbb f20b 683b ece5 3ebc 2292 8d3c
00000290: bba0 3a3b 43bf e5bd 2eaa f4bc cd5f e1bc
000002a0: 13b2 d6bc e01f ef3b 36c3 723d 362d 05bd
000002b0: 4b83 25bd e00a 93bc 1b6e 3fbd 0908 423c
000002c0: 94ae 41bd dc3a 9dbd 79b7 c03b 583b d73d
000002d0: bb68 133d a007 01bc 7286 df3c bff7 d03c
000002e0: 5dd3 023d 5586 563c 6d9b e93d af52 1f3d
000002f0: dca7 d33c 7679 f83c 0d12 bc3d b776 023e
00000300: 64be cb3d c23f 973d 6ab6 f2bb 5734 0c3c
00000310: 580a 3abc 81f4 3abb 7a4a 6abb 42ad e4bc
00000320: b767 e6bc 11e5 07bd 6997 4fbd 5bb3 81bb
00000330: ab9a f73c 1cec 473c c706 483b d8eb eb3c
00000340: f5a4 c83c 369c d8bb 1159 4ebc 3357 0fbb
00000350: 2857 563d b37b 053d 84ae 46b9 ebd7 603d
00000360: 466c 9c3c cd13 b43c 85b5 95bb 354e 873c
00000370: 201a 15bd 1ded acbc 4811 283b 34aa f43c
00000380: fc3c 193b e242 013c 2b8b 77bd 07cf 82bd
00000390: 3dfc b5bb 5001 ea38 675f 583d b63b 793d
000003a0: 4f3b a73c 49f7 5c3d 80ca 453d 0291 63bc
000003b0: e4fd 22bc 5143 e63c a743 6c3d 978e 243d
000003c0: 40a5 553d 6c54 223d bbcf 323c 2c11 9ebc
000003d0: 9382 de3b b601 d33c f351 923c fbac 3dbd
000003e0: 0d2d 3d39 54ea 03bd 0a28 3a3b 18fe 353b
000003f0: 6f3a 033d 09d1 173d 0c94 34bb 7782 bc3b

fc1.bias f4 [64]
-0.009373006 0.01298517 -0.014494064 0.00931778 -0.020527191 0.012766959 0.04176403 -0.028154422
0.03346198 -0.015168343 0.04756559 -0.020679075 -0.038666483 -0.025617443 0.0051080026 0.0033711682
0.032755196 0.032202367 0.011665366 0.015724134 0.020684075 -0.009301623 0.017907048 0.0071344627
0.0037224365 0.029900016 0.015288164 -0.037506506 -0.013346826 0.057836864 0.021501243 0.047326222
-0.003583835 -0.015307238 -0.01413249 -0.0239908 -0.0074511925 0.0129978815 0.004702272 0.038987074
-0.023049649 0.026402147 -0.030104728 -0.06163525 -0.02301324 -0.013710089 -0.025930293 -0.041428227
0.017485691 0.008586274 0.026599122 -0.01636942 -0.0077099875 0.015425294 0.003374344 -0.002285462
0.0035497095 0.009014729 0.043156218 0.030035747 0.005521397 -0.037320912 0.039262 0.000555405
00000000: 3d91 19bc c0bf 543c 8378 6dbc 9aa9 183c
00000010: a428 a8bc 822c 513c c210 2b3d 1aa4 e6bc
00000020: 6e0f 093d a484 78bc 23d4 423d 2a67 a9bc
00000030: bf60 1ebd acdb d1bc 0861 a73b d1ee 5c3b
00000040: 502a 063d a1e6 033d 1720 3f3c e6cf 803c
00000050: a671 a93c d665 18bc cdb1 923c 36c8 e93b
00000060: 1ff4 733b e1f0 f43c 357b 7a3c 6ca0 19bd
00000070: a5ac 5abc 59e6 6c3d 6023 b03c 24d9 413d
00000080: c6de 6abb 36cb 7abc f68b 67bc 5b88 c4bc
00000090: 2229 f4bb 11f5 543c 8415 9a3b e9b0 1f3d
000000a0: 9ed2 bcbc 5149 d83c 319e f6bc 3e75 7cbd
000000b0: 4386 bcbc 48a0 60bc c46b d4bc a5b0 29bd
000000c0: 273e 8f3c 72ad 0c3c 67e6 d93c 2919 86bc
000000d0: 10a4 fcbb 5fba 7c3c 1924 5d3b b1c7 15bb
000000e0: 3ea2 683b 84b2 133c 93c4 303d 870d f63c
000000f0: d6ec b43b d0dd 18bd 31d1 203d 9998 113a

fc2.weight f4 [10, 64]
0.09668384 -0.11539272 0.07114362 -0.10211267 0.0009206304 0.07680107 -0.0077099325 -0.094397165
0.17078258 -0.088751726 -0.021529932 -0.032798618 -0.04434738 -0.16277859 -0.021388378 -0.09229567
0.031021692 0.059717398 -0.108335674 0.15613216 -0.01016372 0.12973425 -0.0498852 -0.05258226
0.09283267 -0.07373589 -0.076124825 -0.021098174 -0.10000518 -0.12550405 0.07593487 -0.15317935
-0.001747288 0.017755358 -0.111064956 0.004397502 0.11500282 0.056327417 -0.1919876 0.061327297
0.0859377 -0.033072323 0.06176863 -0.05696488 0.046154097 0.016505249 0.015076134 -0.07463567
0.010386577 0.023924239 -0.0005210828 0.017660217 -0.14166893 -0.08169504 0.1326098 0.19671765
0.05841221 0.06746572 -0.1588045 -0.09975004 -0.093315184 0.02058937 -0.038351685 -6.0181923e-05
-0.18421833 -0.020100478 0.14629553 0.0101092085 -0.014830278 -0.12459799 0.038829923 -0.05886095
-0.008385064 -0.19391622 0.11044168 0.05450378 -0.013695783 -0.11911775 -0.0683012 -0.07138978
-0.041918024 0.03840203 0.024547856 -0.0067833415 -0.029635863 -0.10785722 -0.04806559 -0.07758619
0.15231493 0.14368674 -0.19349504 -0.12107765 0.07474631 0.13023391 -0.032454528 0.10907017
-0.09776191 0.10519195 0.13887928 -0.09099 -0.12335273 -0.14345743 -0.033490166 -0.07771508
-0.032513335 -0.07048296 -0.0003233809 0.05001149 -0.00033464815 0.05814778 0.05240911 -0.111283846
0.09941795 0.0010879681 0.14737226 -0.20642127 0.08790471 0.14531712 -0.15656736 0.06543372
-0.09473671 -0.13003953 0.15104553 -0.014880705 -0.014794618 -0.026416799 -0.026412843 -0.11216628
-0.08762932 -0.09468666 0.1273156 0.05432311 0.11370065 -0.120311424 -0.043602016 -0.083122775
0.055527233 -0.026192974 0.049086712 0.04210125 -0.015891895 0.045292273 -0.07075719 0.04076048
0.15117794 -0.16531321 0.16300645 0.10164713 0.0574441 -0.16817161 -0.09232645 -0.064182185
0.069174916 0.12834178 0.11267454 0.0012932089 -0.0016593601 -0.0076020644 -0.011175766 -0.15216953
-0.09907557 -0.0047040875 0.1207565 0.103621125 -0.069310576 -0.035196856 -0.1639796 0.085754886
0.0019325329 0.0040127565 0.12539443 0.0015779022 0.060648095 -0.04202032 0.019734804 -0.12729047
-0.13880263 0.101052724 -0.0034264983 0.0056375493 0.06552733 -0.17194782 0.03789216 0.03893611
-0.057052404 -0.079522826 0.0036882416 -0.08199894 -0.1703151 0.08457907 0.12324982 0.10258974
0.158706 0.1067739 -0.009095121 -0.087917596 -0.06422866 -0.034101583 -0.14769675 -0.07441887
-0.14711973 0.1175563 0.08716675 -0.09956897 0.023271764 -0.077871375 0.049315706 -0.16783018
-0.07906747 -0.12444825 0.03656681 0.09416068 -0.07047721 -0.13668557 0.08238735 0.06045261
-0.13793693 0.08178096 0.016743299 0.110649005 0.07660058 -0.04136848 0.02987117 -0.040447522
0.088194035 -0.028311888 -0.16854209 0.091160975 -0.028467223 0.04744267 -0.038859665 -0.13306473
0.074824296 0.07170067 0.100711904 -0.082755245 0.062589474 -0.045979366 -0.04570711 0.0629801
-0.1549325 0.15855871 0.10235332 0.121455826 0.024727125 0.06096266 0.09017431 -0.067798495
-0.046023462 -0.087537415 0.16273157 0.08266972 0.060165625 -0.09470775 -0.048237678 -0.105627984
00000000: 2d02 c63d 0553 ecbd bfb3 913d 7320 d1bd
00000010: 7656 713a e149 9d3d 9aa3 fcbb 4d53 c1bd
00000020: a1e1 2e3e 77c3 b5bd 8a5f b0bc d857 06bd
00000030: 99a5 35bd 6eaf 26be ae36 afbc 8305 bdbd
00000040: 3421 fe3c 3b9a 743d 18df ddbd 1ce1 1f3e
00000050: bb85 26bc 0ed9 043e 6c54 4cbd 7f60 57bd
00000060: 0e1f be3d d802 97bd 55e7 9bbd 14d6 acbc
00000070: 84cf ccbd 2284 00be be83 9b3d 0cdb 1cbe
00000080: 4205 e5ba af73 913c 0676 e3bd ec18 903b
00000090: 9986 eb3d 94b7 663d 6698 44be 5532 7b3d
000000a0: 1b00 b03d d876 07bd 1a01 7d3d 0254 69bd
000000b0: 140c 3d3d 0436 873c e401 773c 96da 98bd
000000c0: 762c 2a3c c4fc c33c 4699 08ba 29ac 903c
000000d0: a911 11be bb4f a7bd ddca 073e 5a70 493e
000000e0: a441 6f3d 782b 8a3d a69d 22be c049 ccbd
000000f0: 081c bfbd 0aab a83c a816 1dbd d96b 7cb8
00000100: bba3 3cbe c2a9 a4bc 7fce 153e 18a1 253c
00000110: b2fa 72bc 3b2d ffbd 200c 1f3d 2e18 71bd
00000120: 8261 09bc f991 46be 3f2f e23d 5b3f 5f3d
00000130: 4764 60bc 02f4 f3bd 80e1 8bbd ce34 92bd
00000140: 3cb2 2bbd 724b 1d3d 9618 c93c cb46 debb
00000150: e9c6 f2bc 3fe4 dcbd 6de0 44bd 82e5 9ebd
00000160: 72f8 1b3e 9e22 133e 9023 46be 8ff7 f7bd
00000170: 9814 993d 0a5c 053e 0aef 04bd 2e60 df3d
00000180: 6537 c8bd e16e d73d 5f36 0e3e f758 babd
00000190: 5ba0 fcbd 81e6 12be fc2c 09bd 1529 9fbd
000001a0: b42c 05bd 5f59 90bd 738b a9b9 d9d8 4c3d
000001b0: b773 afb9 5e2c 6e3d efaa 563d c9e8 e3bd
000001c0: a39b cb3d 279a 8e3a c1e8 163e 1960 53be
000001d0: 6207 b43d 03ce 143e 3253 20be 1d02 863d
000001e0: 5205 c2bd 1529 05be aeab 1a3e 33ce 73bc
000001f0: 2065 72bc 0b68 d8bc bf5f d8bc 6fb7 e5bd
00000200: 0077 b3bd 14eb c1bd 055f 023e e981 5e3d
00000210: e3db e83d d665 f6bd 0798 32bd 463c aabd
00000220: 8670 633d a692 d6bc 260f 493d 5c72 2c3d
00000230: b82f 82bc 6484 393d 25e9 90bd 76f4 263d
00000240: 64ce 1a3e de47 29be 2aeb 263e 5f2c d03d
00000250: 814a 6b3d 2e35 2cbe a615 bdbd f371 83bd
00000260: 94ab 8d3d 076c 033e e9c1 e63d e480 a93a
00000270: e37e d9ba bd1a f9bb 8f1a 37bc 54d2 1bbe
00000280: 22e8 cabd bf24 9abb 2f4f f73d 5037 d43d
00000290: b4f2 8dbd 942a 10bd 45ea 27be 42a0 af3d
000002a0: 0b4d fd3a 717d 833b 6667 003e 9dd1 ce3a
000002b0: 236a 783d 801d 2cbd e2aa a13c 6f58 02be
000002c0: 4722 0ebe bbf4 ce3d 1a8f 60bb 31bb b83b
000002d0: 3133 863d 1713 30be cf34 1b3d 787b 1f3d
000002e0: c8af 69bd dddc a2bd 6db6 713b 0fef a7bd
000002f0: 1567 2ebe cb37 ad3d 676a fc3d 921a d23d
00000300: d383 223e 46ac da3d b403 15bc 240e b4bd
00000310: 518a 83bd 1aae 0bbd d13d 17be ec68 98bd
00000320: 8ea6 16be 5bc1 f03d 7b84 b23d d1ea cbbd
00000330: 6da4 be3c 077b 9fbd 44ff 493d addb 2bbe
00000340: 20ee a1bd b9de febd 14c7 153d 51d7 c03d
00000350: 5b56 90bd 4df7 0bbe b3ba a83d 289d 773d
00000360: 573f 0dbe c77c a73d 3e29 893c f29b e23d
00000370: c4e0 9c3d ff71 29bd 62b4 f43c 4dac 25bd
00000380: 139f b43d 55ee e7bc 4c96 2cbe 9bb2 ba3d
00000390: 1834 e9bc 3f53 423d 502b 1fbd 1f42 08be
000003a0: 7b3d 993d cdd7 923d 0b42 ce3d 957b a9bd
000003b0: e92e 803d dc54 3cbd 6137 3bbd b6fb 803d
000003c0: a0a6 1ebe 375d 223e 9e9e d13d d5bd f83d
000003d0: 8a90 ca3c fbb3 793d 4fad b83d f0d9 8abd
000003e0: 1983 3cbd d146 b3bd 1ba3 263e be4e a93d
000003f0: 3b70 763d 23f6 c1bd df94 45bd 7c53 d8bd

fc2.bias f4 [10]
0.01838469 -0.036352575 -0.019719396 -0.11605569 0.067364104 0.14459662 0.0406229 0.11339324
-0.072904326 -0.013520303
00000000: 7d9b 963c 70e6 14bd 928a a1bc 9bae edbd
00000010: 31f6 893d 2311 143e 3364 263d b73a e83d
00000020: dd4e 95bd 4384 5dbc
