models/mnist_model_20241118_120819.pth (torch, 59224 bytes, 16 tensors)

conv1.weight f4 [4, 1, 3, 3]
000000 a0 67 30 bc 3d b7 f1 3d ec 66 78 3e ff 8c 40 3d
       -0.010766894 0.11802528 0.24258012 0.047009464
000010 ae 30 4a 3e 91 5e 88 3e 37 0a 72 bd d3 35 38 3d
       0.19745132 0.26634648 -0.059091773 0.044973206
000020 50 01 44 3e 1b b6 17 3e a3 19 0a 3e 99 22 fd 3d
       0.19141126 0.14815561 0.13486342 0.123601146
000030 a7 3e 16 3e d2 9f 80 3e bb 91 a6 bc b1 9a 98 3e
       0.14672337 0.25121933 -0.020333162 0.2980552
000040 fd 5a 88 bd 1b a4 5c 3e a3 57 42 3e e3 c5 4e be
       -0.0665798 0.21546976 0.18978743 -0.20192675
000050 78 e3 28 be 54 65 1a be 85 7e 40 be 16 f6 31 3e
       -0.16493022 -0.15077716 -0.18798263 0.1737903
000060 bb 5e 7b bd ae 7c 96 bd 35 cf 03 3e f2 ae 5b 3e
       -0.06136964 -0.073479995 0.12872012 0.21453455
000070 4c c1 78 3e 92 e4 67 3e a2 7a da bd b6 44 b8 bd
       0.24292487 0.22645786 -0.106679216 -0.089974806
000080 6c af 87 be 57 b2 91 be 49 88 39 be 03 d3 b8 bd
       -0.26501024 -0.28456375 -0.18118395 -0.09024622

conv1.bias f4 [4]
000000 98 48 29 3e 4c 6e 15 be 2d 2f 93 be 7f ff 80 3e
       0.16531599 -0.14592856 -0.2874693 0.25194928

bn1.weight f4 [4]
000000 c4 2a 60 3f 73 45 69 3f 43 22 90 3f ce 02 89 3f
       0.87565255 0.91121596 1.1260456 1.0703981

bn1.bias f4 [4]
000000 21 1b 53 3e 38 b5 23 3e 53 a7 40 be 2a 81 10 bd
       0.20615818 0.15987098 -0.18813829 -0.03527943

bn1.running_mean f4 [4]
000000 e9 a6 39 3e 98 ef f5 bd 4c 7c 94 be 01 0e 80 3e
       0.18130077 -0.120085895 -0.2900108 0.25010684

bn1.running_var f4 [4]
000000 6c 7e 53 3f ff 9c 81 3f 6f fd 3d 3e c8 4f c0 3e
       0.8261478 1.0126036 0.18553708 0.37560868

conv2.weight f4 [8, 4, 3, 3]
000000 bd f5 3c bd 43 c9 df bc 9e b2 48 3d 8e a8 68 3d
       -0.04613279 -0.027317649 0.048998468 0.05680137
000010 2b 87 19 be ea 87 80 bd d1 84 85 bd 3d c1 87 3d
       -0.14992969 -0.062759236 -0.06519473 0.06628654
000020 5d e1 3e bb 3d 02 a6 3d 22 86 6b bd 2c ff 59 bd
       -0.0029126026 0.08105896 -0.057500966 -0.053221866
000030 84 1b 19 3e 66 d6 1e be 13 52 b1 3d 79 87 9c 3d
       0.14951903 -0.15511474 0.086582325 0.07643027
000040 a0 28 ff bd bc a1 10 3d 07 70 d8 bd 36 b9 1b bd
       -0.124589205 0.035310492 -0.105682425 -0.038018428
000050 39 a1 95 bc 42 0f 02 3e cb df 8e bd 16 48 03 be
       -0.018265354 0.12701133 -0.06976279 -0.12820467
000060 5b d3 b3 3e 2a 63 1d 3e e7 34 92 3d 7f 81 e9 bc
       0.3512219 0.1536986 0.071389966 -0.028504131
000070 8c 4f ff bd 9a 65 15 3e 3d 41 da bc 0b 0c 18 be
       -0.12466344 0.14589539 -0.026642436 -0.14848344
000080 50 11 50 3d e3 82 9a 3d cb ba c5 ba 1b 67 8f bd
       0.05079776 0.07544496 -0.0015085576 -0.07002088
000090 17 cb 1c 3d 77 e3 45 bb a1 02 9b bd e8 d7 af bc
       0.03827962 -0.0030195394 -0.07568861 -0.021465257
0000a0 7d f6 85 bb e1 cb 77 bd 29 c8 9d 3b 23 79 03 be
       -0.0040882216 -0.06049717 0.0048151207 -0.12839179
0000b0 2c 36 c4 bc 77 d6 b8 bd 5a ad af 3c fd 10 9d 3d
       -0.023951612 -0.09025281 0.021444965 0.07669256
0000c0 93 22 71 3d 6b 55 8c 3c 1b 15 2c 3d d4 18 1e bd
       0.058870863 0.017130574 0.042012315 -0.038597897
0000d0 11 0f fb bd f9 ed 83 3d ec 3a c5 bd 0c 68 af bb
       -0.12258733 0.06441874 -0.09630379 -0.0053529795
0000e0 a5 b6 85 3c eb 2f c1 bb e8 09 81 3e 11 e8 ee 3d
       0.016322443 -0.005895605 0.2520287 0.11665357
0000f0 c5 25 49 bd ac 6a 14 bd 81 9c f9 bc 76 73 be 3d
       -0.049108285 -0.036234543 -0.030470135 0.09299366
000100 1c 78 4c 3e 65 32 22 3e 7d ba d2 bd 48 e2 c1 3c
       0.19967693 0.15839536 -0.10289476 0.02366747
000110 4a c7 a3 bd 6f 91 d9 3d 6c ce 83 3d ef 04 93 3e
       -0.07996996 0.106234424 0.06435856 0.28714702
000120 8a ea e2 bd b2 d6 3e be 56 49 c5 bd 0d 5e 04 3e
       -0.11079891 -0.18636587 -0.09633128 0.12926503
000130 fe 5b 43 3e 4a ee 32 3d 23 21 b0 bc fb 74 d1 bc
       0.19078061 0.04368428 -0.021500176 -0.025568476
000140 f9 fe b9 3d 7f 7c 03 be f4 f6 13 bd d8 9b 69 bd
       0.09081835 -0.1284046 -0.036124185 -0.05703339
000150 7f 41 f2 3d d5 2d cd bc 0e 02 a0 bc fc 6e 04 3d
       0.11828899 -0.025046268 -0.01953223 0.032332405
000160 41 b8 02 3d 53 36 5f 3d b5 31 5b bd f4 e3 bd bd
       0.031914 0.054495167 -0.0535142 -0.09271994
000170 65 f6 ee bd ef 2d c9 bc c1 29 92 bd 5d 23 05 bd
       -0.1166809 -0.024558036 -0.0713687 -0.03250443
000180 26 69 e0 bd 73 90 e9 bd b2 29 01 be ad 09 a8 3d
       -0.109575555 -0.114045046 -0.12613562 0.082049705
000190 af 9f 37 3d 4a a9 b5 3d 37 b0 42 3e 84 eb f7 3c
       0.04483002 0.0887018 0.19012533 0.03026367
0001a0 af 36 e7 3b b2 27 2e 3c f2 42 22 3d 8b a8 b7 3c
       0.0070560793 0.010629581 0.039614625 0.022419235
0001b0 22 e4 6e bd 46 68 13 3d 75 d9 8f bd 86 e7 64 3d
       -0.058323033 0.035988115 -0.070238985 0.05588486
0001c0 3a d6 b2 bb d5 f4 03 3e d0 ed 46 3c 8c fc 1a be
       -0.0054576667 0.12886365 0.01214166 -0.15135401
0001d0 87 61 24 3e 28 65 97 bd cf b1 10 3e 79 e0 89 3c
       0.16052829 -0.07392341 0.14130329 0.01683067
0001e0 49 a4 6e 3c 51 50 10 be 92 f4 f2 3d 5e 3a 93 3d
       0.014565536 -0.14093138 0.11863054 0.07188867
0001f0 7e e6 30 be 8a 04 ac bd 9e b7 01 3e d6 78 fe bb
       -0.17275426 -0.08399303 0.126677 -0.0077658696
000200 b7 25 a8 3d 53 29 84 bc 78 8c 64 be 81 4d 3f be
       0.082103185 -0.016132986 -0.2231921 -0.18681909
000210 88 7d 9a 3d cf 2e c1 bd 4b 38 17 be 55 76 57 3d
       0.075434744 -0.09432756 -0.14767568 0.052603085
000220 14 49 61 bd c8 c8 76 bd b3 a4 e2 bb 7e 05 1a 3e
       -0.055001333 -0.060250074 -0.0069166063 0.15041158
000230 8a 2b 6f bd d0 b0 81 bc 1e 5e 28 bd 40 38 33 3e
       -0.05839113 -0.015831381 -0.041105382 0.17501926
000240 39 43 39 3b 92 04 36 3c 3d 85 8d 3d 76 e4 f1 3d
       0.0028268828 0.011109488 0.06910179 0.118111536
000250 b5 0c 9a 3d c3 21 4d bd 20 cc 92 bd 94 3f 0c be
       0.07521955 -0.050081026 -0.0716784 -0.13696128
000260 fb fe c3 bd f9 36 43 be 56 80 cf bd a3 78 02 3c
       -0.09570118 -0.19063939 -0.101319 0.007963332
000270 38 f7 b5 3d 45 9c 88 3d a9 09 a5 3d 2c 79 89 bc
       0.08885044 0.06670431 0.08058483 -0.016781412
000280 51 b5 1e 3d d9 f4 24 bd 01 f6 68 3d b7 94 79 3e
       0.038747136 -0.040272567 0.056875233 0.24373136
000290 3d 23 50 3d 7a 5c 94 3d 20 98 3c bb ed 61 d7 3d
       0.050814856 0.07244201 -0.0028777197 0.10516725
0002a0 19 b5 38 3b ab 00 5a 3e 77 e1 05 3e e8 af d8 3d
       0.0028184114 0.21289317 0.1307429 0.105804265
0002b0 72 97 15 bd 10 20 3e 3c 1b 32 60 bd b9 b8 df 3d
       -0.036521383 0.011604324 -0.054735284 0.10923905
0002c0 0a f7 88 3e 0a 7f 25 3e 24 84 e3 3d c2 bd a7 3b
       0.26750976 0.16161743 0.11109188 0.0051190564
0002d0 49 af 56 3e db 49 48 3e e0 bf b3 bd 72 04 69 3d
       0.20965303 0.19559424 -0.087768316 0.056889005
0002e0 0f 08 c0 bc 76 76 1b be bf a6 4f 3d e6 30 c0 3d
       -0.023441343 -0.15181908 0.05069613 0.09384327
0002f0 d0 b6 78 bc 9f 3a 11 be 3a 3f 85 3d b3 08 ec 3d
       -0.015180305 -0.14182518 0.065062 0.11525097
000300 f2 f9 d7 3c 8d 7f 1d 3b b8 5e 0d be a8 b4 56 bd
       0.0263643 0.0024032325 -0.13805664 -0.05241838
000310 ab d1 71 bd da 20 96 bd 04 ed 2f 3e cf 8b 21 3e
       -0.059037846 -0.07330485 0.17180258 0.15775989
000320 14 4d 44 3e 63 1b 37 3e 67 b3 fc 3d 31 ac b0 bb
       0.19170028 0.17881541 0.12338906 -0.0053916206
000330 0b 78 ca 3d 26 53 88 3d 00 cc 3c bd 07 83 f2 bd
       0.09886178 0.06656484 -0.046092987 -0.11841398
000340 29 e6 ed bd d6 21 2c 3c 6e ca 37 be 85 91 1a 3c
       -0.11616165 0.010506114 -0.17948315 0.009434109
000350 e8 e1 bf bd 4e 79 4e bc ec 88 7e bd 0a 09 37 bc
       -0.0936926 -0.0126021635 -0.062142298 -0.011171589
000360 28 cb f3 bd 3f 7e 28 3d ce 26 df 3d cf b8 ad 3d
       -0.11903983 0.041136023 0.10896073 0.08482515
000370 4f 0f b3 3d 99 4d c7 bc 06 d5 09 be d4 18 c5 3d
       0.08743154 -0.024328994 -0.13460168 0.09623876
000380 e7 0b e5 bc aa 74 21 3c 7a 60 87 3d 5f 2b 23 3e
       -0.027959777 0.009854475 0.06610198 0.15934514
000390 48 f2 2d be e3 88 ea bb 75 cd 9d 3d 7c 58 af 3b
       -0.16986954 -0.0071574314 0.077052034 0.0053511243
0003a0 f9 14 f5 bd 5f bd 9c 3d 7b 79 02 be f8 87 31 3e
       -0.11966891 0.07653307 -0.12741654 0.17337024
0003b0 2b 7d e3 3d d3 9d ce 3d 57 59 e6 3d af f7 bf bd
       0.11107858 0.10088696 0.11247509 -0.09373414
0003c0 fc 3f 44 3d bd bc 10 be ad ce 18 be 30 eb aa 3d
       0.047912583 -0.14134498 -0.1492259 0.0834564
0003d0 fc 5f b6 bc 76 f0 27 be 9c dc dc bd 81 79 01 3d
       -0.022262566 -0.16400322 -0.107842654 0.031610016
0003e0 66 6f 0c be 61 53 2a 3d fc 51 1b bd 8d 0e 6b be
       -0.1371437 0.041583423 -0.037919983 -0.2295477
0003f0 23 9f 7a bd b0 a7 fb 3c b1 8a d7 bd 62 0f 51 bd
       -0.06118692 0.030719608 -0.105245 -0.05104006

conv2.bias f4 [8]
000000 2c 9f 30 be a6 bf 00 be d3 92 03 3e f5 1b 19 be
       -0.17248219 -0.12573108 0.12848978 -0.14952071
000010 5e 09 99 bd 5d e7 e7 3d 55 46 50 3e 8e 82 41 bd
       -0.0747249 0.11323426 0.2033933 -0.047243647

bn2.weight f4 [8]
000000 f8 7c ac 3f 12 00 9f 3f fb da b0 3f 77 4d 9d 3f
       1.3475637 1.2421896 1.3816828 1.2289265
000010 1b 35 a8 3f e9 81 a8 3f 8c 73 a6 3f 36 1f a3 3f
       1.3141207 1.3164645 1.3004012 1.27439

bn2.bias f4 [8]
000000 61 c0 c3 3d 12 e5 1a 3e d9 9c 12 3e 9b fc 0f 3d
       0.09558178 0.15126446 0.14317645 0.035153013
000010 59 68 03 3e 3f 77 bd 3d 35 fd ef 3d a6 07 91 3d
       0.12832774 0.0925126 0.11718217 0.07081537

bn2.running_mean f4 [8]
000000 14 f9 4b be e4 79 dc 3d f2 47 04 3e 86 14 61 be
       -0.19919235 0.10765436 0.1291807 -0.21980485
000010 a9 66 d1 3e 99 0b 44 3e ae 73 df 3d 66 fc 01 be
       0.40898636 0.19145049 0.10910736 -0.12693939

bn2.running_var f4 [8]
000000 4b 03 c8 3d 72 ee 0c 3e 6c 7f a6 3d df e7 cb 3d
       0.09766253 0.13762835 0.081297725 0.09956335
000010 81 ef 77 3e 31 1d 09 3e 48 8e 41 3e 1d 1b 52 3d
       0.24212457 0.13390042 0.18901932 0.05129539

fc1.weight f4 [32, 392]
000000 8c 0a b6 bb 61 23 81 3c 90 b1 3b 3b fc 9e 20 3d
       -0.0055554565 0.01576394 0.002863977 0.03921412
000010 38 f4 4e 3d 5c 26 4b 3d 6e 1d 40 3d 98 c3 0f bd
       0.050525874 0.04959713 0.046903066 -0.035098642
000020 55 36 f9 bb a2 68 ba 3d 81 c2 4c 3e 8b cc 5f 3d
       -0.007605354 0.091019884 0.19996072 0.054638427
000030 05 b7 45 bd f7 ff da bc b9 a6 04 3c 5c 09 b7 bd
       -0.048270244 -0.026733382 0.00809639 -0.08937332
000040 5d 45 6a bd 96 50 14 3d 7e 92 b5 3b 20 9c b3 3d
       -0.057195056 0.036209665 0.005541145 0.08770013
000050 99 ab 83 3c 7a 2c 8a bc 4f 58 21 be 2b fe 7d bd
       0.016073035 -0.016866911 -0.15756343 -0.06200997
000060 03 27 23 3d e5 1e cb bd f6 7b 20 3d ac 3c 81 3d
       0.039832126 -0.09918002 0.03918072 0.063104
000070 bf 36 a7 bc 4a 04 9a bd c3 79 08 be f4 be 08 3c
       -0.020411847 -0.07520349 -0.13327698 0.008346308
000080 03 1a 80 bd 2c 82 1f 3d dc f8 01 3b 4b 0b 96 bd
       -0.06254961 0.0389425 0.001983217 -0.07326373
000090 e0 4a 29 bd e3 1f 94 bd 2b 58 af bd e8 4c aa bb
       -0.041331172 -0.072326444 -0.085617386 -0.005197156
0000a0 11 a0 8e bd b4 84 b4 3b 0e a1 0f bd e0 5c 59 bd
       -0.06964124 0.0055089835 -0.035065703 -0.053067088
0000b0 47 2d 15 3d 32 48 09 3d 0d de 8e bc 3f d0 f9 3c
       0.036420133 0.033516116 -0.017439866 0.030494807
0000c0 b5 9e 31 bc 61 cc 3a 3b 76 28 39 bd 7f e3 01 bd
       -0.010841061 0.0028503167 -0.045204602 -0.031711098
0000d0 c2 e9 6a bb 39 77 08 bd d5 f0 31 3c d1 9e fd bc
       -0.0035844897 -0.033316825 0.0108606415 -0.030959519
0000e0 17 04 a4 3a 28 bc 30 bd 54 ca 7c bd b4 60 ca 3c
       0.0012513426 -0.04314819 -0.061716393 0.024704315
0000f0 7c 87 78 3d 3a 88 25 3d 7d 16 8a b9 ce be b6 bd
       0.060676083 0.04041312 -0.00026338166 -0.08923112
000100 79 b7 57 be f1 89 a6 bd 02 5e 6e bc 24 a0 8e bb
       -0.21066083 -0.08131779 -0.01454878 -0.0043525863
000110 54 26 a9 bc bc 15 d7 3b 05 fa 58 bd f4 04 e9 bd
       -0.02064816 0.0065638702 -0.052972812 -0.11377898
000120 52 11 85 3b d6 98 8a bd 20 78 5e bd eb f5 73 3d
       0.0040609026 -0.067674324 -0.05431378 0.059560698
000130 91 df b4 bd bb b1 d4 bd d2 4f a2 bd bb 1e 9f 3c
       -0.088317044 -0.10385462 -0.07925381 0.019423833
000140 8d f9 b4 bb 0c f7 20 3a fb 52 69 3d 80 b6 cf 3c
       -0.005522913 0.00061403285 0.056963902 0.025355577
000150 68 76 72 bd 55 98 ba bd 78 ad a7 bc e0 4b 5e bc
       -0.059194952 -0.09111086 -0.020468459 -0.013567895
000160 54 b7 2f 3d d2 05 6e bd fd 1c 13 bd 62 17 15 bd
       0.042899445 -0.05811102 -0.035916317 -0.036399253
000170 ef f0 c1 bd af 1d b6 bc 13 07 c2 3c 53 80 90 3c
       -0.094697826 -0.022230951 0.023685014 0.017639315
000180 49 e1 53 bd b7 a0 8e bd 15 83 58 bc 12 e2 a3 bd
       -0.05172852 -0.06964248 -0.013214846 -0.08002104
000190 00 42 89 bd a9 60 f3 bd a3 5c 5f bd 3c 57 b7 3c
       -0.067020416 -0.11883671 -0.054531705 0.022380464
0001a0 59 78 1c bd 22 46 c8 3b be b7 3b bd a8 87 c8 bd
       -0.03820071 0.006111876 -0.045829527 -0.097914994
0001b0 61 90 b6 bc 0b 62 9c ba da 10 a7 bc b7 43 24 3d
       -0.022285642 -0.0011931075 -0.020393778 0.04010364
0001c0 90 86 88 bd 27 1b 9a bd b3 e1 4e 3c 8a b1 93 bd
       -0.06666291 -0.0752471 0.012627053 -0.07211597
0001d0 7c da 14 bd c1 7b 47 3d f0 f1 8b bc 0e 29 9f bd
       -0.036341175 0.048702005 -0.017083138 -0.077715024
0001e0 0d 02 4a be 20 25 1c bd fb 5e ed bd 57 13 ba bd
       -0.19727345 -0.038121343 -0.11590382 -0.0908572
0001f0 2b a7 61 bd 45 b0 36 3d 4a f8 a4 bd 22 e7 30 be
       -0.055091064 0.044601697 -0.0805517 -0.1727567
000200 05 48 a2 bd 48 83 2b bd 49 a8 02 bd a5 f0 fb bc
       -0.07923893 -0.041873246 -0.03189877 -0.030754397
000210 ff 96 93 bd 56 8a 99 bd ba 5b a4 bd 53 c3 a1 bd
       -0.072065346 -0.074970886 -0.08025308 -0.07898583
000220 8c 21 fd 3c b0 26 87 3b 09 04 94 bd ab 48 c2 bd
       0.030899785 0.004124485 -0.07227332 -0.094865166
000230 71 bc 8a bd 1f 0c f1 bc c1 41 9b bd 26 00 18 3d
       -0.067742236 -0.029424725 -0.07580901 0.037109517
000240 75 27 42 3c 92 5e 73 bb 64 a5 bc 3b 0c 8b 45 bd
       0.011850228 -0.0037135226 0.005757021 -0.04822831
000250 94 f6 58 bd 89 87 ae bd ca 89 1d bc 33 41 69 3b
       -0.05296953 -0.08521945 -0.009615371 0.003559184
000260 24 07 5c 3d 05 80 5e 3d f7 f4 0e bd 73 8e a0 bd
       0.053717747 0.054321308 -0.034901585 -0.0783967
000270 0d 07 da bc 35 3a ff 3c c5 64 34 bd 35 6c 3b bc
       -0.02661469 0.031155685 -0.044041414 -0.011439373
000280 72 54 df 3c 98 51 9b bc fc b7 1e 3d 14 f5 9f bb
       0.027261946 -0.018959805 0.03874968 -0.0048815105
000290 8b b8 b5 3c a8 07 ad bc c3 c0 96 3c 9e 9e 9b 3d
       0.022182724 -0.021121815 0.018402463 0.07598613
0002a0 69 c0 fa 3d 96 4a a0 3c 04 00 7b 3c 22 b1 c8 3c
       0.122437306 0.019566815 0.015319828 0.024498526
0002b0 aa 09 a9 3d b9 f1 d8 3d 45 94 ae 3c 62 d7 d1 bb
       0.082537964 0.1059298 0.021310935 -0.0064038495
0002c0 66 3b ac 3d bd 99 11 bd cb c8 b5 3c 39 4f a0 bb
       0.08409767 -0.035547007 0.022190472 -0.0048922566
0002d0 19 8f 7a 3d e0 61 4b bd 46 be 2f bd 50 4e 60 bd
       0.061171625 -0.049653888 -0.04290607 -0.054762185
0002e0 f5 59 80 3d b2 51 12 3d 00 59 19 bd c3 e8 e9 bc
       0.06267158 0.035722442 -0.037438393 -0.028553372
0002f0 95 dd a2 bb e5 23 04 bd da 1b 55 3d 24 29 40 bd
       -0.0049702623 -0.032260794 0.052028514 -0.046914235
000300 15 f2 20 bd 7c b6 01 3d 23 c8 29 bd f3 f0 8e bd
       -0.039293367 0.03166817 -0.04145063 -0.06979551
000310 38 0c 71 3c b0 5a 4a 3b ff 1c 58 3c ef 7e a6 3d
       0.014712386 0.0030876808 0.013190507 0.081296794
000320 67 f1 2a 3d 42 74 6f 3d c7 52 b6 3d e0 81 b5 bd
       0.041734125 0.05846048 0.08902507 -0.08862662
000330 d7 01 cb bd 0d b6 03 3d 7b b8 ae 3c 42 76 48 bd
       -0.0991246 0.03215604 0.021328202 -0.048940904
000340 0e 4a 4d bd 17 d8 1c bd 89 04 3e bd 00 d5 9d bd
       -0.050119452 -0.038292017 -0.046391044 -0.07706642
000350 d9 d1 1d bd 9d 3f ac 3d 3e 56 1c bc a6 c9 1e bc
       -0.038530204 0.08410571 -0.009542046 -0.009691631
000360 57 6a 65 bd 49 9e a5 bc 4f 4c 29 bd 94 c1 94 3c
       -0.056009617 -0.020217078 -0.04133254 0.018158711
000370 11 66 4d bc e2 87 0c 3e 75 b8 c2 3d 13 2c a7 bd
       -0.012536542 0.1372371 0.09507839 -0.08162703
000380 f5 8a 80 bd 59 47 d4 bc 3b 04 1d 3d 91 6e 0b 3d
       -0.06276504 -0.025912927 0.038334113 0.03404099
000390 c2 bf bc 3d 76 79 26 3c 22 26 02 be 8d 88 15 bd
       0.092162624 0.0101607945 -0.12709859 -0.036507178
0003a0 56 c1 67 bd 23 f3 e3 3b f7 9f 71 3d c5 b3 57 3d
       -0.056580864 0.0069564744 0.058990445 0.052661676
0003b0 16 39 2d bd 17 0d a2 bd a9 76 4d bd de 4e 21 bd
       -0.04229077 -0.07912653 -0.05016199 -0.039381854
0003c0 96 4f 29 bd 3b 9c 61 bd da 39 ea 3c 6c df 3d bd
       -0.041335665 -0.055080634 0.028592039 -0.04635565
0003d0 dc 4b 84 bd 19 79 ee 3c 1d 16 7c bc 51 52 8a 3b
       -0.064597815 0.029110478 -0.015386132 0.0042212387
0003e0 ed 6a 6d bd 6d b8 56 3c 17 50 98 bc 2f fb 9b 3c
       -0.0579633 0.013105494 -0.018592877 0.019040672
0003f0 17 a6 aa 3d f4 5b d0 bc a4 84 ac 3d 20 41 29 ba
       0.083324604 -0.025434472 0.08423737 -0.0006456543

fc1.bias f4 [32]
000000 54 64 23 bd 14 21 88 bc 06 18 97 bc 1c 58 5a bd
       -0.039890602 -0.016617335 -0.018444072 -0.053306684
000010 68 39 08 bd 96 12 5f bd 3a 00 f0 3a 1e f8 36 ba
       -0.033257872 -0.054461084 0.0018310614 -0.00069797214
000020 57 99 5f 3d 95 9f 96 3d 5b 10 e6 3b 01 0c c6 3c
       0.054589596 0.073546566 0.0070209927 0.024175646
000030 d4 de 71 3d 81 b1 b8 3c 2f 01 9f 3c 58 55 24 bc
       0.059050396 0.022545578 0.019409744 -0.010030113
000040 07 4b 0d bb b3 71 0e 3d a3 c8 95 bb 5f 56 4d 3d
       -0.0021559612 0.0347764 -0.004571037 0.050131198
000050 5a 0d 5b 3c fc d8 53 bd 8f 1b 96 3d 90 22 bd 3d
       0.0133698825 -0.051720604 0.07329475 0.09235108
000060 90 62 92 3d 8f 9c 50 3c 3b dc 76 bd 01 84 82 3c
       0.071477056 0.012732639 -0.060268622 0.015932085
000070 73 fe 4b 3d 74 34 ae 3d eb eb 30 bc a3 a4 69 bc
       0.04980321 0.085060984 -0.010798435 -0.014260444

fc2.weight f4 [10, 32]
000000 57 5e 77 3e 01 fb a0 be 7c 86 11 be d7 dd 6b 3d
       0.24157082 -0.314415 -0.14211458 0.05758461
000010 e5 c9 02 3e 3e 4d 20 be 8a 49 21 3e de 47 51 3e
       0.12772329 -0.15654466 0.15750709 0.20437571
000020 e1 ce a0 be 3e 31 5e 3e 9b 4f a2 3d f9 26 c4 bb
       -0.31407836 0.21698472 0.0792534 -0.005986091
000030 fe 5f be be 99 13 a7 bd c5 c9 b2 be 4b 6b 4c bc
       -0.3718261 -0.08158035 -0.34919563 -0.0124767525
000040 e2 50 5f bd a1 ac a8 3d e6 ea 57 be 0f db ff 3d
       -0.054520495 0.08236051 -0.210857 0.12492954
000050 88 98 70 3b 93 3e f0 3a c5 84 36 3e 2f 7a 23 3e
       0.003671201 0.0018329195 0.17824085 0.15964578
000060 73 18 5a be 26 f7 4b 3e 06 bf 03 3c b3 fc 78 be
       -0.21298389 0.19918498 0.008041149 -0.24315147
000070 aa 38 36 3e 20 fe 26 be a9 e4 0e 3e 8a 33 f6 bd
       0.17795053 -0.16307878 0.13954414 -0.12021549
000080 1b b3 7f be 6d e1 4a 3e 9e 7d 14 3e 80 2a 1d be
       -0.24970667 0.19812556 0.14501044 -0.15348244
000090 f4 49 25 be 72 f4 2a be a6 d6 bc bd ec 27 96 3e
       -0.16141492 -0.16694811 -0.092206284 0.29327333
0000a0 a9 ce 10 3e 7b fa d4 bd 80 90 45 be 9f f1 ad be
       0.14141335 -0.10399338 -0.19293404 -0.33973405
0000b0 89 67 57 3e 80 e0 8e bd 93 65 23 be c6 40 3d 3d
       0.2103559 -0.06976414 -0.15956716 0.04620435
0000c0 15 09 10 be 21 5a 7c be b4 35 2a 3e d1 86 14 3e
       -0.14065965 -0.24643756 0.16622049 0.14504553
0000d0 e5 e6 c2 be 08 f1 a9 be f3 34 d8 3d aa d4 cf 3d
       -0.38066784 -0.33191705 0.10556974 0.10147984
0000e0 0e ee 83 3e ca 03 f4 bd d8 04 b9 be 27 4c 98 be
       0.2576756 -0.11914785 -0.36136508 -0.297456
0000f0 6d 48 43 3e 08 22 6a 3e 9a c7 b4 be a7 04 7f be
       0.19070597 0.22864544 -0.35308534 -0.24904118
000100 ae 17 12 be fb 22 62 be 61 d6 09 be e2 6c 04 3d
       -0.14266846 -0.22083656 -0.13460685 0.0323304
000110 3d b2 26 3e 02 fc e6 3d b7 bd a0 3d 66 ea 1e be
       0.1627893 0.112785354 0.07848685 -0.15519103
000120 94 d4 0c 3e 88 8b 74 be 9a 6a 88 be d7 d6 32 3e
       0.13752967 -0.23881352 -0.2664383 0.17464767
000130 84 c9 fe 3d f5 f3 27 3e c2 d5 a5 be 92 e0 09 be
       0.1244078 0.16401656 -0.32389647 -0.13464573
000140 80 f8 ed 3d 8b 17 4f 3e 30 37 15 3e 05 b4 ec bd
       0.11619663 0.20223825 0.14571834 -0.115577735
000150 02 5a 9f bd 85 ee 5a bc 49 4a d7 bd 8d 97 44 3e
       -0.077808395 -0.013362532 -0.10512216 0.19198437
000160 aa de 38 be aa 1a fb bd 0e 18 45 be 5c 7a 15 bd
       -0.1805369 -0.12260945 -0.19247457 -0.036493644
000170 fd 9e 35 3e d7 2a 8f be 25 8f 0e 3e 58 65 48 3e
       0.1773643 -0.27962372 0.13921793 0.1956991
000180 66 6a 2e be 79 4e 79 3e 08 0d d3 bd 98 e1 54 3e
       -0.17032775 0.24346341 -0.1030522 0.20789182
000190 42 58 80 bd 1f 6a d7 bd c8 ff 12 3e 12 69 57 be
       -0.06266834 -0.10518288 0.14355385 -0.21036175
0001a0 90 db cf 3d 9f 90 76 be 20 19 85 3e 03 77 5c be
       0.101493 -0.24078606 0.2599573 -0.21529774
0001b0 db 26 d6 bc ce 04 d1 3d 88 ff e5 bd 0d ea 94 bb
       -0.026141575 0.102059945 -0.11230379 -0.0045445026
0001c0 15 05 35 3e 8a fe 97 be df 2b db 3d ba 75 cf 3d
       0.1767772 -0.29686385 0.10701727 0.101298764
0001d0 45 c0 35 3e 77 66 9e be 57 9e de 3d f2 f8 c4 bc
       0.17749126 -0.3093755 0.10870045 -0.024044488
0001e0 97 17 62 be d8 31 5e be 1c c0 af 3d d4 81 87 3d
       -0.22079311 -0.21698701 0.08581564 0.066165596
0001f0 c6 04 bb 3d 86 ef a6 be de a8 bf bd ee 93 6b bd
       0.0913177 -0.32604617 -0.09358381 -0.057514124
000200 2c 59 4d 3e b5 dd f6 bd 87 5f c0 3d 66 96 86 be
       0.20053548 -0.12054006 0.093932204 -0.2628662
000210 dd 11 6c be f1 45 74 bd b5 16 28 3e 0a 39 6e 3e
       -0.2305369 -0.059637014 0.16414912 0.23263946
000220 36 7e 8d be 0e e0 25 be 15 63 74 3e fd 05 94 be
       -0.27635354 -0.16198751 0.23865922 -0.2891082
000230 be 2c d0 3d 41 d1 1b 3e 28 0e 30 3e f9 cb 62 bd
       0.10164784 0.15216543 0.171929 -0.055370305
000240 4c 53 28 3e cf 0c 56 3e f6 00 8e bd 84 72 ad be
       0.16438025 0.20903324 -0.06933777 -0.3387643
000250 0d 7f ca be 4a f0 e1 3d 37 c7 d3 3d a7 3a be be
       -0.39550057 0.110321596 0.103407316 -0.37154123
000260 23 11 6a 3e 63 b8 67 be c7 2e e0 3c e2 97 70 3c
       0.228581 -0.22628932 0.027366055 0.014684649
000270 a6 0a db 3d 02 3c 45 3e f0 c3 85 3c 3b 6b a4 3d
       0.106953904 0.19261172 0.016328782 0.08028265
000280 ff 79 0f be 69 df 0d be 64 7b 29 be b0 c5 20 3e
       -0.14011382 -0.13854755 -0.16550976 0.15700412
000290 4a 86 cf 3c 49 10 61 3c e2 c3 05 3e 23 bb 93 be
       0.025332589 0.013736793 0.13063005 -0.2885371
0002a0 f2 88 47 3c 8b d4 3c 3e f0 44 c4 3d 21 55 2b be
       0.012178646 0.18440454 0.09583461 -0.16731693
0002b0 12 f1 2b 3e 7a 7c ef bd 8a bb 8a 3e ae 1b d9 3d
       0.1679118 -0.11693664 0.27096206 0.106009826
0002c0 a3 f3 85 be a2 d5 a7 be 00 4a 8c be 4e 93 96 3d
       -0.26162443 -0.32780176 -0.27400208 0.07352315
0002d0 75 47 54 3e ef 7f 58 be 53 3b 47 3e 5e f9 e4 3d
       0.20730384 -0.21142553 0.19456224 0.111803755
0002e0 42 bc b0 be 38 9c b0 bd 5f ce 78 bd 32 36 c1 3c
       -0.3451863 -0.08623546 -0.060743686 0.023585413
0002f0 f0 b9 d7 bd 28 80 3e 3e ed e7 ea 3d 1c 88 0e 3e
       -0.10533512 0.18603575 0.114700176 0.13919109
000300 69 b4 51 3e 3e 8e f2 3d cf 80 0b be c9 2c 81 be
       0.20478977 0.11843537 -0.13623355 -0.2522948
000310 97 5c 63 3e 7c df 51 3d 37 d1 22 3d 13 12 85 3e
       0.22203289 0.051238522 0.039750304 0.25990352
000320 cf 1b bf bd 74 db 60 be 12 1a 2f bc 72 18 3f 3e
       -0.09331476 -0.21958715 -0.010687368 0.18661669
000330 41 11 71 3d 8f 11 9a bc aa 7d 35 3d f2 19 a9 3d
       0.058854345 -0.0188072 0.044309296 0.08256902
000340 e8 6a 89 bd 24 23 29 3d 88 45 b3 be 04 8b 1b 3e
       -0.06709844 0.04129328 -0.35013986 0.15189749
000350 f5 6f 50 bd 6f 0f ac 3d ca cf 63 3e cb 7b b3 be
       -0.05088802 0.08401381 0.22247234 -0.35055384
000360 f4 e2 6c be 7f c5 b3 bd d5 2d b9 be 2f 2d 86 be
       -0.23133451 -0.08777904 -0.3616778 -0.26206347
000370 d8 55 4c be a8 69 94 3d 36 4a 3c be 0b cf 37 3e
       -0.19954622 0.07246715 -0.18387684 0.17950074
000380 53 d1 9c 3d 76 d7 00 3e 67 87 05 3e 7f 38 55 be
       0.07657113 0.12582192 0.13039933 -0.20822333
000390 a2 7b b1 be 2a cc ed 3c 8e f0 03 3e 41 42 98 be
       -0.34664637 0.029028017 0.12884733 -0.29738048
0003a0 51 ee 28 be 99 ca 7e 3e 57 49 9b bd fc 96 33 3d
       -0.1649716 0.24881972 -0.07582348 0.04384516
0003b0 76 7c fe 3d 38 02 b0 bc d3 30 df bd cd 10 df 3c
       0.12426083 -0.021485433 -0.10897984 0.02722969
0003c0 ef ed 46 3e 99 5d 06 3e 89 3f 4d 3e 41 7a 30 be
       0.19426702 0.13121642 0.20043768 -0.17234136
0003d0 89 3e c5 be d2 00 ea 3d fe 73 6e bc 78 1d 60 3e
       -0.38524273 0.11425938 -0.014554022 0.21886241
0003e0 5b 97 20 bd 4a bb 47 3e fd d7 0a 3e 4f 5a 12 3d
       -0.039206844 0.19505039 0.13558955 0.035730656
0003f0 6d 96 85 be b1 b6 36 be d3 7a 87 be 7f 2f 98 be
       -0.26091328 -0.17843129 -0.26460895 -0.29723737

fc2.bias f4 [10]
000000 f9 b6 1a be 11 13 57 bd f4 13 17 bc f1 73 67 3d
       -0.15108861 -0.052508418 -0.009221066 0.056507055
000010 f5 dd 00 be 01 1e df bd cc f7 eb bd 1d ab 33 3e
       -0.1258467 -0.10894395 -0.11521873 0.17545743
000020 31 82 c9 bd 94 ec 09 3d
       -0.09839285 0.033672884
