models/mnist_model_20241118_111325.pth (torch, 831152 bytes, 8 tensors)

conv1.weight f4 [16, 1, 3, 3]
0.39061776 -0.08069899 0.24973834 -0.13511837 0.06377829 0.036208626 0.17184547 0.2018817
-0.22117257 0.21114992 -0.08879515 0.22112222 0.35191736 0.35335556 0.21625404 0.008590123
0.16662489 -0.21476136 -0.36356628 -0.04187843 0.08466148 -0.3193407 0.06511866 0.22789848
-0.30948523 0.13886647 0.22768977 0.10971422 -0.04198246 0.31571326 -0.25206298 0.3533459
-0.10232043 0.21782236 0.05019756 0.30056545 -0.2118339 -0.27353826 0.20104703 -0.13363165
-0.3457298 -0.3030001 -0.19751205 0.16091242 -0.30103508 -0.31561488 -0.20236601 -0.03172824
-0.22317497 -0.37198418 0.124934986 0.05110852 0.090655334 0.49429533 -0.0016564777 0.21772863
-0.2839313 0.34106135 0.12501773 -0.14694385 -0.12010807 0.18895105 0.16792563 0.3799768
0.32645643 0.23760673 -0.16843002 0.31359258 -0.07838515 -0.5271265 -0.34099966 -0.33546397
0.356782 0.22355685 -0.2555521 -0.278104 -0.354588 -0.38833734 -0.14371575 -0.26597142
0.11636872 0.14267534 0.3236609 -0.254722 0.39075622 0.051147133 -0.06656034 -0.06276609
-0.26051328 0.2454111 0.27655578 -0.06683063 0.35528144 0.030223042 0.31046957 0.13712941
-0.5064403 -0.253948 -0.03594031 0.25729972 -0.20064491 -0.39508405 -0.17644928 -0.09065944
-0.29720947 0.40099797 0.42280227 0.40124917 0.18826856 0.35918745 -0.15899765 0.26659945
-0.15399332 0.22493733 0.33043066 -0.032010023 -0.25257948 -0.22543178 -0.03161695 0.1564298
0.3460294 0.26783618 -0.123352766 0.040251687 -0.012533409 0.27221024 -0.13098583 0.12254611
0.27274662 0.2850678 -0.11467248 0.3555519 0.29611138 0.18257485 0.36987874 -0.018829398
-0.29525664 -0.4212842 0.30054206 0.34106776 -0.09136745 0.3716792 -0.16724336 0.15081054
00000000: 0dff c73e 8345 a5bd 68bb 7f3e 785c 0abe
00000010: 319e 823d 7f4f 143d 42f8 2f3e 14ba 4e3e
00000020: 107b 62be af37 583e 3bda b5bd dd6d 623e
00000030: 832e b43e 05eb b43e b371 5d3e 96bd 0c3c
00000040: b79f 2a3e 67ea 5bbe 5c25 babe b788 2bbd
00000050: ff62 ad3d a080 a3be ef5c 853d 385e 693e
00000060: d974 9ebe 0333 0e3e 8227 693e d9b1 e03d
00000070: cdf5 2bbd 2ba5 a13e 660e 81be c1e9 b43e
00000080: 608d d1bd d30c 5f3e f59b 4d3d b7e3 993e
00000090: fcea 58be 350d 8cbe 46df 4d3e bcd6 08be
000000a0: 7f03 b1be d422 9bbe 9940 4abe 3ac6 243e
000000b0: 4521 9abe 4698 a1be 0939 4fbe 79f5 01bd
000000c0: fb87 64be b674 bebe eadd ff3d 2b57 513d
000000d0: 81a9 b93d 4714 fd3e 2b1e d9ba 41f4 5e3e
000000e0: 715f 91be 989f ae3e a604 003e 7378 16be
000000f0: 38fb f5bd 627c 413e b2f4 2b3e 528c c23e
00000100: 4c25 a73e 2e4f 733e eb78 2cbe 358f a03e
00000110: 6588 a0bd c3f1 06bf 8297 aebe efc1 abbe
00000120: 21ac b63e 16ec 643e bad7 82be a663 8ebe
00000130: 8f8c b5be 27d4 c6be 392a 13be 682d 88be
00000140: b952 ee3d 7c19 123e e2b6 a53e ec6a 82be
00000150: 3311 c83e a87f 513d ca50 88bd 828b 80bd
00000160: ff61 85be 0c4d 7b3e b898 8d3e 7fde 88bd
00000170: 73e7 b53e 5096 f73c def5 9e3e a76b 0c3e
00000180: 12a6 01bf 7905 82be 2636 13bd cabc 833e
00000190: dc75 4dbe 7548 cabe 1faf 34be a8ab b9bd
000001a0: d72b 98be 9b4f cd3e 8a79 d83e 8870 cd3e
000001b0: 79c9 403e 6be7 b73e 48d0 22be b97f 883e
000001c0: 6db0 1dbe f955 663e 352e a93e f11c 03bd
000001d0: 1952 81be 97d7 66be c680 01bd 222f 203e
000001e0: c42a b13e d321 893e 60a0 fcbd f4de 243d
000001f0: ed58 4dbc 245f 8b3e 2621 06be 74f9 fa3d
00000200: 72a5 8b3e 68f4 913e 68d9 eabd e60a b63e
00000210: e99b 973e e7f4 3a3e bf60 bd3e 1c40 9abc
00000220: e12b 97be 90b2 d7be a6e0 993e 6fa0 ae3e
00000230: dc1e bbbd bc4c be3e d841 2bbe 146e 1a3e

conv1.bias f4 [16]
0.17855175 0.29046118 0.039497945 -0.13875602 0.21784489 -0.17567676 -0.054932512 -0.043475345
-0.16987346 -0.0031136961 0.039276443 -0.063009396 0.33787775 -0.23163809 0.1258885 -0.1699853
00000000: 45d6 363e 54b7 943e 99c8 213d 0f16 0ebe
00000010: bb12 5f3e 9ce4 33be ea00 61bd 3413 32bd
00000020: 4ff3 2dbe 270f 4cbb 56e0 203d 120b 81bd
00000030: 50fe ac3e 8932 6dbe eae8 003e a010 2ebe

conv2.weight f4 [32, 16, 3, 3]
-0.100174464 -0.086867675 0.015116659 -0.019620607 -0.047525726 -0.0029620593 0.099543534 0.057973187
0.051104594 -0.104409 -0.15342802 -0.07748294 0.031427994 -0.0067487545 -0.04418973 -0.06307656
0.030078597 0.07190477 -0.16621494 -0.06523128 0.017162116 -0.07550429 -0.16790047 -0.11270919
-0.062361766 0.017465439 -0.13719103 -0.12779854 -0.016963448 -0.101483844 0.009604798 0.06499577
-0.00919854 0.06758092 0.028249957 0.005236636 0.05563029 0.032807417 0.10430411 0.013826768
0.048317086 -0.028269125 -0.02399935 -0.072835825 -0.0077151908 -0.04881417 -0.03585179 -0.12531443
-0.09944864 -0.1066692 -0.04144562 -0.01671746 -0.13525389 -0.06200634 0.016228836 -0.12445407
-0.06362651 0.14604738 0.018774955 0.048207898 -0.015654579 0.15936421 0.1317172 0.01760719
0.13578454 0.15297607 0.13424419 -0.051748406 -0.05623827 0.10361579 -0.027232261 -0.09742999
-0.052956957 0.0829732 -0.090305276 -0.036536265 -0.10761883 -0.069598764 0.036846995 -0.0054728836
-0.077653736 -0.16459073 -0.059577886 -0.08177424 -0.009180477 0.037540954 -0.009252401 0.08410164
0.09288597 0.00818446 -0.105010495 0.013433125 0.15378278 0.14878908 -0.0011473489 -0.16173273
0.086817 0.013305286 0.085577115 0.14733 -0.08828302 -0.049445752 0.08055485 -0.019185714
0.005082342 0.039674226 0.10463518 0.16048338 -0.0002432057 -0.056883708 -0.08140294 0.039411847
-0.01673203 -0.0987087 0.027248947 0.08319583 0.05638678 -0.08023201 -0.13025682 -0.09491135
0.1283531 0.09960974 -0.09372085 0.016811017 0.117768474 0.085066184 -0.09340098 -0.087386265
-0.07570151 0.07049752 0.030758059 -0.050279237 -0.0047172126 0.044199135 0.07138418 0.028338857
-0.1395321 -0.06999805 0.13557568 0.14767033 -0.005486281 0.010724664 0.14147605 0.19957343
0.050177407 0.016868643 -0.044443347 -0.031079043 -0.06104298 0.045842085 -0.08958163 0.0034066192
0.050222885 -0.050593503 0.10172653 0.06728505 -0.04996677 -0.06520072 0.060245655 -0.041839093
-0.08779705 0.017811472 0.0056724553 -0.0850896 -0.08370079 -0.1392415 0.08153751 -0.08746793
-0.060783006 0.0985228 0.0453812 0.009839449 0.06837212 -0.02638039 -0.13706504 0.014403636
0.06577615 -0.13310882 -0.035320804 -0.016673364 -0.06583972 -0.027340155 -0.019162277 -0.081620015
-0.08224734 -0.053434636 -0.04462709 -0.022459881 -0.004811802 -0.113809384 0.0028482447 -0.027462019
-0.14330806 0.02273509 -0.14441152 -0.088283844 0.046456188 -0.09305159 0.032356814 0.0912388
0.09957618 -0.13970862 0.074948005 0.14046168 -0.16209231 -0.019327803 0.10936704 0.0425439
-0.054830972 -0.03634115 0.054772936 0.03698345 -0.18695116 -0.052242495 -0.22245927 -0.08255182
0.012964446 -0.019946823 -0.025434317 -0.036100984 -0.14413697 -0.16951376 0.0559024 -0.034217313
-0.11478851 -0.0033083882 0.06498868 0.0260381 -0.07668012 -0.022575164 0.05702502 -0.14451437
-0.10404932 0.08020205 -0.00035916286 0.1167684 0.04165851 0.0481427 0.0057361256 -0.08353738
-0.030655816 -0.013572733 -0.0727509 0.006541548 0.11432194 0.114404604 -0.052303743 -0.055544887
0.09368111 -0.13075376 -0.17128082 0.09659056 0.0525861 -0.040300198 0.027800655 -0.122340806
00000000: 4528 cdbd aee7 b1bd ddab 773c 65bb a0bc
00000010: 56aa 42bd 1c1f 42bb 7bdd cb3d 4b75 6d3d
00000020: 0d53 513d 63d4 d5bd 3c1c 1dbe 60af 9ebd
00000030: a4ba 003d a824 ddbb 4a00 35bd 492e 81bd
00000040: 6467 f63c cf42 933d 4034 2abe fa97 85bd
00000050: 9197 8c3c fea1 9abd 1aee 2bbe 13d4 e6bd
00000060: 0d6f 7fbd ae13 8f3c ce7b 0cbe 9fdd 02be
00000070: eef6 8abc c3d6 cfbd 715d 1d3c 811c 853d
00000080: 79b5 16bc de67 8a3d 746c e73c 1698 ab3b
00000090: 96dc 633d 1261 063d 659d d53d ab89 623c
000000a0: 23e8 453d a794 e7bc 499a c4bc f32a 95bd
000000b0: b6cf fcbb 5ef1 47bd 54d9 12bd 6d52 00be
000000c0: bbab cbbd 6275 dabd e2c2 29bd 0ef3 88bc
000000d0: ff7f 0abe 5cfa 7dbd 56f2 843c c7e1 febd
000000e0: 9e4e 82bd 728d 153e efcd 993c a575 453d
000000f0: 083e 80bc 5f30 233e e0e0 063e f43c 903c
00000100: 1a0b 0b3e c2a5 1c3e 4f77 093e 23f6 53bd
00000110: 1a5a 66bd 8434 d43d 3116 dfbc 6089 c7bd
00000120: 65e9 58bd daed a93d f9f1 b8bd 0da7 15bd
00000130: 4367 dcbd cc89 8ebd e0ec 163d e055 b3bb
00000140: ec08 9fbd 798a 28be f107 74bd 4179 a7bd
00000150: b669 16bc 8bc4 193d 6297 17bc 7b3d ac3d
00000160: 003b be3d 1d18 063c be0f d7bd 9c16 5c3c
00000170: 3c79 1d3e 2a5c 183e a462 96ba 449d 25be
00000180: 1ccd b13d 6afe 593c 0e43 af3d addd 163e
00000190: bacd b4bd a187 4abd f1f9 a43d 5c2b 9dbc
000001a0: c689 a63b 7181 223d f84a d63d c155 243e
000001b0: 0805 7fb9 e4fe 68bd 96b6 a6bd 516e 213d
000001c0: 9c11 89bc c927 cabd 2f39 df3c 9362 aa3d
000001d0: d3f5 663d ae50 a4bd 0b62 05be e260 c2bd
000001e0: ff6e 033e 3100 cc3d b8f0 bfbd 42b7 893c
000001f0: 9930 f13d 2e37 ae3d 0349 bfbd 92f7 b2bd
00000200: 6509 9bbd 0161 903d 53f8 fb3c 9af1 4dbd
00000210: d992 9abb 270a 353d de31 923d e426 e83c
00000220: 81e1 0ebe 235b 8fbd 5ad4 0a3e e436 173e
00000230: 43c6 b3bb 80b6 2f3c 19df 103e fa5c 4c3e
00000240: d386 4d3d 1c30 8a3c 3a0a 36bd 7a99 febc
00000250: 3408 7abd e9c4 3b3d 9376 b7bd 9641 5f3b
00000260: 83b6 4d3d 223b 4fbd 0056 d03d bfcc 893d
00000270: f5a9 4cbd f587 85bd 26c4 763d 785f 2bbd
00000280: f1ce b3bd 5de9 913c 01e0 b93b 7543 aebd
00000290: 526b abbd 5395 0ebe 23fd a63d 6322 b3bd
000002a0: 9af7 78bd 52c6 c93d a3e1 393d a435 213c
000002b0: af06 8c3d b01b d8bc c75a 0cbe 3afd 6b3c
000002c0: a5b5 863d ae4d 08be 8cac 10bd 9496 88bc
000002d0: fad6 86bd 76f8 dfbc 35fa 9cbc 6528 a7bd
000002e0: 4b71 a8bd 47de 5abd e5ca 36bd c9fd b7bc
000002f0: 52ac 9dbb e514 e9bd 9ea9 3a3b 07f8 e0bc
00000300: 59bf 12be f13e ba3c 9de0 13be 29ce b4bd
00000310: d848 3e3d d591 bebd 9488 043d 68db ba3d
00000320: 99ee cb3d c70f 0fbe 577e 993d 30d5 0f3e
00000330: 87fb 25be 5755 9ebc d4fb df3d 8342 2e3d
00000340: 7196 60bd 75da 14bd 9659 603d f57b 173d
00000350: 2070 3fbe 3afc 55bd 5dcc 63be ee10 a9bd
00000360: d468 543c 8567 a3bc a15b d0bc a0de 13bd
00000370: a498 13be 0495 2dbe eaf9 643d 7427 0cbd
00000380: 3d16 ebbd 8bd1 58bb c918 853d da4d d53c
00000390: 770a 9dbd 8def b8bc 1193 693d 93fb 13be
000003a0: cf17 d5bd f940 a43d 064e bcb9 4524 ef3d
000003b0: 1da2 2a3d 4831 453d 1cf6 bb3b a515 abbd
000003c0: e821 fbbc 2b60 5ebc 6dfe 94bd 7b5a d63b
000003d0: 9f21 ea3d f64c ea3d 733c 56bd 0983 63bd
000003e0: e2db bf3d 50e4 05be 3d64 2fbe 46d1 c53d
000003f0: 8664 573d d211 25bd 33be e33c d18d fabd

conv2.bias f4 [32]
-0.03433222 -0.07684378 -0.062274005 0.001673263 0.009493345 -0.04972013 0.05845652 -0.012949492
-0.019687952 0.023007628 0.05253791 -0.05398117 0.039974257 -0.102934495 -0.09012401 0.029586516
-0.005265021 -0.0026554258 -0.09357923 0.035432037 -0.06582796 0.01743554 -0.044177745 -0.045346618
-0.0053367256 -0.087617114 -0.08658809 -0.08078099 0.016469209 -0.02379527 -0.06867746 -0.06957848
00000000: f19f 0cbd 4660 9dbd 0713 7fbd 6451 db3a
00000010: fa89 1b3c 56a7 4bbd 1b70 6f3d 1b2a 54bc
00000020: a148 a1bc 7e7a bc3c fe31 573d 5c1b 5dbd
00000030: 0cbc 233d 52cf d2bd f092 b8bd 6c5f f23c
00000040: 3386 acbb a706 2ebb 78a6 bfbd 2f21 113d
00000050: cfd0 86bd fad4 8e3c b9f3 34bd 60bd 39bd
00000060: b3df aebb 9a70 b3bd 1955 b1bd 8170 a5bd
00000070: 6fea 863c 4cee c2bc c5a6 8cbd 2a7f 8ebd

fc1.weight f4 [128, 1568]
0.029278506 0.0121416375 0.023049545 0.0018564721 -0.042279486 -0.019902637 -0.016743256 -0.0036217072
-0.026350245 -0.0052564885 0.059157655 0.0033912985 -0.023418777 -0.0398187 0.01835517 0.0050540017
-0.056434765 0.00018451612 0.013393247 -0.03141141 -0.03854067 -0.0596788 -0.032163147 -0.015377392
-0.063944295 -0.040069614 -0.081182435 -0.061409872 -0.051507093 -0.030467145 0.0033021618 -0.027964607
-0.04929899 -0.010151371 -0.01931673 0.00864921 -0.07121402 -0.018372277 -0.016039165 0.06777008
0.047395345 0.014002878 -0.0069609676 0.02085654 0.06123644 0.030503806 0.10138917 0.06935845
0.06976354 0.01585439 -0.0016198021 -0.0014349753 0.014685304 -0.034141865 -0.006574899 0.016856419
-0.01501472 -0.010284623 -0.0188576 -0.014262769 0.0022448618 -0.0025608782 -0.038173955 0.004565776
-0.00084594893 0.007731842 0.045041118 -0.023218494 -0.03570866 -0.03157196 0.023512337 0.007036329
0.009708418 0.07519755 -0.017448034 -0.043705285 -0.02615846 0.004291362 0.004226227 0.010329031
0.030904613 -0.017350744 -0.053301442 -0.019312419 -0.019447906 -0.0058660647 0.012825824 0.044996206
0.01837219 0.029445956 0.027696734 0.014508389 -0.012535564 -0.032563858 0.015093156 0.06059344
0.030311499 0.023010409 -0.017030472 -0.00886471 0.024461096 -0.013134499 -0.024228644 -0.017190892
0.026246954 -0.013253009 0.015650962 -0.020949753 0.0593305 0.005756091 -0.042643294 -0.035622593
0.024605207 -0.015670333 -0.013137759 0.038490225 0.03698477 0.0037419028 -0.0233562 -0.03314035
0.007207891 0.020596266 -0.021081185 0.023389695 0.01911493 -0.008261397 -0.0073270616 0.0018835411
-0.027843773 -0.013659642 0.025704006 -0.01340394 -0.03224879 0.012799758 -0.017690571 -0.02379765
0.055282105 0.01120205 -0.007462277 0.005647953 0.008658502 0.03235217 0.03244466 0.014520064
0.029414777 0.010213911 0.018939395 0.006621641 -0.008556788 0.026578525 0.015362223 0.015805753
-0.0104325265 0.020514898 -0.0031370681 0.022612115 -0.04749153 0.021951083 0.023813182 -0.022194196
-0.028088622 0.04411755 0.02409164 -0.015650207 -0.0065404447 0.06631773 -0.0024194783 -0.013189449
-0.0138298115 0.0515981 0.059289236 -0.059302874 0.055005424 0.010019131 -0.050593425 0.028598428
0.024199672 -0.03853736 0.037402313 0.062080696 -0.011867706 -0.04121333 0.010654694 0.038336962
0.033529993 0.0759229 -0.028518045 0.010319932 0.012237752 0.0060130004 0.033455987 0.090682045
0.016903134 0.01962738 0.04011539 0.009470869 -0.006725756 0.004466948 0.0027646876 0.035130125
-0.019157484 -0.021792572 0.012037409 0.02228177 -0.014617351 -0.021923268 0.022595167 0.035425067
-0.036130767 -0.026301725 0.001705289 0.0075169397 0.014761587 0.021201083 0.047565997 0.005800504
-0.02809981 0.027543446 0.009857734 -0.013465726 -0.020830004 0.029648308 -0.014965366 -0.0145747885
0.011347636 -0.0017487588 0.0072336784 0.01454995 0.012266501 -0.032194667 -0.017952757 -0.013145278
-0.022988457 -0.019348448 -0.031291187 -0.010823392 -0.00064325327 -0.022652436 0.009174907 0.038763102
-0.0012195328 -0.027182397 0.033167377 0.019132106 0.030597063 0.010293105 0.04088551 0.0014195921
0.07035317 0.04710087 -0.03802243 0.035040792 0.021552041 0.016503137 -0.059729747 -0.063345276
00000000: 7ad9 ef3c b8ed 463c 66d2 bc3c de54 f33a
00000010: 412d 2dbd db0a a3bc 2729 89bc 2a5a 6dbb
00000020: 78dc d7bc 9f3e acbb 4c4f 723d 8c40 5e3b
00000030: bcd8 bfbc ef18 23bd 955d 963c 0a9c a53b
00000040: 2428 67bd ab7a 4139 596f 5b3c 40a9 00bd
00000050: d2dc 1dbd c271 74bd 81bd 03bd 75f1 7bbc
00000060: 3af5 82bd 0920 24bd fa42 a6bd eb88 7bbd
00000070: 1af9 52bd 3c96 f9bc 1569 583b 0816 e5bc
00000080: bded 49bd f051 26bc 1e3e 9ebc 6bb5 0d3c
00000090: a8d8 91bd 7581 96bc 9164 83bc 0acb 8a3d
000000a0: 9f21 423d 546c 653c d418 e4bb 56db aa3c
000000b0: 10d3 7a3d 1ee3 f93c 20a5 cf3d ce0b 8e3d
000000c0: 30e0 8e3d 11e1 813c 8a4f d4ba c815 bcba
000000d0: a19a 703c 57d8 0bbd 4072 d7bb 7916 8a3c
000000e0: 4d00 76bc d680 28bc 417b 9abc 64ae 69bc
000000f0: 881e 133b 68d4 27bb 4b5c 1cbd 819c 953b
00000100: acc2 5dba 645b fd3b 097d 383d b634 bebc
00000110: 3e43 12bd 9951 01bd f29c c03c 0191 e63b
00000120: 0e10 1f3c 2c01 9a3d 2eef 8ebc 5004 33bd
00000130: 444a d6bc 8e9e 8c3b 297c 8a3b 193b 293c
00000140: ac2b fd3c 2623 8ebc 9d52 5abd 1435 9ebc
00000150: 3751 9fbc 1e38 c0bb 6823 523c f14d 383d
00000160: 4681 963c a538 f13c 43e4 e23c 98b4 6d3c
00000170: f761 4dbc ae61 05bd 4949 773c d430 783d
00000180: d24f f83c 5380 bc3c 7d83 8bbc 4a3d 11bc
00000190: a362 c83c 1532 57bc 267b c6bc ead3 8cbc
000001a0: da03 d73c 2623 59bc 7236 803c d19e abbc
000001b0: 8a04 733d 979d bc3b bcaa 2ebd ffe8 11bd
000001c0: dc90 c93c 125f 80bc c13f 57bc eda7 1d3d
000001d0: 587d 173d b63a 753b 8055 bfbc 2dbe 07bd
000001e0: 2c30 ec3b 80b9 a83c 73b2 acbc bf9b bf3c
000001f0: ea96 9c3c cf5a 07bc d917 f0bb 27e1 f63a
00000200: a018 e4bc b1cc 5fbc 3591 d23c 339c 5bbc
00000210: 4f17 04bd 14b6 513c d1eb 90bc 4af3 c2bc
00000220: 7d6f 623d ce88 373c 1e86 f4bb 7712 b93b
00000230: 64dc 0d3c b683 043d b1e4 043d 90e5 6d3c
00000240: 42f7 f03c 3f58 273c ca26 9b3c 5afa d83b
00000250: c531 0cbc 35bb d93c d5b1 7b3c 117b 813c
00000260: 30ed 2abc dc0e a83c 4597 4dbb 0b3d b93c
00000270: 7b86 42bd c2d2 b33c dd13 c33c 9ad0 b5bc
00000280: 1c1a e6bc 9bb4 343d d55b c53c dd34 80bc
00000290: 3a51 d6bb 97d1 873d 1c90 1ebb 8f18 58bc
000002a0: 6f96 62bc 8858 533d 45d9 723d 92e7 72bd
000002b0: 5e4d 613d 4827 243c 0d3b 4fbd 4047 ea3c
000002c0: 643e c63c 5ad9 1dbd 2b33 193d 5448 7e3d
000002d0: c470 42bc 4fcf 28bd 0791 2e3c 3807 1d3d
000002e0: bf56 093d 777d 9b3d ad9e e9bc ef14 293c
000002f0: da80 483c b408 c53b 2509 093d 82b7 b93d
00000300: 7178 8a3c 99c9 a03c 0950 243d b42b 1b3c
00000310: bb63 dcbb 7a5f 923b c32f 353b 9be4 0f3d
00000320: 28f0 9cbc 5686 b2bc 8d38 453c 4288 b63c
00000330: 9d7d 6fbc 6d98 b3bc 8019 b93c e019 113d
00000340: dbfd 13bd b776 d7bc 0184 df3a a950 f63b
00000350: 95da 713c e5ad ad3c 90d4 423d 2712 be3b
00000360: 9331 e6bc cba2 e13c 5582 213c 599f 5cbc
00000370: afa3 aabc 02e1 f23c 4b31 75bc 18cb 6ebc
00000380: 6feb 393c 9c36 e5ba 7e08 ed3b ea62 6e3c
00000390: 6ff9 483c 8ede 03bd a911 93bc 4b5f 57bc
000003a0: 4a52 bcbc a380 9ebc 302b 00bd 9954 31bc
000003b0: ff9f 28ba 9a91 b9bc 5952 163c 0fc6 1e3d
000003c0: bbd8 9fba 9ead debc 84da 073d efba 9c3c
000003d0: b1a6 fa3c 69a4 283c 9177 273d 9b11 ba3a
000003e0: 5315 903d d8ec 403d 68bd 1bbd ef86 0f3d
000003f0: e88d b03c 9631 873c 2ea7 74bd 2bbb 81bd

fc1.bias f4 [128]
-0.0046856166 -0.016279886 0.008318538 0.022312975 -0.007214149 0.0026413999 0.030741135 0.040229026
-0.02281809 0.019861894 -0.013869797 0.0045102127 -0.0012914265 -0.023660973 -0.015577608 -0.021580163
0.029897016 -0.015049171 0.03911922 -0.01491987 -0.016583914 -0.03056748 -6.858672e-07 0.0071583265
0.0034415054 -0.016430845 -0.0071634594 -0.022975218 -0.025366789 0.038077664 -0.0132088205 -0.010368289
0.004381266 0.007051919 0.0068570236 0.012331804 0.02410357 0.009717504 -0.012972774 0.007773838
-0.021570139 0.037827197 -0.01881706 -0.01781443 0.014540075 -0.031409144 -0.022773508 0.024820028
0.04131749 0.01399607 0.027072502 0.01310733 0.019878414 -0.00045914107 -0.0013762933 0.030631974
0.014942683 -0.022055756 -0.013720773 -0.0044284305 0.01512839 -0.016615415 -0.031075152 -0.0119819455
0.008117301 -0.009764945 -0.01764306 0.00097636576 -0.0020167588 0.012269581 -0.00883275 0.011004354
0.028094698 0.01137182 -0.011559834 -0.022945145 -0.0061863298 -0.016024377 0.010098689 -0.012240375
-0.015202179 0.006254266 0.027052732 -0.011847816 -0.0031211798 0.02825444 0.008534978 0.012393612
0.0034459315 0.0088358745 -0.02196188 -0.0072065014 0.03355791 -0.0128560355 0.011772412 -0.026459703
0.0050573796 -0.017513681 -0.009495679 0.007994115 0.017086536 -0.027507326 0.007688892 0.006566146
0.0005900838 -0.021306457 -0.015438918 0.0006057598 -0.012602303 -0.022777129 -0.029862894 0.004544103
0.020651564 -0.0012670835 0.030250058 -0.010040136 0.008766952 0.01934128 0.006823922 -0.021633578
-0.018508244 0.011066226 0.016393555 0.011533805 -0.014543035 0.021130117 0.037621118 0.006005935
00000000: cd89 99bb 655d 85bc 7a4a 083c b3c9 b63c
00000010: ab64 ecbb 561b 2d3b d5d4 fb3c 31c7 243d
00000020: 01ed babc 69b5 a23c 253e 63bc 68ca 933b
00000030: 1545 a9ba a8d4 c1bc 3939 7fbc e2c8 b0bc
00000040: 96ea f43c cc90 76bc 7a3b 203d 7872 74bc
00000050: fdda 87bc a768 fabc 6f1c 38b5 6590 ea3b
00000060: e18a 613b fb99 86bc 74bb eabb 8636 bcbc
00000070: 03ce cfbc 53f7 1b3d cf69 58bc c2df 29bc
00000080: b990 8f3b c913 e73b e2b0 e03b 560b 4a3c
00000090: da74 c53c 2a36 1f3c c28b 54bc aebb fe3b
000000a0: dcb3 b0bc b1f0 1a3d 3c26 9abc 91ef 91bc
000000b0: 7f39 6e3c e0a6 00bd 828f babc 5f53 cb3c
000000c0: 873c 293d c64f 653c 27c7 dd3c 20c0 563c
000000d0: 0ed8 a23c dfb8 f0b9 bd64 b4ba e8ef fa3c
000000e0: 28d2 743c 46ae b4bc 18cd 60bc 5e1c 91bb
000000f0: 11dd 773c 0d1d 88bc 5191 febc ec4f 44bc
00000100: 6efe 043c 26fd 1fbc 2e88 90bc ccf2 7f3a
00000110: 992b 04bb 5a06 493c 3db7 10bc 9b4b 343c
00000120: da26 e63c df50 3a3c 7565 3dbc 75f7 bbbc
00000130: b2b6 cabb 8e45 83bc f974 253c db8b 48bc
00000140: 8f12 79bc 96f0 cc3b b19d dd3c 581d 42bc
00000150: b58c 4cbb db75 e73c 4bd6 0b3c 940e 4b3c
00000160: 23d5 613b 58c4 103c 67e9 b3bc 8424 ecbb
00000170: 0574 093d 1fa2 52bc 13e1 403c 05c2 d8bc
00000180: 60b8 a53b da78 8fbc c493 1bbc c0f9 023c
00000190: 10f9 8b3c 0b57 e1bc 1af3 fb3b d328 d73b
000001a0: daaf 1a3a e18a aebc 84f3 7cbc dacb 1e3a
000001b0: e479 4ebc 1a97 babc 07a3 f4bc b3e6 943b
000001c0: 782d a93c 4414 a6ba f8ce f73c 627f 24bc
000001d0: 43a3 0f3c 9b71 9e3c 359b df3b e738 b1bc
000001e0: 9a9e 97bc 1e4f 353c c74b 863c 49f8 3c3c
000001f0: e945 6ebc 1119 ad3c 9a18 1a3d 6fcd c43b

fc2.weight f4 [10, 128]
0.019706737 -0.011755415 0.029593477 -0.06829732 0.0056105377 -0.016218955 0.09065125 0.0049727936
-0.022965789 0.06870499 -0.008718291 -0.06734026 0.10454672 0.016262343 -0.013695656 0.03991253
-0.08275517 -0.033660833 0.099659115 -0.0069828634 -0.0756022 -0.094030626 -0.08181294 -0.031163517
-0.06943763 0.057222355 0.0054932805 0.020686947 0.026763137 -0.09860577 -0.05484779 -0.035731025
0.0037149102 -0.06109388 -0.060939044 -0.09979917 -0.005226944 -0.046821382 -0.06374388 -0.07685288
-0.061118584 0.055905767 0.01408589 0.0893642 0.07243709 -0.08159122 0.07070302 0.08399936
-0.037666004 0.04674568 0.037339676 -0.011975053 -0.047056146 -0.100003906 0.10992866 -0.016269263
-0.05790663 -0.042536806 -0.026745126 -0.0546174 0.07793167 -0.034563422 -0.08249971 -0.022278195
0.027496526 -0.008604716 -0.003208449 0.00726106 0.009477068 0.104039736 -0.10092216 -0.07757167
0.008315286 -0.07383116 0.0675756 -0.0721936 0.05540887 0.07318246 -0.044116694 0.028575014
-0.11701566 0.07150945 0.017100707 -0.007363319 0.06683102 -0.051640946 0.022459721 -0.022996774
0.061389007 -0.0875361 -0.071776524 0.0744106 0.11229893 0.058504622 -0.0020772694 -0.035243176
0.0999987 -0.068806276 -0.007667549 -0.037900783 -0.07667599 -0.07116868 0.05148949 -0.050559424
-0.115182936 -0.046785943 0.02114757 -0.051361118 0.021172564 -0.06733716 -0.061070252 0.061838903
0.09311246 -0.038480107 0.07685821 -0.09797265 -0.041437536 -0.0020033983 0.048919808 -0.08734111
-0.005071608 -0.02868883 -0.005175381 -0.06941546 -0.043586146 0.06134132 -0.0045451834 -0.073344134
0.035268866 -0.08156477 0.0977718 -0.029469445 0.040092282 0.09817759 -0.022593096 0.090691864
0.07055679 0.11815731 -0.07366102 -0.04098978 -0.14086598 -0.029743036 0.0027063417 -0.09755884
0.05855095 0.056044977 0.040889442 -0.082206234 0.05228839 0.0031160894 -0.026438849 -0.015761584
0.024995446 0.061741985 -0.0062089027 -0.101995364 0.0034626161 0.049843993 0.006879206 -0.108032025
-0.06805344 -0.007007669 0.0036485898 0.0027239567 0.09494024 0.055279322 -0.07040984 0.029887674
-0.0028657373 0.07317239 -0.06782779 -0.095614485 -0.063290454 0.068692386 -0.07255697 -0.112750925
0.11685559 0.12682737 0.033560775 0.03883812 -0.087485924 0.1063721 -0.084960036 -0.0049845157
0.060525753 -0.052692465 -0.046209376 0.0075508766 -0.05632469 -0.028505461 -0.069871515 -0.028349448
0.12162829 0.0032207328 0.07058203 0.020513978 0.04622529 -0.051129803 0.07368085 -0.0008824612
0.11703728 -0.024912445 -0.058717757 -0.041205302 0.06353288 0.060144458 0.05320112 -0.06726885
-0.011731532 0.09975896 -0.14699806 -0.01461431 -0.11575088 -0.05679461 0.03312595 -0.026885709
0.06544365 -0.016865004 -0.060003832 0.08573946 0.06764974 -0.057864327 0.10072069 0.028296603
-0.105347425 0.011265264 -0.08004323 -0.02622655 0.058827296 -0.014323282 0.05215235 0.05817494
-0.033810694 -0.040690385 0.053755146 -0.011617168 -0.10304422 0.0068957703 -0.059764482 -0.08517811
-0.070602596 0.049957164 -0.06675184 0.017137114 -0.07144132 -0.10656191 -0.10837357 -0.13617384
0.018486707 0.026532289 -0.083113484 0.009236382 -0.052536547 -0.0328036 0.095000006 -0.014542564
00000000: 0670 a13c c999 40bc 056e f23c 77df 8bbd
00000010: 9ad8 b73b 9ddd 84bc 5da7 b93d d1f2 a23b
00000020: c022 bcbc 34b5 8c3d 2ad7 0ebc b1e9 89bd
00000030: 971c d63d 9b38 853c bf63 60bc 527b 233d
00000040: 8b7b a9bd f1df 09bd 141a cc3d 81d0 e4bb
00000050: 54d5 9abd 2193 c0bd 8b8d a7bd a24a ffbc
00000060: 5135 8ebd fd61 6a3d fa00 b43b ac77 a93c
00000070: 5e3e db3c d2f1 c9bd 14a8 60bd b25a 12bd
00000080: da75 733b 943d 7abd 389b 79bd 8263 ccbd
00000090: c946 abbb c7c7 3fbd 278c 82bd 0b65 9dbd
000000a0: 7b57 7abd 72fd 643d 81c8 663c 9404 b73d
000000b0: e659 943d 4c19 a7bd bfcc 903d db07 ac3d
000000c0: ab47 1abd 6678 3f3d 7df1 183d 0333 44bc
000000d0: f2bd 40bd d9ce ccbd 4722 e13d 1e47 85bc
000000e0: 812f 6dbd 133b 2ebd 9818 dbbc 7fb6 5fbd
000000f0: a49a 9f3d 6092 0dbd 9cf5 a8bd c380 b6bc
00000100: 6540 e13c cbfa 0cbc d844 52bb 30ee ed3b
00000110: b445 1b3c c912 d53d 47b0 cebd e5dd 9ebd
00000120: d63c 083c cb34 97bd 1465 8a3d 3dda 93bd
00000130: 69f4 623d b0e0 953d b5b3 34bd 2616 ea3c
00000140: e8a5 efbd 8c73 923d c816 8c3c ff47 f1bb
00000150: b4de 883d 7585 53bd 73fd b73c bb63 bcbc
00000160: 0a73 7b3d 2046 b3bd 92ff 92bd 9664 983d
00000170: fbfc e53d 8ba2 6f3d cc22 08bb 265b 10bd
00000180: 1ecc cc3d 4eea 8cbd 1040 fbbb da3d 1bbd
00000190: 4d08 9dbd e3c0 91bd a5e6 523d 6617 4fbd
000001a0: 08e5 ebbd 9ea2 3fbd ab3d ad3c 0960 52bd
000001b0: 1672 ad3c 11e8 89bd cd24 7abd ca4a 7d3d
000001c0: bfb1 be3d 519d 1dbd d667 9d3d e2a5 c8bd
000001d0: 68ba 29bd 724b 03bb 2360 483d e5df b2bd
000001e0: bb2f a6bb d604 ebbc 3e96 a9bb b129 8ebd
000001f0: 6387 32bd 0941 7b3d c3ef 94bb 7335 96bd
00000200: 1676 103d 6e0b a7bd 953c c83d e869 f1bc
00000210: ce37 243d 5511 c93d 2815 b9bc a8bc b93d
00000220: 1480 903d 76fc f13d 97db 96bd e6e4 27bd
00000230: 2c3f 10be aba7 f3bc e15c 313b eecc c7bd
00000240: 1fd3 6f3d 6b8f 653d b07b 273d be5b a8bd
00000250: 5a2c 563d 4e37 4c3b 4996 d8bc 701e 81bc
00000260: 40c3 cc3c 2ae5 7c3d 0d74 cbbb f2e2 d0bd
00000270: 0fed 623b 3729 4c3d f66a e13b e53f ddbd
00000280: 9a5f 8bbd 97a0 e5bb 2e1d 6f3b 6984 323b
00000290: 0770 c23d 926c 623d 0933 90bd ffd6 f43c
000002a0: 18cf 3bbb 68db 953d 4ce9 8abd 87d1 c3bd
000002b0: 6d9e 81bd 98ae 8c3d c098 94bd f5e9 e6bd
000002c0: fc51 ef3d 09df 013e 0677 093d b814 1f3d
000002d0: d22b b3bd 9ed9 d93d 87ff adbd 2655 a3bb
000002e0: dae9 773d 0ed4 57bd 0b46 3dbd 586d f73b
000002f0: b8b4 66bd 4984 e9bc cc18 8fbd 1a3d e8bc
00000300: 4118 f93d ee12 533b 508d 903d ee0c a83c
00000310: bb56 3d3d 7c6d 51bd fce5 963d f854 67ba
00000320: 3eb1 ef3d 2f15 ccbc 0882 70bd e4c6 28bd
00000330: 871d 823d 095a 763d 6be9 593d 40c4 89bd
00000340: 9d35 40bc 6d4e cc3d a986 16be dc70 6fbc
00000350: cc0e edbd 77a1 68bd 13af 073d 6b3f dcbc
00000360: 5207 863d 7a28 8abc 94c6 75bd 2c98 af3d
00000370: f28b 8a3d 2503 6dbd a646 ce3d 47ce e73c
00000380: 64c0 d7bd f191 383c b4ed a3bd 10d9 d6bc
00000390: e4f4 703d 33ac 6abc b49d 553d d948 6e3d
000003a0: 157d 0abd f6aa 26bd 5b2e 5c3d ef55 3ebc
000003b0: d908 d3bd eaf5 e13b 9acb 74bd dc71 aebd
000003c0: 1898 90bd e29f 4c3d 30b5 88bd 2263 8c3c
000003d0: d44f 92bd 213d dabd f6f2 ddbd 2871 0bbe
000003e0: 6f71 973c 3e5a d93c 6737 aabd 3254 173c
000003f0: 9030 57bd 115d 06bd 5d8f c23d ef43 6ebc

fc2.bias f4 [10]
-0.033382688 -0.0153594725 -0.07260685 0.006077827 -0.029673303 0.025428867 0.06435952 0.080421224
-0.06694058 -0.037019644
00000000: 49bc 08bd 4ca6 7bbc e6b2 94bd 8228 c73b
00000010: 6d15 f3bc 3350 d03c edce 833d e2b3 a43d
00000020: 2518 89bd e9a1 17bd
