models/mnist_model_20241118_121016.pth (torch, 59224 bytes, 16 tensors)

conv1.weight f4 [4, 1, 3, 3]
0.26326802 -0.01890526 -0.25649709 0.004872449 -0.11420356 -0.22338067 -0.13068421 -0.35548908
0.21015993 -0.055475794 0.057915267 0.21567053 -0.035105813 0.17939915 -0.111647226 -0.08733184
-0.21060964 -0.27315134 -0.35170934 0.17456564 0.21746114 0.2869336 0.35450816 -0.24017906
0.35140827 -0.098138206 0.06885126 -0.09166931 -0.06409418 0.2422697 -0.15140331 -0.28154713
-0.22553404 0.2819387 -0.046676636 -0.07057272
00000000: 11cb 863e 34df 9abc 9653 83be 11a9 9f3b
00000010: 8ee3 e9bd e7bd 64be 15d2 05be aa02 b6be
00000020: 2a34 573e 963a 63bd 8f38 6d3d bcd8 5c3e
00000030: 1dcb 0fbd 69b4 373e 4da7 e4bd 09db b2bd
00000040: 0eaa 57be 7eda 8bbe 3f13 b4be 56c1 323e
00000050: 22ae 5e3e f6e8 923e 1882 b53e 80f1 75be
00000060: c9eb b33e affc c8bd e401 8d3d 1fbd bbbd
00000070: cf43 83bd 8c15 783e 7809 1bbe f226 90be
00000080: 65f2 66be 455a 903e 0030 3fbd 6e88 90bd

conv1.bias f4 [4]
0.20699762 -0.07566949 0.18842173 -0.17175269
00000000: 2ff7 533e 9bf8 9abd a0f1 403e f0df 2fbe

bn1.weight f4 [4]
1.1396514 0.9980627 0.8532052 1.0582294
00000000: 19e0 913f 0981 7f3f a86b 5a3f 1074 873f

bn1.bias f4 [4]
-0.15323073 -0.09128605 -2.913237e-05 -0.19042385
00000000: 84e8 1cbe 2ef4 babd 4a61 f4b7 78fe 42be

bn1.running_mean f4 [4]
0.19930904 -0.08998073 0.20105062 -0.17044283
00000000: ab17 4c3e d147 b8bd 37e0 4d3e 9188 2ebe

bn1.running_var f4 [4]
0.4607214 0.18080936 0.5810502 0.19583327
00000000: ade3 eb3e 1726 393e b5bf 143f 8488 483e

conv2.weight f4 [8, 4, 3, 3]
-0.021425433 -0.03360779 0.2551574 -0.00647984 0.024274258 0.031698696 0.0103969695 -0.14302458
-0.16019636 -0.114125066 -0.11831662 0.019909605 -0.010076992 -0.12611139 -0.09833889 -0.0840475
0.019369872 -0.1362804 -0.0026947148 0.18607236 0.023837183 -0.042338405 0.07664875 0.08938639
-0.01848488 -0.12836999 0.021925405 0.03486635 -0.09031144 -0.03976672 -0.08178266 -0.0018026589
0.1328449 0.11700097 0.06911223 0.0010288708 0.09405411 0.122465536 0.0090238 0.0050008898
0.007934519 0.055020783 -0.28654212 -0.28954586 -0.09216832 0.07597091 0.102226816 0.02064562
-0.11335372 0.051400952 0.09529376 0.14961037 0.014248992 0.11657898 0.029098297 0.064178154
-0.00584505 0.060733303 -0.12648556 -0.08116902 0.06771393 0.0102511775 0.1009637 -0.1781412
-0.1809684 -0.10095724 -0.08788267 0.027738914 0.038998503 0.011274946 0.03723396 0.16438353
-0.005721807 0.20753811 0.07627464 -0.10481803 -0.062389325 0.045705866 0.04192803 -0.038036127
-0.163431 -0.009125293 -0.022013443 0.015685366 -0.003120733 -0.01252698 0.044024523 0.08512036
0.09991709 0.19573389 -0.03668815 -0.020045554 -0.10205763 -0.013412713 0.08303057 0.028318195
0.0045086513 0.018610511 -0.081139475 0.088311374 0.09040399 0.03671659 0.26692894 0.08476597
-0.10355035 0.21654722 0.32864067 0.07597019 -0.089023754 -0.053750765 0.05484502 0.16519308
-0.04472641 0.095610425 0.12262285 0.013261323 -0.18616675 0.07705492 -0.11908695 -0.023450378
-0.14241198 -0.1312458 -0.014871992 -0.06501209 0.08898826 0.18849216 -0.12515138 0.06796234
0.13806878 0.09124843 -0.0011425896 0.06371832 0.08875217 -0.018319152 -0.11723393 0.073677
-0.030681284 -0.122415446 0.030760145 -0.1331765 -0.06868109 -0.09618325 -0.16390531 0.1577166
-0.04525544 -0.10684845 0.032517288 0.26746637 0.25469753 -0.03461126 0.051560823 -0.04309629
0.08209651 0.091857396 0.04624933 -0.003594987 0.19610584 0.03400613 0.050161432 -0.123829156
0.19206595 0.09395676 0.054838236 0.0999148 -0.06230042 0.06831849 -0.20673893 0.046603438
-0.0701348 0.14556704 -0.007996364 -0.07404132 -0.078365594 -0.056109767 -0.165704 -0.08395192
0.023942541 -0.08343089 -0.1376719 -0.10732221 0.11853907 0.20049591 0.004646593 -0.06651217
0.024485188 0.07454946 0.120603286 0.050590064 0.09647125 0.101963 -0.16542667 -0.053063713
-0.08340042 0.035612695 -0.046066057 -0.08950799 -0.034410227 -0.063870996 -0.1460551 -0.02413271
-0.008495398 -0.040859696 -0.16182882 0.009478921 0.07505288 -0.12639062 0.17969237 0.019891417
-0.023611184 -0.036989048 -0.05232243 -0.045085125 0.05338641 0.22947313 -0.03723885 -0.08621567
-0.042432707 -0.030298268 -0.04493162 -0.12014704 0.064565115 -0.07223921 -0.031728256 0.03325349
-0.051731694 0.13087064 0.039681923 -0.16566473 0.16157436 -0.014245367 -0.20652153 0.08616068
-0.18827842 -0.057248205 0.08208751 0.01108098 0.19819453 -0.13436937 -0.03654406 0.13915306
-0.11914812 -0.010266457 0.050173033 0.043421064 -0.023933958 0.10144871 0.040133342 -0.008794861
-0.111806214 -0.13532352 -0.06276362 -0.124327295 0.24044538 0.04013449 0.0699812 0.23628461
00000000: 6484 afbc 52a8 09bd fea3 823e d654 d4bb
00000010: cfda c63c 7ed6 013d 0d58 2a3c 0975 12be
00000020: 840a 24be 67ba e9bd fc4f f2bd 7819 a33c
00000030: f819 25bc 5823 01be e665 c9bd 1821 acbd
00000040: 91ad 9e3c 178d 0bbe d099 30bb c189 3e3e
00000050: 3246 c33c 096b 2dbd 05fa 9c3d 3610 b73d
00000060: 9a6d 97bc 6c73 03be e89c b33c 05d0 0e3d
00000070: 34f5 b8bd 6ee2 22bd ab7d a7bd 3247 ecba
00000080: 7e08 083e 349e ef3d b68a 8d3d 2ddb 863a
00000090: 719f c03d 36cf fa3d 8fd8 133c 81de a33b
000000a0: c9ff 013c 795d 613d a6b5 92be 5b3f 94be
000000b0: bfc2 bcbd a396 9b3d 4b5c d13d 0121 a93c
000000c0: ff25 e8bd ce89 523d 6029 c33d 7633 193e
000000d0: 9b74 693c f6c0 ee3d 8d5f ee3c d66f 833d
000000e0: d587 bfbb 7cc3 783d 6e85 01be f13b a6bd
000000f0: 9aad 8a3d 8ef4 273c 0ec6 ce3d a66a 36be
00000100: c84f 39be abc2 cebd d4fb b3bd b83c e33c
00000110: e5bc 1f3d 8dba 383c a382 183d 2854 283e
00000120: ff7d bbbb df84 543e e135 9c3d d6aa d6bd
00000130: f38b 7fbd 1336 3b3d babc 2b3d c5cb 1bbd
00000140: 755a 27be 4182 15bc 8955 b4bc 997e 803c
00000150: 3685 4cbb f63d 4dbc 0f53 343d 9553 ae3d
00000160: 55a1 cc3d 776e 483e 5046 16bd 9336 a4bc
00000170: 9703 d1bd ffc0 5bbc ee0b aa3d 8ffb e73c
00000180: 4fbd 933b 1275 983c 742c a6bd 98dc b43d
00000190: ba25 b93d 2364 163d e9aa 883e c899 ad3d
000001a0: 3512 d4bd 8ebe 5d3e 9743 a83e 4296 9b3d
000001b0: 1652 b6bd c329 5cbd 2ca5 603d 6028 293e
000001c0: 0a33 37bd 66cf c33d b021 fb3d 0546 593c
000001d0: 7fa2 3ebe f8ce 9d3d dce3 f3bd 021b c0bc
000001e0: 72d4 11be 4d65 06be a8a9 73bc 0f25 85bd
000001f0: 7a3f b63d 1704 413e af27 00be d72f 8b3d
00000200: e761 0d3e 75e0 ba3d f2c2 95ba c07e 823d
00000210: b3c3 b53d 0c12 96bc 5818 f0bd f8e3 963d
00000220: 5157 fbbc f3b4 fabd b3fc fb3c 6c5f 08be
00000230: aca8 8cbd b9fb c4bd cbd6 27be 7680 213e
00000240: c55d 39bd 5cd3 dabd d930 053d 5af1 883e
00000250: b767 823e 89c4 0dbd 7131 533d bc85 30bd
00000260: 3722 a83d bb1f bc3d f06f 3d3d e099 6bbb
00000270: f8cf 483e 034a 0b3d 1376 4d3d 249a fdbd
00000280: f0ac 443e 676c c03d 0f9e 603d 21a0 cc3d
00000290: ba2e 7fbd 91ea 8b3d 5fb3 53be 3fe3 3e3d
000002a0: d6a2 8fbd 870f 153e 2e03 03bc faa2 97bd
000002b0: 247e a0bd 5bd3 65bd 4fae 29be fcee abbd
000002c0: 2623 c43c d1dd aabd ddf9 0cbe bfcb dbbd
000002d0: 9dc4 f23d cd4e 4d3e 7242 983b 8837 88bd
000002e0: 2995 c83c 63ad 983d dbfe f63d 8737 4f3d
000002f0: b892 c53d fad1 d03d 9c65 29be 5659 59bd
00000300: d7cd aabd 9ede 113d c3af 3cbd f74f b7bd
00000310: bdf1 0cbd ccce 82bd 788f 15be f6b1 c5bc
00000320: 4830 0bbc 7f5c 27bd 74b6 25be 7a4d 1b3c
00000330: 53b5 993d 8b6c 01be 4701 383e 53f3 a23c
00000340: 3e6c c1bc d481 17bd 0b50 56bd 2eab 38bd
00000350: b5ab 5a3d 01fb 6a3e c487 18bd d791 b0bd
00000360: ebcd 2dbd 1334 f8bc 380a 38bd a70f f6bd
00000370: b73a 843d 27f2 93bd 7df5 01bd d034 083d
00000380: 9de4 53bd f402 063e 8389 223d 04a4 29be
00000390: c073 253e 6665 69bc 617a 53be 0375 b03d
000003a0: 0fcc 40be 187d 6abd 7f1d a83d 008d 353c
000003b0: 82f3 4a3e 2098 09be 39af 15bd 247e 0e3e
000003c0: ee03 f4bd a434 28bc 3d82 4d3d 49da 313d
000003d0: 2611 c4bc 57c4 cf3d dc62 243d 5218 10bc
000003e0: a8fa e4bd 4092 0abe 368a 80bd 4f9f febd
000003f0: 5037 763e 1064 243d 4e52 8f3d 98f4 713e

conv2.bias f4 [8]
-0.065539084 0.027709996 -0.042778973 -0.0065550567 0.05702143 0.06270636 -0.04252901 -0.0014139726
00000000: 5b39 86bd 1300 e33c 0139 2fbd cdcb d6bb
00000010: 4e8f 693d 316c 803d e632 2ebd 0c55 b9ba

bn2.weight f4 [8]
1.3016659 1.3123658 1.3165584 1.2529905 1.2501254 1.2656674 1.3195039 1.3548707
00000000: fd9c a63f 9afb a73f fc84 a83f fe61 a03f
00000010: 1c04 a03f 6401 a23f 81e5 a83f 676c ad3f

bn2.bias f4 [8]
0.10197295 0.076471746 0.14381203 0.09834426 0.136366 0.1441754 0.10874653 0.12668759
00000000: 32d7 d03d 389d 9c3d 7643 133e b768 c93d
00000010: 87a3 0b3e b7a2 133e 80b6 de3d 64ba 013e

bn2.running_mean f4 [8]
-0.17114447 0.05696001 0.33547315 -0.04588672 0.24798052 0.016619403 -0.21810661 0.24919303
00000000: 7f40 2fbe e64e 693d 23c3 ab3e b7f3 3bbd
00000010: 9bee 7d3e 6a25 883c 5757 5fbe 752c 7f3e

bn2.running_var f4 [8]
0.054744158 0.06801142 0.10396337 0.080590844 0.12249547 0.11701284 0.1193122 0.041925516
00000000: 693b 603d 9249 8b3d bfea d43d d00c a53d
00000010: e8de fa3d 6ea4 ef3d f459 f43d 17ba 2b3d

fc1.weight f4 [32, 392]
0.021810468 0.002101673 0.11731608 0.049245253 0.055306435 0.010111704 0.0024227719 0.070680656
0.0116660725 0.001181566 0.05724221 0.034586072 0.021489555 0.008293349 0.08057218 0.041312627
0.106230184 0.06990493 -0.055416863 -0.016801044 0.050773352 -0.01511301 0.03940423 0.06557604
0.062912226 -0.00032465317 0.04618228 -0.054726988 -0.013819728 0.030211326 0.055632103 0.033579364
-0.09342017 -0.04840078 -0.07165832 -0.02302737 0.08428101 0.053345047 0.02218168 0.032846447
0.011110036 -0.1047403 0.05073669 -0.07858698 -0.0054780426 0.027016472 0.0014312767 -0.005509935
-0.042001124 0.04620441 -0.08983837 -0.095430344 0.023919797 -0.0632012 -0.026464006 -0.024842799
-0.042532746 -0.098547354 -0.07001705 0.076206096 -0.0039136424 0.06011801 -0.05338898 0.009684201
-0.055079706 0.0041645938 0.03280735 0.04425249 0.019954912 -0.0004504143 -0.00013977662 -0.0683189
-0.037571173 0.00015634543 0.059390187 0.05658126 0.02298704 -0.057946417 -0.0627317 0.028771883
0.066668935 0.08319336 -0.07776309 -0.032490134 -0.00037250505 -0.009855732 0.12406004 0.059854165
-0.086423405 0.046850137 -0.06513653 -0.0122420695 -0.067524455 -0.06684615 -0.051045272 0.08866527
-0.055055484 -0.014313413 0.0034357782 -0.09149192 -0.14604989 0.03940059 0.0666393 -0.017482704
0.019630533 -0.030031994 -0.07571515 -0.13321559 -0.07070484 0.019044565 -0.017339237 0.029941492
0.045965478 -0.09625618 -0.07608063 -0.014267177 -0.009314295 -0.06696708 0.121214844 -0.0387736
-0.14974095 -0.15403752 0.007465074 0.014169025 -0.040591065 0.0018051169 -0.042733803 -0.13024841
-0.12596723 -0.03225723 -0.018908827 -0.029097658 -0.108787954 -0.079926714 -0.12785506 -0.026515434
0.06481762 0.0057863262 -0.114399604 -0.09006071 -0.044939686 -0.05657956 0.010854172 0.025904587
0.02020016 -0.0546455 -0.05313577 -0.03480489 -0.09414132 -0.12024957 0.11292812 0.1064419
0.021752557 0.041707512 -0.04229716 -0.14378959 0.013411121 0.021550816 0.060500354 -0.057381697
0.021236477 0.024213271 -0.032875787 0.00464698 0.00421076 0.012945138 -0.0117270965 0.12461087
0.03951298 -0.11203457 -0.058612306 0.13529052 -0.053079624 -0.07454823 -0.01600221 -0.055218708
-0.053727783 0.091453694 0.009317234 -0.12824894 -0.0029010724 -0.05593602 0.014819767 -0.02520044
0.03523481 -0.07236049 0.010428824 0.052046146 -0.029766489 -0.004392578 -0.080177 -0.0056473846
-0.002573846 0.033658456 0.008274359 0.058949396 -0.044058077 0.019005518 0.022598365 0.018557206
0.104774475 0.11324308 0.010244595 -0.017254472 -0.061521735 0.014478695 0.041959785 0.03972264
0.07178915 -0.008621923 -0.0527831 -0.0903466 -0.101725906 0.029515801 0.03760847 0.03877729
0.032310188 0.017068285 -0.10521675 -0.018533062 -0.04067321 0.045449633 0.07008531 0.071406275
-0.09543018 -0.017165435 -0.015991606 0.02882563 0.015438038 -0.042578097 -0.042126864 -0.11459044
-0.11262534 0.0018337148 0.02174459 -0.04979572 0.059745956 -0.03565799 -0.026477909 -0.07881843
-0.022682784 -0.006229977 0.061817143 0.006941825 0.040077943 0.054609373 0.029610824 0.023861673
0.016017972 0.0691857 -0.037626382 0.039338678 0.06504318 0.073555075 0.008016161 0.056245167
00000000: deab b23c 39bc 093b 6a43 f03d 64b5 493d
00000010: 0089 623d 8fab 253c 5ec7 1e3b 05c1 903d
00000020: 0e23 3f3c c7de 9a3a cf76 6a3d 20aa 0d3d
00000030: dd0a b03c d4e0 073c 0703 a53d 6e37 293d
00000040: 368f d93d 512a 8f3d cbfc 62bd 58a2 89bc
00000050: b8f7 4f3d 8f9c 77bc 5466 213d bb4c 863d
00000060: 20d8 803d 3636 aab9 a129 3d3d 6829 60bd
00000070: 246c 62bc be7d f73c 7dde 633d 848a 093d
00000080: 1353 bfbd e53f 46bd 99c1 92bd e5a3 bcbc
00000090: 869b ac3d 5680 5a3d 5bb6 b53c ff89 063d
000000a0: de06 363c 1582 d6bd 47d1 4f3d 36f2 a0bd
000000b0: 2781 b3bb a651 dd3c ad99 bb3a af8c b4bb
000000c0: 5f09 2cbd d640 3d3d 2efd b7bd fc70 c3bd
000000d0: 73f3 c33c a16f 81bd 0bcb d8bc 2083 cbbc
000000e0: d136 2ebd 32d3 c9bd 1965 8fbd f111 9c3d
000000f0: 033e 80bb 4d3e 763d 67ae 5abd 7caa 1e3c
00000100: 429b 61bd 2577 883b 0061 063d 1942 353d
00000110: 7c78 a33c 9625 ecb9 0091 12b9 c8ea 8bbd
00000120: 3be4 19bd a8f0 2339 2043 733d c0c1 673d
00000130: 514f bc3c 3959 6dbd 7a79 80bd 03b3 eb3c
00000140: b989 883d 4861 aa3d 4142 9fbd 6014 05bd
00000150: c84c c3b9 f079 21bc 3113 fe3d a429 753d
00000160: c1fe b0bd eee5 3f3d 4d66 85bd f692 48bc
00000170: 434a 8abd a2e6 88bd d914 51bd 2396 b53d
00000180: dc81 61bd ce82 6abc cb2a 613b 1e60 bbbd
00000190: 1a8e 15be 8362 213d 2f7a 883d e337 8fbc
000001a0: 36d0 a03c a805 f6bc 8b10 9bbd ab69 08be
000001b0: b3cd 90bd 5903 9c3c 040b 8ebc dc47 f53c
000001c0: 4c46 3c3d f621 c5bd 29d0 9bbd e1c0 69bc
000001d0: fc9a 18bc 0926 89bd 7d3f f83d 11d1 1ebd
000001e0: b155 19be 03bc 1dbe 949d f43b 3325 683c
000001f0: d142 26bd ac99 ec3a a409 2fbd d75f 05be
00000200: 8efd 00be 2820 04bd afe6 9abc 365e eebc
00000210: 38cc debd 9eb0 a3bd 70ec 02be e536 d9bc
00000220: 1abf 843d 399b bd3b 574a eabd c071 b8bd
00000230: ad12 38bd f8bf 67bd b2d5 313c db35 d43c
00000240: ce7a a53c f6d3 5fbd e5a4 59bd 938f 0ebd
00000250: 2acd c0bd 6845 f6bd dc46 e73d 36fe d93d
00000260: 6b32 b23c 7fd5 2a3d c93f 2dbd 943d 13be
00000270: 52ba 5b3c 568b b03c 38cf 773d 1209 6bbd
00000280: 1ff8 ad3c e95a c63c c3a8 06bd b245 983b
00000290: 6afa 893b d817 543c 0223 40bc fc33 ff3d
000002a0: 5dd8 213d 6172 e5bd 7513 70bd 9989 0a3e
000002b0: 056a 59bd beac 98bd 1117 83bc 032d 62bd
000002c0: aa11 5cbd 134c bb3d 50a7 183c b153 03be
000002d0: eb1f 3ebb 2b1d 65bd 9cce 723c 2771 cebc
000002e0: 6052 103d bd31 94bd a9dd 2a3c 572e 553d
000002f0: dad8 f3bc 9def 8fbb d733 a4bd b20d b9bb
00000300: f8ad 28bb 73dd 093d 2d91 073c ec74 713d
00000310: 3e76 34bd 76b1 9b3c 3520 b93c 4805 983c
00000320: 0094 d63d fdeb e73d f2d8 273c 4059 8dbc
00000330: 37fe 7bbd 0c38 6d3c 06de 2b3d 35b4 223d
00000340: 3106 933d f742 0dbc 1833 58bd a307 b9bd
00000350: ac55 d0bd 1fcb f13c 570b 1a3d f0d4 1e3d
00000360: b057 043d cad2 8b3c e17b d7bd a6d2 97bc
00000370: f498 26bd 6529 3a3d e388 8f3d 743d 923d
00000380: e670 c3bd 879e 8cbc d400 83bc ba23 ec3c
00000390: d3ef 7c3c 5f66 2ebd 388d 2cbd 65ae eabd
000003a0: 1da8 e6bd 4259 f03a b621 b23c 99f6 4bbd
000003b0: 2db8 743d 1d0e 12bd 33e8 d8bc 8f6b a1bd
000003c0: 3fd1 b9bc d624 ccbb f933 7d3d 4078 e33b
000003d0: c528 243d 14ae 5f3d 6692 f23c 8e79 c33c
000003e0: 1f38 833c 3bb1 8d3d 1f1e 1abd 9821 213d
000003f0: 5c35 853d 0ba4 963d 3756 033c 5561 663d

fc1.bias f4 [32]
0.04382911 0.038164012 0.016561758 0.055788662 0.03760131 0.06520152 0.010612861 0.073261015
0.07934027 0.034092262 -0.0139765395 0.053374752 -0.010936707 -0.03169612 0.03466774 -0.054953
-0.0075481185 0.021605985 0.011294096 0.02674047 0.016631745 -0.054895874 0.006802681 -0.077017434
0.042548884 -0.06311518 0.0016177524 -0.045121897 0.025074873 0.049947668 0.0025527126 0.0025917238
00000000: 2786 333d de51 1c3d 86ac 873c a782 643d
00000010: d503 1a3d 6088 853d 91e1 2d3c df09 963d
00000020: 277d a23d 54a4 0b3d dbfd 64bc 7c9f 5a3d
00000030: e02f 33bc cad3 01bd c3ff 0d3d 6616 61bd
00000040: 3556 f7bb 09ff b03c df0a 393c d50e db3c
00000050: 4c3f 883c 7fda 60bd 06e9 de3b 51bb 9dbd
00000060: bd47 2e3d 8842 81bd c30a d43a bdd1 38bd
00000070: d269 cd3c ed95 4c3d 694b 273b e9d9 293b

fc2.weight f4 [10, 32]
-0.07937105 0.23656987 0.05347448 -0.042112257 0.037657503 0.15214822 -0.124126635 0.017442359
-0.0798221 -0.284716 -0.041268446 -0.26273584 0.23590885 0.11488018 0.13320427 0.021059295
-0.049805604 -0.14885364 0.17023554 0.17528328 -0.19112346 -0.15838799 -0.34594938 -0.14693816
0.10943819 -0.16894911 -0.16546589 0.12797199 0.13611132 0.17806554 -0.3448511 -0.26568374
0.21785553 -0.07928718 -0.12891276 0.22057347 0.0025097579 0.22977604 -0.09112682 0.18269534
0.23071855 -0.22960116 -0.2396395 0.053390987 -0.27051002 -0.16134556 -0.4026066 -0.26027682
0.09922092 0.07877139 -0.3593253 -0.25035182 0.0031010543 -0.15928902 -0.26352963 -0.31148258
0.1940469 -0.23840046 0.11419554 -0.34651145 0.20920129 0.19805072 0.050095554 0.14350532
-0.16616075 -0.010622658 -0.12750489 -0.3125941 0.079196684 -0.07521118 -0.042932462 0.23823886
0.15758142 -0.37224203 0.124898314 -0.17515898 -0.21763204 -0.13714059 0.10371736 0.11022881
0.15493351 -0.11111446 0.15039515 -0.047774576 0.12608686 -0.10040395 -0.34243307 0.09202923
0.18618132 -0.14739457 0.12169966 0.11954938 0.19062036 -0.15488094 0.12047917 -0.27391413
-0.25237566 -0.09104604 -0.123779655 0.18077031 0.06525803 -0.29314682 -0.07808066 0.20400849
-0.16307709 0.16482534 0.12605695 -0.19100507 -0.3101386 0.076370955 -0.18478858 0.09687514
-0.2826748 0.10130189 -0.10680731 0.14750795 -0.16270117 -0.1013882 -0.015058637 -0.097848035
0.03341642 0.22666398 -0.027576404 0.2012754 0.083767995 -0.26032034 0.14703761 0.04429578
-0.118006565 -0.15050653 0.073232695 0.076817684 -0.010191217 0.011233493 -0.09195804 -0.13299829
-0.03681863 -0.26890346 -0.18355198 -0.1749128 -0.000702999 -0.2909676 0.19816394 0.24905735
0.1711253 0.14559776 -0.22901356 -0.24508964 0.11847456 -0.08663521 0.1821326 0.15731867
0.21672954 -0.17151882 -0.11829473 -0.17951146 -0.26734045 0.19657046 -0.33148703 0.19716491
-0.14907582 -0.12057876 0.016933251 -0.0113615785 -0.117264494 -0.18407917 0.15586093 0.03275363
-0.2678358 0.14397012 -0.30316135 0.13846779 0.011747426 0.14779526 0.15713167 0.05214863
-0.18498924 0.26289454 0.14038828 0.23267624 -0.019436264 0.12619287 0.0030341623 -0.24773978
-0.3442667 -0.25345454 -0.016051644 -0.19248474 -0.17818311 0.11264909 0.030266069 0.16119537
0.19796222 0.22319004 -0.1489105 -0.29998136 -0.067036875 0.09523212 0.16422 -0.2947378
-0.24683806 0.112404406 0.07612364 -0.17592086 -0.043686755 -0.17186426 -0.27296045 0.064795546
0.15085791 0.20398082 -0.070918456 0.18545662 0.19732936 -0.058480788 -0.01867753 0.12554063
-0.31620914 -0.2120355 -0.011831631 -0.021658838 0.12157187 0.23685105 -0.24221589 -0.22371349
-0.29185444 -0.21433419 -0.07892373 0.14853136 -0.14905559 0.18337062 -0.046296112 -0.12185852
0.14863364 0.03107002 0.1270549 0.1627085 -0.13183187 -0.39997387 0.06047984 0.2409541
0.023233514 -0.31984907 0.18487161 -0.12741856 -0.12016939 0.082112275 -0.11666373 -0.27270153
0.22764337 0.23936638 -0.114180274 -0.16715564 -0.26359263 0.0009355154 -0.029700035 -0.061841715
00000000: 4a8d a2bd 5f3f 723e 0e08 5b3d e77d 2cbd
00000010: c13e 1a3d becc 1b3e 1b36 febd 47e3 8e3c
00000020: c579 a3bd 4cc6 91be 1a09 29bd 5085 86be
00000030: 1792 713e 4d46 eb3d b366 083e 8b84 ac3c
00000040: f600 4cbd 176d 18be 3a52 2e3e 767d 333e
00000050: deb5 43be 7630 22be 4720 b1be f576 16be
00000060: 2121 e03d ff00 2dbe e46f 29be 170b 033e
00000070: c460 0b3e d056 363e 5390 b0be b307 88be
00000080: 8515 5f3e 5161 a2bd b501 04be 03de 613e
00000090: c07a 243b 694a 6b3e b3a0 babd 7d14 3b3e
000000a0: 7c41 6c3e 911c 6bbe 0f64 75be 82b0 5a3d
000000b0: 4a80 8abe c537 25be 7422 cebe 0143 85be
000000c0: 5634 cb3d e552 a13d 7cf9 b7be 1d2e 80be
000000d0: 0f3b 4b3b a91c 23be 5bed 86be a57a 9fbe
000000e0: 3bb4 463e 401f 74be 5adf e93d f369 b1be
000000f0: dd38 563e cfcd 4a3e ff30 4d3d 0ff3 123e
00000100: 0b26 2abe a80a 2ebc a490 02be 550c a0be
00000110: df31 a23d 5208 9abd f3d9 2fbd e3f4 733e
00000120: 065d 213e 8296 bebe b0ca ff3d e05c 33be
00000130: efda 5ebe 956e 0cbe c469 d43d a4bf e13d
00000140: e4a6 1e3e fa8f e3bd 3001 1a3e 46af 43bd
00000150: ea1c 013e 96a0 cdbd 6353 afbe d279 bc3d
00000160: 51a6 3e3e 9aee 16be ac3d f93d 4ed6 f43d
00000170: fc31 433e 1c99 1ebe c8bd f63d 793e 8cbe
00000180: 6237 81be 5976 babd 3080 fdbd da1b 393e
00000190: 01a6 853d 5717 96be c1e8 9fbd 9ae7 503e
000001a0: aefd 26be f9c7 283e 1315 013e d596 43be
000001b0: 7dca 9ebe 6068 9c3d 3839 3dbe 7966 c63d
000001c0: c0ba 90be 5e77 cf3d cabd dabd 530c 173e
000001d0: 239b 26be 9ea4 cfbd 80b8 76bc 8d64 c8bd
000001e0: a8df 083d 9a1a 683e e9e7 e1bc 231b 4e3e
000001f0: 8e8e ab3d b548 85be 0791 163e 7e6f 353d
00000200: 6dad f1bd 621e 1abe 06fb 953d 9752 9d3d
00000210: 10f9 26bc af0c 383c 7f54 bcbd b430 08be
00000220: 22cf 16bd b7ad 89be 0df5 3bbe 571c 33be
00000230: 7749 38ba b5f9 94be 7deb 4a3e e408 7f3e
00000240: 783b 2f3e 9417 153e 8882 6abe c7f8 7abe
00000250: caa2 f23d cd6d b1bd f880 3a3e 2518 213e
00000260: 59ee 5d3e a1a2 2fbe 8244 f2bd dad1 37be
00000270: d9e0 88be c449 493e abb8 a9be 99e5 493e
00000280: 55a7 18be fff1 f6bd 9ab7 8a3c ea25 3abc
00000290: 5e28 f0bd 407f 3cbe 029a 1f3e ac28 063d
000002a0: c621 89be e76c 133e f737 9bbe 80ca 0d3e
000002b0: 4778 403c a457 173e 20e7 203e cd99 553d
000002c0: d26d 3dbe 1d9a 863e f2c1 0f3e ae42 6e3e
000002d0: cd38 9fbc b438 013e ccd8 463b 7faf 7dbe
000002e0: ba43 b0be cbc4 81be bd7e 83bc b81a 45be
000002f0: a275 36be 91b4 e63d 8cf0 f73c 6610 253e
00000300: 9cb6 4a3e ee8b 643e fe7b 18be 2897 99be
00000310: a14a 89bd 0f09 c33d 4a29 283e dfe7 96be
00000320: 1ec3 7cbe 4834 e63d b6e6 9b3d 9924 34be
00000330: e2f0 32bd 2ffd 2fbe 79c1 8bbe 87b3 843d
00000340: 7f7a 1a3e 59e0 503e b23d 91bd 57e8 3d3e
00000350: b510 4a3e 8d89 6fbd 9f01 99bc b98d 003e
00000360: 2ae6 a1be d61f 59be 75d9 41bc e06d b1bc
00000370: acfa f83d 1589 723e 7107 78be 2615 65be
00000380: f26d 95be 6c7a 5bbe c4a2 a1bd 9b18 183e
00000390: 07a2 18be 82c5 3b3e fea0 3dbd f690 f9bd
000003a0: 6b33 183e 8e86 fe3c ae1a 023e 0f9d 263e
000003b0: effe 06be 60c9 ccbe b5b9 773d acbc 763e
000003c0: 3654 be3c 42c3 a3be fc4e 3d3e 037a 02be
000003d0: 5f1b f6bd 7b2a a83d 65ed eebd 899f 8bbe
000003e0: 581b 693e 761c 753e 59d7 e9bd d92a 2bbe
000003f0: 9df5 86be 603d 753a 7d4d f3bc bd4d 7dbd

fc2.bias f4 [10]
-0.12922163 -0.025032068 -0.10278501 0.03283308 -0.061063047 0.17490402 -0.11396327 -0.102460966
-0.021446835 0.07116938
00000000: ad52 04be 0d10 cdbc f380 d2bd fb7b 063d
00000010: 3f1d 7abd 0a1a 333e 9365 e9bd 0ed7 d1bd
00000020: 46b1 afbc 40c1 913d
