models/mnist_model_20241118_115543.pth (torch, 59224 bytes, 16 tensors)

conv1.weight f4 [4, 1, 3, 3]
0.28662327 0.1667995 0.18298571 -0.18317775 0.09536761 -0.056421895 -0.18564613 -0.1675909
0.058891837 -0.11940235 0.12291012 0.25995353 -0.2771496 0.069076695 0.10822245 -0.3359314
0.0046788366 -0.03723505 -0.27488962 0.22862476 0.11644949 0.090222746 -0.21281858 -0.12833506
-0.12335058 0.05788748 -0.26166645 0.021697458 0.24087964 -0.0040029916 0.2413708 0.17215674
-0.14305776 0.2521773 -0.005117885 -0.25381586
00000000: 49c0 923e 7dcd 2a3e 9b60 3b3e f392 3bbe
00000010: 1850 c33d a51a 67bd 051a 3ebe f39c 2bbe
00000020: 9138 713d 3889 f4bd 4db8 fb3d a118 853e
00000030: 8de6 8dbe 1578 8d3d bba3 dd3d 33ff abbe
00000040: ed50 993b c883 18bd 55be 8cbe 9c1c 6a3e
00000050: 127d ee3d b4c6 b83d 1ded 59be 446a 03be
00000060: 3b9f fcbd 6c1b 6d3d 25f9 85be debe b13c
00000070: 27a9 763e 872b 83bb e829 773e db49 303e
00000080: bc7d 12be 621d 813e eeb3 a7bb 27f4 81be

conv1.bias f4 [4]
-0.12749541 -0.17181368 0.07951627 0.2599644
00000000: 288e 02be edef 2fbe 6dd9 a23d 0e1a 853e

bn1.weight f4 [4]
1.0816193 0.9555924 0.96802866 0.9572147
00000000: 8072 8a3f b4a1 743f bad0 773f 060c 753f

bn1.bias f4 [4]
-0.0694742 -0.096196555 -0.055728402 -0.14698093
00000000: 7d48 8ebd b302 c5bd 7743 64bd 2b82 16be

bn1.running_mean f4 [4]
-0.12045978 -0.18137401 0.06511588 0.2658631
00000000: 9eb3 f6bd 1cba 39be 795b 853d 351f 883e

bn1.running_var f4 [4]
0.18322954 0.25816256 0.21564801 0.43609986
00000000: 86a0 3b3e e22d 843e d5d2 5c3e 7b48 df3e

conv2.weight f4 [8, 4, 3, 3]
-0.016381845 0.08721177 -0.03732918 0.17486611 -0.10341953 -0.17077705 -0.026444998 0.049270727
-0.17413607 -0.07793815 -0.091381416 0.048481997 0.046038684 0.12188036 0.15229732 0.23709506
0.16235806 0.07310959 -0.048714336 -0.030141912 0.07392402 -0.17639805 0.16419595 0.06412248
-0.1231826 -0.09834258 -0.00526459 -0.02629048 0.015046759 0.03784816 -0.031649325 0.15251765
-0.12048944 -0.084765226 0.15045677 0.033893578 0.119522795 0.20268485 0.11606556 0.040218078
-0.066922925 -0.1069128 -0.1527412 0.10740987 -0.03398412 -0.018294798 -0.06831446 0.066583104
-0.16866371 -0.005264283 -0.13772868 -0.0102445455 -0.20882246 0.018533634 -0.047810376 0.08618907
0.07857439 0.17113501 -0.115886845 -0.21524437 0.030151408 0.04511338 0.09612533 0.12782988
0.011270107 -0.029975927 0.121926956 -0.1316952 0.1211208 -0.22132505 0.12391344 0.03996978
-0.058645695 0.062201235 -0.14303516 0.121555224 0.1312099 -0.011749969 0.17903014 0.10372835
0.21497032 -0.08864102 -0.045192335 0.064977325 0.11761543 0.02473958 -0.1427217 0.034082904
0.13976772 -0.039086763 -0.035202093 0.024120726 0.016185038 0.10238689 0.13216071 0.09757754
0.16292791 0.107452415 0.08501505 -0.056219812 -0.017686091 -0.10804377 -0.054162517 0.0604236
-0.049542353 -0.073938325 -0.14860408 -0.0038897728 -0.027188245 0.007546468 -0.06339104 -0.036688726
-0.122122765 -0.12885578 -0.104987554 -0.020144004 -0.14993246 0.055132154 0.07637884 -0.03175934
0.05358284 0.15595865 0.070762135 0.09480312 0.0024668342 0.07459098 -0.14371243 -0.13614306
0.062752545 -0.026451834 -0.20946375 -0.1107101 0.024877746 -0.16508903 0.00067951623 0.004386663
0.06650305 0.111143194 -0.04747959 0.046163402 0.23537607 -0.049779337 -0.07441917 0.0819507
-0.004795851 0.037750486 -0.019464536 0.11105744 -0.20038278 0.08526725 -0.18250713 0.10047444
0.03281145 0.024515223 -0.05279735 -0.008282432 -0.053973123 -0.10451126 -0.11768617 -0.1040262
-0.18015066 0.022258218 0.043683667 -0.15774587 -0.06627278 -0.14990674 -0.0971013 -0.022755116
0.1021559 -0.045026835 -0.089770235 -0.024365349 -0.122437656 0.14699878 -0.068529606 0.07044752
0.2286505 0.12718223 0.1493582 -0.039994758 0.08449063 -0.06783926 -0.022692345 0.24845068
0.10191242 0.19202296 -0.056469593 0.019075917 -0.06839047 -0.16124614 0.04808285 0.016551433
0.008695281 -0.06666236 0.054459944 -0.03300591 0.041644663 -0.24469616 -0.029809738 0.14013176
0.13783237 -0.014124804 0.093985595 0.058395773 0.014772749 0.19787072 -0.035147022 -0.0512542
0.0995815 0.14885065 -0.02993516 -0.19288164 -0.03366994 -0.036051735 0.008368459 -0.1507243
-0.019893406 0.06738 0.018431198 -0.024505364 0.06804034 -0.0524815 0.24241008 0.18766044
-0.08257421 -0.061335266 0.035921812 0.15757543 0.14467165 0.018636907 -0.025108378 -0.10465459
-0.054370113 -0.055348758 0.11301781 0.1425909 0.058599062 0.04842672 0.110240564 0.021420656
0.12024974 -0.028822662 -0.068894945 0.0032126685 -0.115206085 -0.04847078 -0.009038206 -0.15665796
-0.1757463 0.029052572 0.16157289 0.10909699 0.059780013 0.056407582 -0.10779011 0.017086813
00000000: 3833 86bc 169c b23d 7be6 18bd 1a10 333e
00000010: 9ecd d3bd 2ee0 2ebe 2ea3 d8bc 1ad0 493d
00000020: ba50 32be 099e 9fbd 2e26 bbbd 0f95 463d
00000030: 0f93 3c3d 699c f93d d4f3 1b3e 0cc9 723e
00000040: 3141 263e 7bba 953d af88 47bd 2cec f6bc
00000050: 7a65 973d b1a1 34be fc22 283e a652 833d
00000060: 2947 fcbd d667 c9bd 9582 acbb 225f d7bc
00000070: ae86 763c ac06 1b3d b9a2 01bd 962d 1c3e
00000080: 2bc3 f6bd 6499 adbd 5711 1a3e fed3 0a3d
00000090: 5ec8 f43d 9e8c 4f3e c8b3 ed3d b6bb 243d
000000a0: e30e 89bd 19f5 dabd 3068 1cbe b5f9 db3d
000000b0: ef32 0bbd f9de 95bc 74e8 8bbd b95c 883d
000000c0: 2eb6 2cbe 0280 acbb bf08 0dbe bdd8 27bc
000000d0: 8ed5 55be d9d3 973c d0d4 43bd e583 b03d
000000e0: 9ceb a03d 043e 2f3e 1556 edbd 0569 5cbe
000000f0: 1600 f73c cfc8 383d 5bdd c43d d6e5 023e
00000100: 41a6 383c 1390 f5bc d7b4 f93d 1bdb 06be
00000110: 2f0e f83d 09a3 62be 54c6 fd3d 5ab7 233d
00000120: 7836 70bd b9c6 7e3d cf77 12be f2f1 f83d
00000130: e35b 063e f182 40bc ad53 373e 876f d43d
00000140: 2e21 5c3e 6c89 b5bd 991b 39bd d512 853d
00000150: 5ce0 f03d a9aa ca3c a325 12be 849a 0b3d
00000160: 451f 0f3e 7119 20bd 1230 10bd d498 c53c
00000170: 7c96 843c 38b0 d13d 2355 073e bcd6 c73d
00000180: 93d6 263e 0310 dc3d 5f1c ae3d bf46 66bd
00000190: 6ce2 90bc 0d46 ddbd 84d9 5dbd bd7e 773d
000001a0: ecec 4abd fa6c 97bd ab2b 18be 8feb 7ebb
000001b0: e2b9 debc 5d48 f73b 29d3 81bd eb46 16bd
000001c0: 801b fabd c5f2 03be b703 d7bd 0a05 a5bc
000001d0: e587 19be 41d2 613d 826c 9c3d 1516 02bd
000001e0: ae79 5b3d a0b3 1f3e bdeb 903d 2328 c23d
000001f0: 9caa 213b 28c3 983d 5a29 13be 1669 0bbe
00000200: 6884 803d 84b1 d8bc aa7d 56be fabb e2bd
00000210: 6acc cb3c 190d 29be 9021 323a ffbd 8f3b
00000220: c032 883d 0b9f e33d f579 42bd d615 3d3d
00000230: 6d06 713e 6be5 4bbd 1469 98bd c5d5 a73d
00000240: 8426 9dbb 41a0 1a3d 1774 9fbc 1572 e33d
00000250: 2531 4dbe 99a0 ae3d 26e3 3abe 8bc5 cd3d
00000260: 4d65 063d 26d4 c83c 0942 58bd 0ab3 07bc
00000270: ec12 5dbd 000a d6bd 7205 f1bd b00b d5bd
00000280: 6a79 38be de56 b63c a5ed 323d 2288 21be
00000290: 06ba 87bd 2781 19be 0cdd c6bd f068 babc
000002a0: 1d37 d13d 0f6e 38bd 75d9 b7bd d799 c7bc
000002b0: 98c0 fabd d986 163e 4059 8cbd ca46 903d
000002c0: 5b23 6a3e 0f3c 023e 5bf1 183e 8bd1 23bd
000002d0: 6c09 ad3d 4fef 8abd 4ce5 b9bc db69 7e3e
000002e0: 75b7 d03d aba1 443e a94c 67bd 1945 9c3c
000002f0: 4e10 8cbd b51d 25be 86f2 443d df96 873c
00000300: a776 0e3c 4786 88bd 6411 5f3d 3531 07bd
00000310: 9893 2a3d a191 7abe 8d33 f4bc b37e 0f3e
00000320: ee23 0d3e b96b 67bc 857b c03d 6830 6f3d
00000330: 6609 723c 9f9e 4a3e 53f6 0fbd edef 51bd
00000340: 63f1 cb3d 4e6c 183e 953a f5bc c482 45be
00000350: 7ee9 09bd fcaa 13bd dc1b 093c 7957 1abe
00000360: 7ff7 a2bc 87fe 893d 06fd 963c 79bf c8bc
00000370: bc58 8b3d d7f6 56bd 593a 783e 0f2a 403e
00000380: ab1c a9bd b03a 7bbd c022 133d 745b 213e
00000390: ce24 143e 6dac 983c 16b0 cdbc 2555 d6bd
000003a0: 32b3 5ebd 61b5 62bd e275 e73d 5903 123e
000003b0: 9205 703d 195b 463d cec5 e13d 5f7a af3c
000003c0: 7f45 f63d 811d ecbc cb18 8dbd a28b 523b
000003d0: 2bf1 ebbd 4c89 46bd fc14 14bc f26a 20be
000003e0: d7f6 33be a9ff ed3c 5d73 253e 3e6e df3d
000003f0: e3db 743d a30b 673d 10c1 dcbd a5f9 8b3c

conv2.bias f4 [8]
0.1420607 0.058722913 0.09941132 0.0077749807 0.14071302 0.12137794 0.09689585 -0.111816585
00000000: 5c78 113e 7087 703d 2a98 cb3d 44c5 fe3b
00000010: 1317 103e ff94 f83d 5571 c63d 1800 e5bd

bn2.weight f4 [8]
1.2899307 1.2537893 1.2776759 1.3581368 1.306229 1.2928305 1.3207824 1.2617619
00000000: 731c a53f 2b7c a03f e28a a33f 6dd7 ad3f
00000010: 8332 a73f 787b a53f 660f a93f 6a81 a13f

bn2.bias f4 [8]
0.028443865 0.10984221 0.14846878 0.060916383 0.09735747 0.11973131 0.1191036 0.09439834
00000000: 1c03 e93c f4f4 e03d 3308 183e 7583 793d
00000010: 5a63 c73d b035 f53d 97ec f33d eb53 c13d

bn2.running_mean f4 [8]
0.27137813 0.11165924 0.45432815 -0.20021889 -0.019429669 0.32864863 0.4057385 -0.1038332
00000000: 13f2 8a3e 9aad e43d b39d e83e 2e06 4dbe
00000010: f82a 9fbc a244 a83e f5bc cf3e 80a6 d4bd

bn2.running_var f4 [8]
0.15906172 0.27895385 0.34129322 0.16135545 0.19566491 0.255059 0.1219899 0.19464947
00000000: 13e1 223e 0ad3 8e3e fcbd ae3e 5d3a 253e
00000010: 625c 483e 1897 823e d7d5 f93d 3152 473e

fc1.weight f4 [32, 392]
-0.02309336 -0.017648302 -0.058734395 -0.08950026 0.016770324 -0.06309684 -0.008278038 -0.05783882
-0.00532734 -0.067800805 -0.046776425 0.010011386 -0.026541112 0.06293395 -0.07591905 0.051448636
0.09017581 0.10135224 -0.03890305 -0.071235165 0.036633506 -0.011694525 -0.05820937 -0.057569757
0.084234975 0.027306912 0.024850532 0.01655388 -0.045049008 -0.030222172 -0.067887075 0.03700409
0.10227018 0.031204302 -0.015446615 0.0021821104 0.005454245 -0.003039423 -0.04089445 -0.05831485
0.01428587 -0.016389528 -0.0595101 -0.016002087 -0.044186335 0.077123955 0.0016201483 0.04800439
0.029652242 -0.0072398833 -0.07756085 -0.057880025 -0.03386772 -0.042010173 -0.026217466 0.013191136
0.0015091418 0.031810362 0.023754885 -0.049419962 -0.033325814 -0.040120177 0.012677438 -0.055195067
-0.021787357 -0.0027034057 0.08881025 0.08432339 0.08158474 0.058295935 -0.021809101 -0.02495037
-0.029773913 0.020640887 0.03761868 0.045014065 0.04073833 0.03926984 0.03172832 0.06816246
0.08858937 -0.003706542 -0.114694715 -0.116225526 -0.044760842 -0.028765215 0.030190613 0.12838775
0.00533922 -0.011418641 0.03616357 -0.015331772 0.07070515 0.046155557 0.026298292 0.019169781
-0.02747373 0.028479276 -0.028819257 -0.023946451 0.03979324 0.021380117 0.015267837 -0.014575697
-0.050855905 0.043865718 -0.019071465 0.022985484 0.05158055 0.073365994 0.040574238 0.024518214
-0.053327546 -0.03015245 0.03758144 0.099023625 0.016340299 0.051116664 0.04864245 0.0019600657
-0.013968532 0.08210922 0.1666891 0.10026344 0.0083420705 -0.04335216 0.026146226 0.018843718
0.015728049 -0.021634126 0.04034419 -0.05763304 -0.06153014 -0.022996627 0.03681711 0.02984382
-0.016438086 -0.020373652 -0.09671078 -0.0477429 -0.042456217 0.02953669 0.00048441993 0.045649007
0.016382275 0.08229514 -0.013145361 0.03805706 -0.050145686 -0.07405842 -0.094542824 0.0063815736
-0.009634625 -0.0022630019 -0.033495095 -0.008901507 -0.048529193 -0.08458188 -0.13513337 -0.020010099
-0.06898645 0.014975173 -0.037655666 0.04189199 -0.021307716 -0.05772284 -0.09311165 -0.013453298
-0.08890675 -0.1334638 0.014576889 -0.026752632 -0.12138474 -0.1498288 0.032936566 -0.020253452
-0.1137762 -0.08555574 -0.029840298 -0.013214445 0.06241645 -0.029215254 0.016581962 0.001935124
0.0012958639 -0.031862963 0.083150096 0.07667239 -0.0066685206 -0.07729894 -0.044611603 -0.008214405
-0.052975424 -0.03229846 -0.036196806 -0.08602919 0.039123338 -0.044785716 0.051422283 -0.028085869
-0.07895553 -0.07990112 -0.035452846 0.03260866 0.030994058 0.06066776 0.07419123 -0.027638
0.008937602 -0.015063011 -0.039836034 0.06629766 -0.06368024 -0.020978086 0.021974463 0.022593612
-0.02798887 -0.04008485 -0.13180678 -0.10112235 0.038604196 0.00480525 -0.096729055 0.032405578
0.071288906 -0.048913024 -0.027736926 -0.057134897 -0.03150867 -0.015756255 0.053534687 0.0704348
0.02133664 -0.010208019 0.04700093 0.040769055 0.072534256 -0.038779955 -0.105039 -0.086542286
-0.046567176 0.06854059 0.10348254 -0.04305055 0.025483089 -0.00816181 -0.09044769 -0.040514845
-0.017809033 -0.09895953 -0.0019091513 -0.046690367 -0.008762129 -0.0389413 0.015976375 0.06347378
00000000: 492e bdbc 2c93 90bc 7a93 70bd ea4b b7bd
00000010: eb61 893c eb38 81bd 9ca0 07bc 66e8 6cbd
00000020: f890 aebb 26db 8abd a398 3fbd cc06 243c
00000030: bf6c d9bc 84e3 803d 727b 9bbd cebb 523d
00000040: 18ae b83d c391 cf3d ce58 1fbd bee3 91bd
00000050: 040d 163d 659a 3fbc f36c 6ebd 44ce 6bbd
00000060: 6383 ac3d bfb2 df3c 5893 cb3c 019c 873c
00000070: 4f85 38bd 7d94 f7bc 6108 8bbd 9a91 173d
00000080: 0773 d13d 2aa0 ff3c cd13 7dbc bd01 0f3b
00000090: 86b9 b23b 0e31 47bb f080 27bd 8ddb 6ebd
000000a0: 480f 6a3c 5543 86bc ddc0 73bd cf16 83bc
000000b0: bbfc 34bd 2af3 9d3d 285b d43a 40a0 443d
000000c0: 42e9 f23c 8b3c edbb 39d8 9ebd 9b13 6dbd
000000d0: e1b8 0abd dc12 2cbd 03c6 d6bc a21f 583c
000000e0: 65ce c53a 954b 023d 9b99 c23c 966c 4abd
000000f0: a680 08bd 0e55 24bd 07b5 4f3c 3914 62bd
00000100: 667b b2bc 9f2b 31bb 26e2 b53d beb1 ac3d
00000110: e615 a73d b8c7 6e3d 00a9 b2bc b864 ccbc
00000120: 6ce8 f3bc 1417 a93c 0c16 1a3d ab60 383d
00000130: 3cdd 263d 69d9 203d 8ef5 013d c398 8b3d
00000140: 586e b53d 75e9 72bb 10e5 eabd a607 eebd
00000150: 2557 37bd 07a5 ebbc 4e52 f73c 1478 033e
00000160: a0f4 ae3b 4015 3bbc 4020 143d 1d32 7bbc
00000170: ddcd 903d 9c0d 3d3d 846f d73c f209 9d3c
00000180: 9610 e1bc 5f4d e93c 5d16 ecbc 592b c4bc
00000190: 3dfe 223d 5b25 af3c f325 7a3c e7ce 6ebc
000001a0: 484e 50bd 8aac 333d c33b 9cbc 0e4c bc3c
000001b0: 2046 533d e940 963d 2c31 263d 6cda c83c
000001c0: fc6d 5abd 4502 f7bc ffee 193d e6cc ca3d
000001d0: 17dc 853c b55f 513d 4e3d 473d 7274 003b
000001e0: 45dc 64bc e128 a83d 8cb0 2a3e eb56 cd3d
000001f0: 2ead 083c 0992 31bd 9c30 d63c 245e 9a3c
00000200: 1cd8 803c 0d3a b1bc f33f 253d 9f10 6cbd
00000210: 0707 7cbd 6c63 bcbc 8acd 163d 077b f43c
00000220: 2aa9 86bc a5e6 a6bc 4d10 c6bd 0f8e 43bd
00000230: 92e6 2dbd eef6 f13c bef9 fd39 74fa 3a3d
00000240: 1f34 863c 5b8a a83d a45f 57bc b8e1 1b3d
00000250: 9065 4dbd f1ab 97bd ab9f c1bd 851c d13b
00000260: 8cda 1dbc df4e 14bb 2732 09bd a0d7 11bc
00000270: 8cc6 46bd 4439 adbd 6760 0abe 38ec a3bc
00000280: c548 8dbd 6e5a 753c d43c 1abd ef96 2b3d
00000290: 858d aebc c96e 6cbd 52b1 bebd 396b 5cbc
000002a0: be14 b6bd bcaa 08be e7d3 6e3c 5628 dbbc
000002b0: 9098 f8bd b96c 19be 7ee8 063d 91ea a5bc
000002c0: 7f03 e9bd d937 afbd a473 f4bc 6681 58bc
000002d0: 64a8 7f3d d454 efbc e5d6 873c fda3 fd3a
000002e0: fad9 a93a bd82 02bd 994a aa3d 6a06 9d3d
000002f0: 9b83 dabb e84e 9ebd a8ba 36bd b695 06bc
00000300: c2fc 58bd 644b 04bd 1a43 14bd 1230 b0bd
00000310: cb3f 203d 3a71 37bd 2ca0 523d 5614 e6bc
00000320: 70b3 a1bd 33a3 a3bd 0137 11bd a990 053d
00000330: 40e7 fd3c c27e 783d 92f1 973d 1669 e2bc
00000340: 056f 123c d9ca 76bc 1c2b 23bd 11c7 873d
00000350: c96a 82bd 3cda abbc ca03 b43c 3d16 b93c
00000360: ea48 e5bc 0330 24bd 5bf8 06be 3c19 cfbd
00000370: 6f1f 1e3d 5c75 9d3b e219 c6bd b6bb 043d
00000380: ebff 913d 0659 48bd 8d38 e3bc 4806 6abd
00000390: 3c0f 01bd 4313 81bc 3047 5b3d 1f40 903d
000003a0: 2dca ae3c 893f 27bc 0c84 403d 74fd 263d
000003b0: d78c 943d bbd7 1ebd b01e d7bd 153d b1bd
000003c0: 39bd 3ebd 025f 8c3d a7ee d33d c655 30bd
000003d0: e9c1 d03c 1db9 05bc a33c b9bd e5f2 25bd
000003e0: 40e4 91bc 4bab cabd 7d3c faba 663e 3fbd
000003f0: 088f 0fbc ea80 1fbd e3e0 823c 8bfe 813d

fc1.bias f4 [32]
-0.0059797666 -0.02863179 -0.026096612 0.022475397 0.011470008 -0.068117104 -0.017697118 0.10180571
-0.056979667 -0.009850428 0.089767255 0.0037987533 0.022277351 0.038488455 -0.07307594 0.048630327
-0.021496499 -0.0001589569 -0.04971442 -0.044247672 0.0015183901 0.068838134 -0.0015711833 0.057981707
0.0060147736 -0.00060889305 -0.054692633 -0.045904044 0.011679002 -0.0042299656 -0.02395816 -0.00053980213
00000000: ebf1 c3bb 378d eabc 90c8 d5bc 531e b83c
00000010: b3ec 3b3c fb80 8bbd 8cf9 90bc 837f d03d
00000020: 8363 69bd b163 21bc e5d7 b73d 81f4 783b
00000030: fe7e b63c 12a6 1d3d d7a8 95bd 9830 473d
00000040: 6d19 b0bc abad 26b9 59a1 4bbd 0c3d 35bd
00000050: b804 c73a 02fb 8c3d 2af0 cdba 3a7e 6d3d
00000060: 9417 c53b 1f9e 1fba 6205 60bd e105 3cbd
00000070: 4959 3f3c 869b 8abb e743 c4bc 8281 0dba

fc2.weight f4 [10, 32]
-0.27025008 -0.22970052 0.12318104 -0.20811455 0.1386298 -0.27283725 -0.186408 -0.33022583
-0.23015071 -0.05100229 -0.022131635 0.1448188 0.10869387 0.19977027 0.17903404 0.14065139
0.12663907 -0.17031823 -0.12421604 0.064921066 -0.058146592 -0.03222681 0.12369133 -0.23926096
0.148208 -0.2748455 0.1439743 -0.25154993 -0.029912379 0.031912763 0.17318624 0.11750057
-0.29488653 0.18739669 0.11722573 -0.3154029 0.12958136 -0.100904636 0.11722245 0.23044242
-0.2932056 0.24916169 0.21535157 0.040585127 -0.28420714 -0.32418483 -0.19955109 0.23633315
-0.26324093 -0.307057 0.12738633 0.03985151 -0.0033991802 0.24871919 0.11116544 0.24665372
-0.2887631 0.19425645 -0.27002 -0.06280511 -0.08558764 -0.05984559 -0.10009425 -0.17003973
-0.12550628 0.18616416 0.13639821 -0.094378084 0.14214987 0.20965627 0.2202804 -0.29507884
-0.085006036 -0.06900838 0.20719825 0.14336303 0.13094369 0.13727874 0.0050478578 -0.24408485
0.044030514 -0.10430877 0.022697436 0.12055516 -0.014255161 -0.25362498 0.13206153 -0.0063181026
0.035242904 0.20280144 -0.07583292 -0.21089393 -0.020628914 -0.17887281 -0.03818803 -0.2904611
0.185773 -0.036872398 -0.047368597 -0.32069755 0.002834375 0.09602498 -0.16239287 0.1431725
-0.22253236 -0.14063507 -0.03698315 -0.31569865 0.00923235 -0.123648904 -0.41536725 -0.18225099
0.2356612 0.14031799 -0.17747232 0.107094504 0.14141138 0.051507693 -0.00834034 -0.027109671
0.103509285 0.19624422 0.17257218 0.122468874 -0.027142623 -0.16027933 0.13283092 -0.22959663
-0.124467365 0.050302066 0.0379365 0.16131197 0.10713801 -0.11593406 0.14497733 0.052030344
0.13023907 0.28676987 -0.31344047 0.19964318 0.061131258 -0.36497092 -0.06408192 0.11275429
-0.30697083 0.037767995 0.08352165 0.10778591 0.09383426 -0.1140728 -0.12219429 -0.0931319
0.13836944 -0.13566026 -0.2910345 -0.26808074 -0.05525389 0.05892329 -0.39871925 0.21173403
0.22078876 -0.007826265 -0.016984448 0.13751173 -0.38078284 0.009159377 0.16734661 0.005019258
-0.22690174 -0.30726123 -0.323782 -0.18170843 -0.30983976 0.1638176 -0.21212652 -0.14589201
-0.05096501 0.10071869 -0.12828305 -0.06132792 -0.16630143 0.147607 0.16117626 0.17513302
0.10341714 -0.13020207 0.1409355 -0.13888563 -0.041654944 0.21277297 0.17155774 0.055010676
-0.15064655 -0.22555259 0.1118276 0.029629622 -0.029587198 0.119869776 0.24736643 -0.07682067
-0.38551974 -0.13516189 -0.29481792 0.17675309 -0.42501447 -0.11219654 0.13487287 0.2340838
0.1283462 -0.2775546 -0.06798919 -0.10533007 -0.09969223 -0.011216447 -0.06361638 -0.29255277
0.24385008 -0.012828492 -0.09086501 0.16031525 -0.062350404 0.29096928 -0.07653312 -0.23572905
-0.085017785 -0.23335513 -0.0019873958 -0.1349064 -0.1265941 0.11155155 -0.010030781 0.13505092
0.17834452 -0.07375263 0.21270065 -0.13283317 0.11066923 0.16711353 0.084581636 0.14056289
-0.2578239 0.16595574 -0.1333137 -0.0865814 -0.03280505 -0.07917003 0.1153048 -0.119238615
-0.3363655 0.17079689 -0.068787955 0.15760629 0.060318556 -0.23519391 -0.37897965 0.097991996
00000000: 385e 8abe 9d36 6bbe 5746 fc3d fb1b 55be
00000010: f8f4 0d3e 53b1 8bbe bde1 3ebe 5c13 a9be
00000020: a1ac 6bbe c7e7 50bd 674d b5bc 614b 143e
00000030: e49a de3d 9490 4c3e b354 373e eb06 103e
00000040: acad 013e e767 2ebe fb64 febd 56f5 843d
00000050: 1f2b 6ebd 4200 04bd e151 fd3d d300 75be
00000060: d7c3 173e 8db8 8cbe 006e 133e 27cb 80be
00000070: ce0a f5bc f5b6 023d bc57 313e 24a4 f03d
00000080: 5efb 96be ebe4 3f3e 0b14 f03d 7d7c a1be
00000090: fab0 043e 17a7 cebd 5312 f03d 19f9 6b3e
000000a0: 0b1f 96be 3e24 7f3e 1f85 5c3e 973c 263d
000000b0: 9983 91be 8efb a5be 1f57 4cbe 5101 723e
000000c0: 84c7 86be 9336 9dbe 9071 023e 563b 233d
000000d0: c8c4 5ebb 3eb0 7e3e b5aa e33d cb92 7c3e
000000e0: c2d8 93be 2aeb 463e 1040 8abe f79f 80bd
000000f0: 9348 afbd a620 75bd 37fe ccbd e51e 2ebe
00000100: b884 00be d1a1 3e3e f9ab 0b3e 4c49 c1bd
00000110: bc8f 113e 22b0 563e 2f91 613e 9314 97be
00000120: a517 aebd 4454 8dbd c72b 543e c2cd 123e
00000130: 1a16 063e cc92 0c3e 8068 a53b 61f1 79be
00000140: 5759 343d d69f d5bd f9ef b93c a0e5 f63d
00000150: 7b8e 69bc 22db 81be 233b 073e 1608 cfbb
00000160: dd5a 103d 2eab 4f3e 4a4e 9bbd 94f4 57be
00000170: f8fd a8bc 6f2a 37be 0d6b 1cbd 51b7 94be
00000180: 473b 3e3e 8307 17bd 9305 42bd 7832 a4be
00000190: ecc0 393b bfa8 c43d 514a 26be d09b 123e
000001a0: 86df 63be a402 10be a57b 17bd 41a3 a1be
000001b0: 4843 173c a33b fdbd 04ab d4be 01a0 3abe
000001c0: 2b51 713e 85af 0f3e 4ebb 35be 5d54 db3d
000001d0: 25ce 103e bbf9 523d eca5 08bc 1a15 debc
000001e0: adfc d33d 3ff4 483e c3b6 303e f6d0 fa3d
000001f0: 355a debc 4420 24be d404 083e 611b 6bbe
00000200: bfe8 febd 8a09 4e3d 4e63 1b3d f72e 253e
00000210: 2c6b db3d d66e edbd f074 143e c51d 553d
00000220: 645d 053e 80d3 923e 457b a0be 436f 4c3e
00000230: c564 7a3d 78dd babe 623d 83bd b9eb e63d
00000240: 482b 9dbe 9db2 1a3d 660d ab3d dcbe dc3d
00000250: 2d2c c03d 009f e9bd 0041 fabd f0bb bebd
00000260: b8b0 0d3e 86ea 0abe 7902 95be e141 89be
00000270: e751 62bd 8c59 713d ee24 ccbe ced0 583e
00000280: 7316 623e bc39 00bc f822 8bbc e0cf 0c3e
00000290: f8f5 c2be 3611 163c e95c 2b3e 9678 a43b
000002a0: ee58 68be 5851 9dbe c1c6 a5be c611 3abe
000002b0: 51a3 9ebe cdbf 273e b237 59be b764 15be
000002c0: b0c0 50bd 9a45 ce3d a25c 03be fc32 7bbd
000002d0: ec4a 2abe 4a26 173e 640b 253e 1256 333e
000002e0: 5ecc d33d b153 05be 6551 103e 0938 0ebe
000002f0: 609e 2abd 28e1 593e d5ac 2f3e e052 613d
00000300: 1743 1abe 42f7 66be de05 e53d d2b9 f23c
00000310: da60 f2bc 497e f53d a04d 7d3e 2854 9dbd
00000320: d862 c5be e167 0abe 60f2 96be c3fe 343e
00000330: 7f9b d9be 4dc7 e5bd 1d1c 0a3e aab3 6f3e
00000340: 306d 033e a31b 8ebe eb3d 8bbd 4bb7 d7bd
00000350: 712b ccbd 30c5 37bc 4e49 82bd 7ac9 95be
00000360: d6b3 793e 982e 52bc 6f17 babd ae29 243e
00000370: 2363 7fbd edf9 943e 65bd 9cbd f562 71be
00000380: ce1d aebd a6f4 6ebe f83e 02bb e724 0abe
00000390: e2a1 01be 2475 e43d 2558 24bc ca4a 0a3e
000003a0: f29f 363e 9e0b 97bd 33ce 593e 6b05 08be
000003b0: 8da6 e23d cf1f 2b3e 2339 ad3d b8ef 0f3e
000003c0: 7f01 84be 4df0 293e 6383 08be 9751 b1bd
000003d0: 975e 06bd e623 a2bd ec24 ec3d 6033 f4bd
000003e0: 1938 acbe 61e5 2e3e b3e0 8cbd 8b63 213e
000003f0: 9710 773d acd6 70be 9f09 c2be 07b0 c83d

fc2.bias f4 [10]
-0.01736836 -0.053578977 -0.20532423 0.031758104 -0.15192004 -0.11421067 -0.05852736 0.034032684
-0.10331067 -0.05426337
00000000: 1748 8ebc a175 5bbd 8440 52be c914 023d
00000010: ed90 1bbe 49e7 e9bd 63ba 6fbd db65 0b3d
00000020: 8b94 d3bd 4443 5ebd
